training/outputs/models/SageBase.pt (torch, 118831 bytes, 18 tensors)

conv1.lin_l.weight f4 [64, 3]
00000000: 22bf e1bd 4baa 27be 0fa4 5ebc a16a f63e
00000010: 9a3c a8be d66a 8f3e d72b ab3e 900f 87be
00000020: c8eb 75be 5843 8a3d 4614 9d3d 4320 c13d
00000030: 2bbd 003f 7d1e 063e e4e8 de3e 0b50 a7be
00000040: d136 89be b850 fbbe 4c93 f8be 8f6e 41be
00000050: 034c 033e 95ca 11bd da41 dbbe d550 f13e
00000060: 0319 1f3e 6202 93be ac77 d73e ea82 2b3e
00000070: b4cf 8b3e a4a7 ee3e 269a 27bd d149 bdbe
00000080: 496c fabe 9fe3 ec3e 09f6 913e 08ad ca3d
00000090: 7151 00bf 5f90 00bf c7fd 8dbe 7c17 883e
000000a0: 2f26 143f 3529 ab3e 8bb2 e8be 33ad 2b3e
000000b0: f660 71be b61f 9d3d a360 183e 1de6 833d
000000c0: d953 043f bcff 003f ff1f ed3d ee9a 0cbf
000000d0: 8bcd 8a3e 2c0c 10bd 8ca5 85bd 3eb5 4a3e
000000e0: cd2d d6be 22bc c0be 44d4 7fbe 1864 9c3e
000000f0: 3ffb d43e e756 11be 8c77 79bd 679d eebe
00000100: 9d39 043f 35b8 903e 3b2a 01bf 5147 66be
00000110: 6e40 e5be 8c71 133f 4242 be3e 202f 843e
00000120: a6d8 e5be 8622 7dbe a3cb 223d 2740 8c3e
00000130: d2e3 313d b6b3 e03e 5c3d 9f3e ae4b 763e
00000140: 53c7 bd3d 0b90 293e a15b f4be f2f9 1a3e
00000150: c7dd 113f 4b8f dd3e 2d49 fbbd 647d 37be
00000160: e6d3 b63d 9423 09bf 330b a7bd 69a8 883b
00000170: 8f75 65be 05b7 87be 2a39 9f3e 3759 fe3d
00000180: 23d2 a7be 580c b0bd 44b1 c4bd d6ce fe3d
00000190: 4f1c 2c3e 4925 53be b329 9a3e 90ed e3be
000001a0: 1a85 d13e e1cd cc3c f576 e4be 6195 c03e
000001b0: 93b4 443e 564f 543d 8422 f4be b5c6 5dbe
000001c0: ec9d 78be 3040 093f 004c 163e 1631 2e3e
000001d0: ef98 a4bc e002 73be 7e77 b83e e822 b7be
000001e0: c8e7 173f cbe1 babe 3989 00bf 87e2 223e
000001f0: 0bf3 bf3e a4fe bb3e b429 aa3e 35c1 db3d
00000200: 007d b83e d0ce 00be 7742 6ebd 4c7a 97bd
00000210: b6c5 913e 4628 0c3e a3a6 26be 9f64 e73e
00000220: cc74 443e cd2d fcbc 49dd 1abf 08b7 0f3e
00000230: 9fd6 0cbe f8ea 893e b507 293e dc09 f6be
00000240: 995c 0cbf f5d2 703e 7518 eabe ca42 053f
00000250: a64e 02bf b56b fbbd 7b24 e03d 55ec 6d3e
00000260: adfa ac3e 6992 e63d 1651 d73e ab6e 2dbe
00000270: a97a 0ebf 8604 aebe 1b37 08bf 3ced 69be
00000280: 725d 403c 802c 5a3e e497 e2be 7cf6 9ebe
00000290: d663 13be fd18 c83d ca70 b13d bfc3 893e
000002a0: 8002 b9be 234d 163d 62e8 60be a8b8 363d
000002b0: 742c b23e c7dd 1f3e dc03 bcbb 2020 22be
000002c0: 1632 e2be f7ba 16bf 9b77 0c3f ef81 d83e
000002d0: 5489 353d f8a4 b43e bb94 0b3f 2ce0 19bf
000002e0: e3ad 9cbe a1c0 80be 1e7c e0be 619b 9f3e
000002f0: faf4 dc3e 454e e2be 7201 c7be 62e5 84bd
-0.11022784 -0.16373555 -0.013588919 0.48128226 -0.32858735 0.28011197 0.33431885 -0.2637906
-0.24015725 0.06751126 0.076698825 0.094299816 0.5028865 0.13097568 0.43537056 -0.32678255
-0.26799634 -0.4908502 -0.4854988 -0.18889831 0.12821965 -0.035593588 -0.42823678 0.47131982
0.15536885 -0.28712755 0.4208349 0.16749159 0.27306902 0.46612275 -0.04091849 -0.3697038
-0.4891074 0.4626741 0.28508022 0.09896284 -0.5012427 -0.5022029 -0.2773268 0.26580417
0.57870764 0.33429876 -0.45448717 0.16765289 -0.23572144 0.07672064 0.14880614 0.06440375
0.5169044 0.5039022 0.115783684 -0.54923904 0.27109942 -0.035167858 -0.06525716 0.19795701
-0.41831818 -0.37643534 -0.24983317 0.30545115 0.41597936 -0.14193307 -0.060905024 -0.46604463
0.5165041 0.2826554 -0.50455064 -0.22488143 -0.44775718 0.57595134 0.37159926 0.25817204
-0.44891852 -0.24720201 0.039744984 0.27392694 0.043430157 0.4388711 0.311015 0.24052307
0.09266534 0.16558854 -0.47726157 0.15134409 0.5697903 0.43273386 -0.122698165 -0.17918926
0.08927135 -0.5356991 -0.08156433 0.0041704667 -0.22408126 -0.2650682 0.310983 0.1241936
-0.3277751 -0.085961044 -0.09604123 0.124417946 0.16807674 -0.20619692 0.3010994 -0.44517183
0.4092186 0.025000514 -0.44622007 0.37613967 0.19209509 0.051833473 -0.47682583 -0.21657832
-0.24278992 0.5361357 0.14677429 0.17010912 -0.020092456 -0.23731565 0.36028665 -0.3576882
0.59338045 -0.3650039 -0.50209385 0.15906726 0.37490115 0.36717713 0.33234942 0.10730211
0.36032867 -0.12578893 -0.058168855 -0.07396373 0.28471154 0.13687238 -0.16274504 0.45193955
0.1918518 -0.030783558 -0.60493904 0.14034665 -0.13753746 0.2693708 0.16506846 -0.48054397
-0.5482879 0.23517974 -0.45721784 0.5205504 -0.5090126 -0.12276403 0.10944458 0.23234685
0.33785 0.11258394 0.4205405 -0.16936748 -0.55655915 -0.33987826 -0.53209084 -0.22844404
0.011741029 0.21306038 -0.44256508 -0.31047428 -0.14393553 0.09770391 0.08664091 0.26907155
-0.3613472 0.036694657 -0.21963647 0.044609696 0.3479954 0.15611945 -0.0057377648 -0.15832567
-0.44178838 -0.58879036 0.54870003 0.4228663 0.04432042 0.3528211 0.5452382 -0.60107684
-0.30601415 -0.25146964 -0.43844694 0.31173232 0.43155652 -0.4420034 -0.3886829 -0.06489064

conv1.lin_l.bias f4 [64]
00000000: 32c7 c13e 9e40 32bc e175 c73e eaf8 b03e
00000010: a62a 8b3e 9014 0d3f 5831 343d e3f8 b9be
00000020: e764 eb3e 07c0 6e3d cfd9 07bf f057 363e
00000030: 4e21 93be b382 e13e 8460 153e 6c3f acbe
00000040: 8073 eabe 9610 ab3e e7c6 843e fb0e dbbe
00000050: 0510 c1be 8a1b bb3d 5875 eebe 84f3 a73e
00000060: e127 9bbe 9770 f83d 378b 7cbe be8f 35be
00000070: 1d8d 0f3d 32fd 60be 2ba1 24be 01e5 223e
00000080: 8861 7d3e c414 ad3e e125 e13e fdc6 85be
00000090: 5a6f 95be b161 ef3e 3bcd b3bd bdc5 90be
000000a0: 8856 05bf 08f0 093f 3b17 fc3e 847e 733e
000000b0: 63d7 cfbe 8741 b5be 2d6c cb3d b936 b7be
000000c0: 59b9 68be 9493 48bb d3cb 5fbe c17e 8c3d
000000d0: ece1 7dbc d0e9 f0bd beeb ad3e 9b8e 0fbf
000000e0: 7694 b23d cc6e e13e 777f 54be 55dc 3bbe
000000f0: 491a d9be 897e 983e 52b6 c93d b82f d93e
0.37847286 -0.010879664 0.38957122 0.34564906 0.27180976 0.551095 0.04399237 -0.36322698
0.4597542 0.0582886 -0.53066725 0.17806983 -0.28736347 0.44045028 0.14587599 -0.33642137
-0.45791245 0.33411092 0.25933 -0.42784867 -0.37707534 0.09136112 -0.465739 0.32802975
-0.30303863 0.1213085 -0.24662481 -0.17730615 0.035046685 -0.21971586 -0.16077106 0.1590767
0.24744236 0.33804905 0.43974212 -0.2612838 -0.29186517 0.4675422 -0.08779379 -0.28275862
-0.5208516 0.53881884 0.49236473 0.2377873 -0.40594015 -0.35401556 0.09932742 -0.35783938
-0.22726955 -0.0030605542 -0.21855097 0.06860114 -0.0154957585 -0.11763346 0.3396892 -0.56076974
0.08719723 0.44029844 -0.20751749 -0.18345769 -0.42402866 0.2978404 0.09849228 0.4241922

conv1.lin_r.weight f4 [64, 3]
00000000: 5148 c33e b2a0 84bc e834 b9be 13f8 06bf
00000010: 378b 39be 2228 a4be 229e a1bd e412 b23c
00000020: ff38 a1bd e503 29be 1d03 c4be 6d9e 633e
00000030: a799 0f3f 39cb d43d b041 46be 88e9 07be
00000040: 6590 ad3e f24b 28be 805b 9cbd 1eeb 52be
00000050: d245 da3e 626e e83d dc92 cf3d dda6 093d
00000060: 22d6 42be 09d1 093f e409 10bf cc0b d63e
00000070: 1671 a93d 8ded 66be 0bfb b5be 0009 5b3d
00000080: 4dd2 1dbe 5a42 1c3f 069e 9e3e ff3f edbd
00000090: e1f8 0abf e038 1dbe e2a0 ccbe 6152 b73e
000000a0: a874 06bf e54f fb3e 2848 f0be 3d7b dd3e
000000b0: 82b8 8abd 39fa 41be a286 943e 19cb b33e
000000c0: 8f9e ca3d 91ef a83e 206b eabe 357a 0f3c
000000d0: a906 9fbd 870d f7be fac8 abbe 669f dabe
000000e0: d074 413e da23 c7bd f2ce 43be 8965 08bf
000000f0: 857d c93e bca0 e2be 2126 8dbe b8cf 00bd
00000100: 203d 273e 9dc5 713e e39a 94be a570 c43e
00000110: fd21 a5be 511d 42be addd d83d bcf6 a7be
00000120: a9ce 183e b940 b6bd 0549 f7bd f5a9 d8be
00000130: 35a2 82bd 2cd5 3cbe 73d2 363e b341 c8be
00000140: 1d6f 4b3e 91ce eebe 8ea5 803c a0e6 c43e
00000150: 2b73 10bf 9155 3c3e d46e d1bd d923 b9be
00000160: 9dc8 f93e 3e45 113f 6584 4dbe 73e0 9f3e
00000170: a566 2f3e dd5c 463e 8e36 973b 0823 e73e
00000180: c62a b9be b2e0 8bbe a3d7 a4be a270 8bbe
00000190: 58ad a0be 55f5 cfbe 441f c63e f85c d3be
000001a0: fe62 673d c081 34bd 81fe 1a3b 9b48 09bf
000001b0: 9b6a 0cbf 0e79 b0bd 97fa a4bb 8512 24be
000001c0: 8016 893e 370c fe3e bbef 953e e6b5 31be
000001d0: 0cae bd3e bb31 0bbe 5099 8b3e 4ded 9fbe
000001e0: 86f5 00bf a10f 8fbe c097 0dbf 375d 823d
000001f0: 8c7d 02be e4ff db3c 4ea0 f63e 0d67 103f
00000200: 4aed 293e a9f9 44be 6dee 953e 2f14 d43c
00000210: aea8 17bf 62d3 77be cbcc 063f 7ae8 d6be
00000220: c6f0 1cbe 498b 103f e278 9f3e 8002 fb3e
00000230: f503 5dbe e9c8 d9be 2627 46bd a9ea d03e
00000240: 96e8 f8be 7650 76be 2a8c 373e 4382 2cbe
00000250: 0312 ffbe 699b bfbe e20a 083f 3ebb eb3d
00000260: 4b72 e8be fa74 f5be 8ae3 34bd 1647 b5be
00000270: 34f6 a7bd baa8 8d3e 5bde eb3e 2624 16bf
00000280: 53c4 a23e 3ab8 02be f05d e43c 01a0 74be
00000290: 6df3 fdbd 2474 b6be 3cf9 9c3e 7cc5 7abe
000002a0: 4791 ee3d 37c2 dcbb 07a2 a0be 65b4 ca3e
000002b0: 3c4f 3a3e 6a9b 533d 3232 06bc 8aac 003f
000002c0: f54e 6dbe 4e4f 00be e644 93bd 5f44 0abe
000002d0: ab8a 9bbd 60f1 a8be 7990 073f 31bb e0be
000002e0: 2a45 513e a87e 9ebe a050 fbbe aad3 4f3e
000002f0: 1c66 2b3e f59b 82be f4cc a53e de54 8abe
0.3814111 -0.016189907 -0.36173177 -0.5272228 -0.18119512 -0.3206187 -0.078914896 0.021737523
-0.07872199 -0.16505392 -0.38283625 0.22228403 0.5609383 0.10390324 -0.19360995 -0.13272679
0.33899227 -0.16435221 -0.0763464 -0.20597503 0.42631394 0.11349179 0.10135433 0.0336064
-0.19026998 0.5383459 -0.5626509 0.41805875 0.082735226 -0.22551556 -0.35543093 0.05347538
-0.15412255 0.61038744 0.30979937 -0.11584472 -0.5428601 -0.15353727 -0.39966494 0.35805038
-0.52521753 0.49084392 -0.4693005 0.43258086 -0.06773473 -0.18943109 0.29008967 0.3511589
0.09893524 0.32995275 -0.45784855 0.008757164 -0.07764942 -0.48252508 -0.3355177 -0.42699736
0.18892217 -0.09723635 -0.19121912 -0.5327993 0.39353576 -0.44263256 -0.27568153 -0.031448096
0.16331911 0.2361054 -0.2902442 0.3836719 -0.32252494 -0.18956496 0.10589156 -0.3280543
0.14922585 -0.088990636 -0.12074474 -0.42317167 -0.06378595 -0.18440694 0.17853718 -0.39112625
0.19866605 -0.46641973 0.015703943 0.38457203 -0.5642573 0.18392016 -0.10226217 -0.36160162
0.48785868 0.5674628 -0.20070036 0.3122593 0.17129 0.19371362 0.0046146577 0.45143914
-0.36165446 -0.27319866 -0.32195768 -0.2723437 -0.3138225 -0.4061686 0.3869573 -0.41281867
0.05649089 -0.04406905 0.0023650231 -0.5362641 -0.5485017 -0.08616839 -0.0050347554 -0.1602269
0.2677498 0.49618694 0.29284462 -0.17354545 0.3704685 -0.1359319 0.27265406 -0.31235734
-0.5037464 -0.2794161 -0.5530968 0.063654356 -0.12743205 0.026855417 0.48169178 0.56407243
0.16594425 -0.19235863 0.29283467 0.02588853 -0.5924176 -0.2420173 0.5265624 -0.4197424
-0.15326223 0.5646253 0.31146914 0.49025345 -0.2158354 -0.42536095 -0.04837718 0.40804031
-0.4861495 -0.24054131 0.17924562 -0.16846566 -0.4981843 -0.37423256 0.53141606 0.11510323
-0.453997 -0.4794081 -0.04416231 -0.35405797 -0.082012564 0.2766779 0.4606808 -0.5864891
0.31790408 -0.1276559 0.027876824 -0.23889162 -0.123999454 -0.35635483 0.306589 -0.24489397
0.11648803 -0.0067370194 -0.31373617 0.39590755 0.18194288 0.051661886 -0.008190678 0.50263274
-0.23174651 -0.12530252 -0.07190876 -0.13502644 -0.07594808 -0.32996655 0.5295482 -0.43892816
0.2043654 -0.30956006 -0.4908495 0.20295587 0.1673817 -0.2550961 0.3238293 -0.27017874

conv2.lin_l.weight f4 [64, 64]
00000000: 1407 f93d 3e7c 3ebb 9c72 e13d 90ff ae3d
00000010: cf8e 273c c2ed a33d 436e 353c 4d06 13bd
00000020: 59dd c8bd c687 fcbc 3eaf dbbd 60c9 913d
00000030: 992a a0bd 3cf7 72bd c650 eebd 523e f4bd
00000040: eb98 acbd 8c01 99bd b2b6 93bd 71b9 f23d
00000050: 492c 6fbd dbeb eebc 2734 a73c 60e2 8fbc
00000060: b23e 783d c814 033d f5c1 d73d 751f 8bbd
00000070: 988f 5bba f55d 793c 5781 b1bd e56b 303d
00000080: 0fa7 0abe 583c 90bd a70f 16bd 6c92 743d
00000090: 0166 f43d 6976 c63c 33e3 eabc bfe3 8a3b
000000a0: d8a5 36bd 373c ddbd 04bb 16bc 8d9f 93bd
000000b0: cb6a 1f3d 6ae3 debd 203d 2c3d 3c93 ef3c
000000c0: 26f8 0b3d 1cfe c5bd f116 4a3d 8396 8bbd
000000d0: 1f65 f4bd 2efe 1ebe 22e6 0dbe 7623 3e3d
000000e0: cdc7 16bd 51f9 bebd 94b8 b2bd 4bfb 223d
000000f0: f09a 8ebd fa9e 783d 1b98 7ebd cc85 8a3d
00000100: 9479 74bd fcd8 28bc 00b4 09bd e39b c1bd
00000110: c15e a93d d934 5a3c 8467 d03d 298e cebb
00000120: 76c3 763d 66ef b9bc c2cd ca3c 5e57 fe3d
00000130: 288c 8d3d 6b64 153d afaa 4bbd a930 aebd
00000140: be51 6e3d 91a8 14bc 516d 803d ff7f 72bc
00000150: cef0 383b 086e 9b3d 496a ae3d 9d87 243d
00000160: 5e2c f7bd a6f7 f6bd 4812 0e3e f927 dcbd
00000170: 01d5 9bbd 6691 ecbd e662 753d 08fd a2bd
00000180: ca16 9dbd f19a 09be 876a e2bb b052 4cbd
00000190: 0e02 f5bd 01ed 19bd 1263 863c 0f8b 723d
000001a0: f66b 643d b1ae 1a3d 036d 043d fe8e bc3d
000001b0: 6c55 c13d 35fb 153b 5cf6 69bd 5e9b 99bc
000001c0: ef78 203c fa0b c9bd 02f4 d03d 6d7e 15bd
000001d0: d89d 89bd 7732 99bd d853 ddbd a677 443d
000001e0: 1c0c 09be 8ec7 083d c59f 2b3c 3d23 623d
000001f0: cac0 84bc c00f 6abc 159b abbd daa4 a3bc
00000200: a53e 93bd 2ba4 6bbd deb6 c5bd 2ef3 bd3d
00000210: f143 4cbc 2d4d 79bd ac63 1bbd 6540 af3c
00000220: c55a 82bc 71af fdbc dc80 933d 3fe1 17be
00000230: 8cbb 673c 428a e83c f6e3 97bd 2dbb 013e
00000240: c15e a6bd b47c d33d c4e2 0f3d 2dcb 1b3d
00000250: da93 82bd c3bc 76bd 9a79 773d 0b41 c1bd
00000260: 2cd7 92bd 0115 c13d 90e3 12be ab60 3b3d
00000270: 7215 70bd 9c3b de3d b0a1 febc fd85 c2bd
00000280: c50a cfbc e30c d6b8 44a0 b0bb 7450 1cbd
00000290: 13cf 99bd 43ef d9bd 5b47 88bd 49db 4b3d
000002a0: ec69 e6bd 9bad ed3d edfd a2bd 3fa3 06bd
000002b0: 5e08 733d 51eb 2f3b c49f c8bd c912 9a3d
000002c0: ad94 133e 625a 353d 649b 073d f48b 523d
000002d0: 1cbb af3d 35a2 b9bd 4f0e 81bd 3aa2 d9bd
000002e0: b6d2 97bd 70c3 ae3d fb11 c03d 3073 ee3d
000002f0: 4ddc e23d cada 963c e93c da3d 715c a1bd
00000300: 1d57 0d3d 0d36 8b3d e2c9 d8bd b934 963d
00000310: 6663 12bc 8b4d f83c 05a1 c63d 84ba a53d
00000320: f8f9 b0bd 5299 333c ca8c 963d ae2a d33d
00000330: 7684 603d 5346 613d 8d5d a83d 2cda 193d
00000340: ec6d 16bd d9f3 453d b040 4d3d bb11 ecbd
00000350: 8530 62bd 379e 9f3d 4598 873d 1f26 c1bd
00000360: 957a 16bb 1666 10bd 2500 cd3d cf2c c2bc
00000370: 697f 133d 4224 0dbd 5c02 b7bd bfd5 02be
00000380: dc8c ca3d b87b d23c 4b4d 2c3b 8c31 e23d
00000390: ec39 d93d f4e6 a33b 40ce 0f3e a138 b5bd
000003a0: fa67 893c dbc2 d13b 8c3d 99b9 6056 b4bd
000003b0: adfb c63d d27d f6bd 50ce 5c3d eb83 a43c
000003c0: ccdc 69bd 7a76 b7bd 813b a93d 7bcf 88bd
000003d0: 06d5 eebd aa78 06be 4463 a53c 2a81 92bc
000003e0: 8015 3fbd 1d16 b63d ea3e 033e b170 04be
000003f0: 0f63 1fbd 4cce b43d 1a00 14be 455d e7bc
0.12159553 -0.0029065753 0.11008188 0.085448384 0.010226919 0.08004333 0.011073652 -0.03589468
-0.09807844 -0.03082646 -0.10726784 0.07118487 -0.07820625 -0.059317812 -0.116365 -0.11925949
-0.08427604 -0.07470998 -0.07212581 0.118517764 -0.058391843 -0.029165199 0.02041061 -0.017563999
0.060606666 0.03200224 0.10535041 -0.06793109 -0.0008375584 0.015220155 -0.08667248 0.043071646
-0.1354029 -0.0704276 -0.03663602 0.05970995 0.11933518 0.024226384 -0.02867279 0.004238575
-0.044591755 -0.10802501 -0.009199861 -0.07208166 0.038920205 -0.108832195 0.04205048 0.029245012
0.0341722 -0.09667608 0.049338285 -0.06815817 -0.1193335 -0.1552665 -0.1385732 0.046420537
-0.03681164 -0.09324897 -0.08726612 0.039790433 -0.06963146 0.060698487 -0.062156778 0.06763801
-0.05968626 -0.010305639 -0.033618927 -0.09453561 0.08270026 0.013318264 0.10175994 -0.006303568
0.060245 -0.022697162 0.024756316 0.12419008 0.06911498 0.03647272 -0.049723323 -0.08505375
0.058183424 -0.0090733925 0.062708504 -0.014801024 0.0028219703 0.07589346 0.08516366 0.040168393
-0.12069009 -0.12058954 0.13874161 -0.10749812 -0.07608987 -0.1155117 0.05990877 -0.07958418
-0.07670362 -0.13438012 -0.0069096717 -0.049883544 -0.119632825 -0.03757954 0.016404662 0.059214648
0.055767022 0.037764255 0.032330524 0.09206961 0.09440121 0.0022885327 -0.057119712 -0.018750843
0.009794458 -0.098167375 0.10202791 -0.036497522 -0.067195594 -0.074803285 -0.108070076 0.04796567
-0.13383526 0.033393435 0.010475104 0.055209387 -0.01620521 -0.014285982 -0.08379189 -0.019976068
-0.07189683 -0.05752961 -0.0965402 0.092748985 -0.01246737 -0.060864616 -0.03793685 0.02139301
-0.015912423 -0.030967446 0.07202312 -0.14832018 0.014143836 0.028386239 -0.07416527 0.12669058
-0.081235416 0.103265196 0.03512837 0.03803556 -0.06375857 -0.06023861 0.060418703 -0.09436234
-0.07169947 0.09427834 -0.1434462 0.045746487 -0.0586142 0.10851213 -0.031082958 -0.094982125
-0.02527369 -0.000102067155 -0.005390199 -0.038162664 -0.075101994 -0.10641339 -0.06654235 0.049769673
-0.11250672 0.11605378 -0.07958589 -0.032870527 0.05933415 0.002684314 -0.09796098 0.07523114
0.14412184 0.04427565 0.033107176 0.051403 0.0858061 -0.09064142 -0.06301557 -0.106266454
-0.07413237 0.085333705 0.093784295 0.11643064 0.11077175 0.018414874 0.10656149 -0.0787896
0.034506906 0.06797419 -0.10585381 0.07334275 -0.008934831 0.030310413 0.09698681 0.08092216
-0.08641428 0.010961847 0.07351072 0.10310875 0.054813825 0.054998707 0.082209684 0.03756158
-0.036725923 0.048328254 0.05011052 -0.11526819 -0.055222053 0.07793849 0.0662084 -0.09431099
-0.0022961248 -0.035253607 0.10009793 -0.023703007 0.03601018 -0.034458406 -0.08935997 -0.1277685
0.09890148 0.02569376 0.0026291187 0.110446066 0.10606751 0.005001897 0.14043522 -0.08848692
0.016773213 0.0064014024 -0.0002922829 -0.08805537 0.09715972 -0.12035717 0.053907692 0.020082435
-0.057095334 -0.089581445 0.082633026 -0.06680199 -0.11661725 -0.13131967 0.020188935 -0.017883856
-0.046651363 0.088909365 0.12816969 -0.12933613 -0.03891283 0.088284105 -0.14453164 -0.028242717

conv2.lin_l.bias f4 [64]
00000000: 3041 953d 3872 623d 33ea 2abd 2c9a 6e3d
00000010: e7c6 7abc 3dfc 65bd f716 54bd bf73 093e
00000020: 9841 09bd 47be afbd 4bd2 df3c 5cb2 b0bd
00000030: 5ba6 d9bc cb1b dfbd ea9d 9c3d 5535 e6bd
00000040: 0f69 da3d 10b9 11bd d430 8abd 3140 77bd
00000050: 7e09 d93d 0420 de3b 526c 603b bac2 2f3d
00000060: 98ca c1bd 51b9 8e3d e8ba 003e 2b5e c83d
00000070: 26fc cc3c a7ef e83d d4a3 e33c 84e4 07bd
00000080: f1e4 99bd 8e80 993d 709f edbd 5b73 973d
00000090: 63a5 a9bb 5016 f1bc 6975 ab3d a387 c13d
000000a0: 5668 8abd 33ec ab3b 6086 90bd 79b5 213d
000000b0: 1cb2 b23d 62ee 8dbd 3281 0f3d 941c 4f3d
000000c0: ebd5 c93d 49c7 babd 515a 013e d7dd ae3d
000000d0: 9506 8c3d fba2 cf3d 1d82 9e3c ab85 de3d
000000e0: de58 703b 025a df3d aa3b 22bd c15a 2cbd
000000f0: 73be a63c c5d8 62bd a6c4 a73d 92ce ebbd
0.07287824 0.05528471 -0.041727256 0.0582525 -0.015306211 -0.056148756 -0.051779713 0.1342306
-0.03350982 -0.085812144 0.027321955 -0.08627769 -0.026568582 -0.10893973 0.07647307 -0.11240641
0.106645696 -0.03557688 -0.067475945 -0.060363952 0.105975136 0.006778719 0.0034244251 0.042910315
-0.0946247 0.0696894 0.12571299 0.09783586 0.025022577 0.11373835 0.02778808 -0.033176914
-0.0751437 0.07495223 -0.11602676 0.07395049 -0.0051771863 -0.029429585 0.083720036 0.09449699
-0.06758182 0.005246663 -0.0705688 0.039479706 0.08725378 -0.069302335 0.03503532 0.050564364
0.09855255 -0.09120042 0.12632109 0.08538406 0.06837193 0.10138508 0.019349152 0.10865339
0.0036674063 0.109058395 -0.03960768 -0.042078737 0.020354485 -0.05538251 0.081918046 -0.115140095

conv2.lin_r.weight f4 [64, 64]
00000000: c8a2 603d 6207 8abc 796a 633d 08b7 143d
00000010: b1f3 a53d 1866 8f3c 2f26 0dbe b2a2 523d
00000020: 3d7b d83d 10ed 073e 9dfe 0bbd 3d4a bb3d
00000030: a904 a93c b92f a03d 8c72 acbc 3228 cebd
00000040: e6d1 2f3d 6d4f d4bc e600 bfbd b143 3cbd
00000050: 0fc7 c7bd 7b2b 82bc e7d9 69bd b967 833d
00000060: e8ca a9bc 9e2c ddbd d986 a4bc b942 1fbd
00000070: 1d05 5c3d 6fb5 19bd abfe 323d 90d7 1fbd
00000080: e2c4 b53d 94ac f13d 5a98 24bd bc4e c03d
00000090: 928c 923d 247c a4bd 6fca 7e3b e4a0 563c
000000a0: e9c4 04bd b13e 133d 1a94 d93d 0856 06be
000000b0: cd6e 7bbd 4e76 0e3d b5f7 a83d d585 ecbd
000000c0: 428a 68bc 50a0 a93c f3f0 76bd 2ef0 aa3c
000000d0: df0e e93c 2d36 0fbe edff af3d 5836 803b
000000e0: de05 c9bc 0cc6 41bd 4bcc 05bd b618 2f3d
000000f0: 9c6f 933c 44a0 d1bd fdca 14be c6b1 87bd
00000100: 5671 10bd 3871 b1bd 19d0 d73d 5eed 35bd
00000110: 9926 143d 5a8e 52bd 9efb 6f3d 77f2 5a3d
00000120: f719 393d 69ce a6bc 31a6 7f3d 2b36 6bbd
00000130: 42c9 03be 2455 d6bd 29f5 133b 0135 dfbd
00000140: d33a 083d 5bbb bb3d 9183 9dba 18eb 243d
00000150: c52c 36bc 1eaa f8bc 68c5 edbd 6c38 713a
00000160: 5c4c 0e3d c9d4 6a3d c19f 85bd d8c4 eabd
00000170: b590 97bd 9c66 8c3c 25e9 2d3d 6a7f 91bd
00000180: e889 19bb 2096 313d 78b2 7dbc 5807 a43d
00000190: 1e87 823d 19a2 123d 08b1 bc3d e72a b43a
000001a0: 7d03 153d 949a 10bd 067b 62bd 1a95 873d
000001b0: ee80 cdbd f039 39bd eecc eabb 6a0f bdbd
000001c0: 8bb4 423d 20c6 8bbd dbeb f43c ccac 893c
000001d0: cd70 d23d 8c74 79bd 0db6 02be 0dae 003c
000001e0: c835 6e3d 4a46 d0bd 4f63 d23d 1f7b 44bc
000001f0: fc46 9ebb 316d 00bd 7a34 82bb ac91 9c3d
00000200: aa6b 2fbb 6e0f 443d 066f e43b e74c a9bd
00000210: c2e7 bb3d f83c bb3d 1fa9 10bc 2c8d a7bd
00000220: cc74 e3bd f63e a13d 0f17 d93c b97e b4bd
00000230: 3475 a23d 2140 723c 702d cd3d 8516 c63d
00000240: f478 f9bd be8c a5bd af25 053c a076 08bd
00000250: e4fe c73d 8866 ed3c 1572 ad3c 7774 8a3d
00000260: 7e5d f9bd 9452 2f3d 3a97 cbbd 462f f03d
00000270: afb9 fdbd b1a9 a33d abfe 65bd 254c 04bd
00000280: 7ce2 79bd e6cc 793d 068e 99bd 42af 8dbd
00000290: 5063 e83d 9266 0f3e ffed 903d 8532 a93d
000002a0: f59f a03d 1857 353d 4433 8abd e264 9cbc
000002b0: 972b e5bd 902b e7bd a10b 37bc 0058 42bc
000002c0: 2f21 99bd 6eba 78bc 2867 62bc c172 2b3d
000002d0: 5fcf 053e 2750 f33d 9f5d 04bd 4e0d a8bc
000002e0: 4971 46bc 6e3b 71bd 3ac7 883c 806d cb3d
000002f0: fb7b 0cbd a8af b73c cb04 5dbc 32ac 08bd
00000300: 7c90 ba3d e48d eb3d 718e 8c3d 9ded 0abc
00000310: 9b6c 813c b91c 953c 0a1f cd3d 44c6 083d
00000320: 8d2e 8bbd dce5 e9bc 5654 1cbd 6610 d53d
00000330: f87f 253d f945 cd3d 8fd7 1bbc 639c 903c
00000340: 4f65 003e 6869 e8bd 5dc5 fdbd cf57 a73d
00000350: d39b 61bd 3daa 75bd 6454 66bd 1710 ba3d
00000360: 700c b43d 1bbf 5bbd 56f1 94bb e104 a4bd
00000370: f61d 00be 0bec f23c 716f b6bd 9b31 bbbd
00000380: 5ef6 603d 5c75 c8bd 3451 ef3d c6f6 cdbd
00000390: b40b aebd 73bf 143d 153f 66bd b59f e2bd
000003a0: c648 fe3c 3a6b c33a 5cf9 3abd fd07 b73d
000003b0: 56e5 cdbd 6125 b4bd ddd7 3a3d ee5d d73d
000003c0: 97f0 94bb f1a0 d2bc 2537 8fbd 0fb7 593d
000003d0: 011f 913d d44e 2ebd e28c 10be 1c14 2e3c
000003e0: 2736 86bd 40ab 0b3c f1a2 9c3d 78f6 fbbb
000003f0: 11e8 393c a874 08be f6bc babc bbd9 403c
0.05484274 -0.016849224 0.055521462 0.036307365 0.08103121 0.017504737 -0.13784097 0.05142469
0.10570381 0.13274026 -0.034178365 0.09145019 0.020632105 0.078216024 -0.021050714 -0.100662604
0.042924784 -0.02591678 -0.09326343 -0.045962993 -0.09754764 -0.015889874 -0.057092573 0.06416268
-0.020726636 -0.10799526 -0.020083832 -0.03888199 0.053715814 -0.037526544 0.0436999 -0.039023936
0.08875443 0.11800495 -0.040184356 0.093900174 0.07155718 -0.080314904 0.0038877984 0.013099883
-0.03241435 0.03594846 0.10623951 -0.13118756 -0.061384965 0.034780793 0.08250371 -0.11548964
-0.0141931195 0.020706326 -0.06028838 0.02086648 0.028449474 -0.1398551 0.08593736 0.0039127283
-0.02453893 -0.047308013 -0.032665532 0.042748176 0.017997555 -0.10235646 -0.14530559 -0.066257045
-0.035264336 -0.08664173 0.10537738 -0.044415824 0.036169622 -0.05140529 0.05858957 0.05345389
0.045190778 -0.020362096 0.06241435 -0.057424705 -0.12869743 -0.10465458 0.0022576547 -0.108987816
0.033259224 0.091665946 -0.0012017359 0.040263265 -0.011119072 -0.030354556 -0.11609918 0.0009201828
0.03474079 0.057331834 -0.06524611 -0.11463326 -0.074006476 0.017138772 0.042458672 -0.071043804
-0.0023428146 0.04335606 -0.015484445 0.08009213 0.06373428 0.03579912 0.092134535 0.0013745696
0.03638028 -0.035303667 -0.055293106 0.06620236 -0.10034357 -0.04522127 -0.007165543 -0.092314556
0.04753546 -0.06824899 0.02989762 0.016806029 0.10275421 -0.060902163 -0.1276476 0.007853997
0.05815676 -0.101696566 0.10272848 -0.011992245 -0.0048302393 -0.031354133 -0.003973541 0.07644972
-0.0026767054 0.047866277 0.006971243 -0.08266621 0.09175064 0.09142488 -0.008829384 -0.08181223
-0.111062616 0.07873337 0.026500253 -0.08813233 0.07932511 0.014785797 0.10018432 0.09672264
-0.12181273 -0.08083485 0.00812666 -0.033316255 0.097654134 0.028979555 0.021172563 0.06760495
-0.12176035 0.042803362 -0.099409536 0.11727767 -0.12388932 0.079913504 -0.056151073 -0.03229918
-0.061007008 0.060986422 -0.07497792 -0.069181934 0.11347067 0.14003971 0.07076644 0.08261589
0.078430094 0.044272512 -0.067480594 -0.019091073 -0.11189955 -0.11287606 -0.011172206 -0.011861801
-0.074770324 -0.015181167 -0.01381854 0.041857485 0.13067387 0.11880522 -0.032315847 -0.020514157
-0.01211197 -0.058894567 0.016696561 0.09932995 -0.034297924 0.022422627 -0.013489912 -0.033367343
0.091095895 0.11501673 0.06863106 -0.008479503 0.015798857 0.018202173 0.10015686 0.033392206
-0.06795988 -0.028551988 -0.038166367 0.104035184 0.040405244 0.10023112 -0.009511842 0.017652696
0.12538646 -0.1134823 -0.1239116 0.08171045 -0.055080246 -0.059976805 -0.056232825 0.090851
0.08791435 -0.05364905 -0.004545371 -0.08008743 -0.12511429 0.02965357 -0.089079745 -0.09140321
0.054922454 -0.097880095 0.1168541 -0.10056834 -0.08498326 0.036315393 -0.056212503 -0.11065618
0.03104056 0.0014909275 -0.045647964 0.089370705 -0.10053508 -0.08796192 0.04561602 0.105159625
-0.004545282 -0.025711508 -0.0699294 0.053153094 0.07085992 -0.042555645 -0.14116243 0.010624912
-0.065532975 0.008524716 0.07648266 -0.0076892935 0.011346833 -0.13325751 -0.022795182 0.011770661

conv3.lin_l.weight f4 [64, 64]
00000000: 9b5f 8c3d 84e8 e73d 5b18 e93c bfa7 103c
00000010: c908 18be 5144 d1bd 3a56 aa3d 8b6d f73c
00000020: fa8e c8bb 151e dd3d 9cf1 aebd 25c7 a23d
00000030: c046 85bb 95bf cdbc d1ba 71bc 2917 8ebd
00000040: 135c 0e3e 4373 a8bd 94e3 95bd d63a ac3c
00000050: 2d2b 0bbd 5d66 793d d54f ddbd 14a1 2f3c
00000060: 277d 34bd c1ee 98bc 1535 703d b3ef ce3c
00000070: 46e5 8bbd 6c63 0abd 6eb6 c43c 114f 1fbe
00000080: 2713 bf3d 9751 07bd c150 59bd 04e6 09bd
00000090: aa4c 16be 1615 3b3d 0dec 833d d0fe b3bd
000000a0: ceaa f8bd 267c 1cbd 55e7 53bd 462e e2bd
000000b0: 4f54 d6bd 0d22 933d 0402 b63d 6b57 cfbc
000000c0: 873e cdbd cb82 c4bd e26d 7bbd 6b0e da3d
000000d0: 1552 f6bd 6ffa 31bd 5c39 ab3d 9ba2 b7bd
000000e0: e3d9 bc3d 8e13 69bc 4488 4ebd 5bee 583d
000000f0: df61 34bd 68c5 a13b 0302 04be 8b39 043e
00000100: 37b2 b23d dd44 cfbd 03e7 81bd f278 aebd
00000110: a0ea 933c fba9 f3bc 36ad 9d3b 1d9a 043e
00000120: 999c 083d dcfb 7bbd 8663 c3bc 58d4 02be
00000130: a283 a8bd 820f 09bc 5aee c63d edf8 b2bd
00000140: 12bf 60bd ec0b 99bc 949f d93d 6e12 8f3d
00000150: 812e c7bc fcb0 1ebe 79c8 7fbc 6df8 0abe
00000160: cad9 bd3d 3bfb f7bd d08a 1a3c 33bb cdbd
00000170: 836b 563d 2bbf c33d 4deb 0dbe abe8 d13d
00000180: ea30 9d3d 1963 3c3d 797c 933d 9b14 053d
00000190: ac29 95bd 6a42 c43c 0cfc ce3d 9103 cabc
000001a0: 05a8 203b d639 ee3d 8700 9e3d 6095 4a3c
000001b0: 121e 133d bec6 30bd d4e0 d73d 5c1e e5bc
000001c0: a06c 503d c74c e4bb c906 6b3d ad0c 09be
000001d0: 1483 dcbc 4ff0 973d 0dfb 5dbd 1d41 8fbd
000001e0: a88b ccbd dca6 4abc df11 0bbe bad2 07bd
000001f0: df1d debc 88bb 7c3c e424 173d 26a7 c2bd
00000200: 6f4b c73d 8a9d 773d 3504 93bd 9e76 9c3d
00000210: 4913 8cbb 1341 b4bd 6ff6 f9bd 0595 a8bd
00000220: edc0 823d 945e 723b 54cf e3bd c159 b8bc
00000230: 88e0 3a3d 3695 dabd efd5 7a3c 19a3 31bd
00000240: 9ecb b8bc 0f8b c6bd 966d 8fbd 0fd1 503d
00000250: 95c8 a7bd 7ec2 6d3d 910c ccba bf31 ecbc
00000260: d7ca ea3d 8dca 0bbe 4cfe 463d c4e0 5fbd
00000270: 5590 60bc beae ed3d cc14 6abd 94eb 153e
00000280: 7002 2fbc 7994 383d 1fe0 42bd ab8b c93c
00000290: 8726 72bd fe52 793b ce5e 163b 13ce 96bc
000002a0: 3646 eb3d 7923 a8bd 6140 713c e100 1d3d
000002b0: 9d71 5cbc 8973 31bc f791 ff3c 2273 3cbc
000002c0: 6d4d d2bd d48a 2cbd b7d6 ff3c 3ccd 4e3d
000002d0: 6520 6ebd 43b8 5bbc 5c42 a8bd 6503 c03d
000002e0: be0b 97bd 02ee c6bd 13b8 a73d 86f7 d53c
000002f0: fbca 463c b9e3 e23c 6c5e d33b 3c54 143d
00000300: 328f c53d aa10 9ebd 5273 ef3d 24f2 96bd
00000310: edc7 d1bd 27d7 ea3d afdc a53d 3881 5d3d
00000320: 6188 23bd 7574 fbbd 6764 623d 1f73 e83c
00000330: 87f0 6a3c ee5d cf3d a4a2 fdbd 345f febc
00000340: 5475 363d 0bc0 a6bd abc1 17bd 0881 6cbc
00000350: 37f9 fb3c c12f 843c 307c 353d 70a0 e83d
00000360: 7ae7 6bbc 9249 143e 64ff 36bd dd19 d0bd
00000370: 2652 ec3d cbdf c0bd 6b05 56bd 49f5 49bd
00000380: 3f26 6cbc 2dbf 8a3c d15a c1bd 09b0 64bd
00000390: 3062 973d 199b dc3d 847c 2bbd e1a4 6f3c
000003a0: d123 10bd 0c10 f0bd e7be 2e3d ed36 50bd
000003b0: cae0 04be 27c8 bf3c 971d 9c3d 6250 aebd
000003c0: d663 f1bd ebcd b6bd b3e9 64bc b67b 2ebd
000003d0: bed4 2f3d 0a52 4bbd 43a9 8a3d ee9d 123d
000003e0: 72d0 e23c da40 abbd ad8d 263d 0669 753d
000003f0: b536 133d 41b7 b23d 68bd a63a 610c ce3c
0.06854173 0.11323646 0.028453996 0.008829056 -0.14847101 -0.102181084 0.08317228 0.030203601
-0.0061205598 0.10796753 -0.08542177 0.0794814 -0.004067272 -0.025115767 -0.014754013 -0.06938011
0.13902311 -0.082251094 -0.07318798 0.021024149 -0.033976723 0.060888637 -0.108062424 0.010719556
-0.044064667 -0.018668534 0.058644373 0.025260782 -0.0683084 -0.033786222 0.02401277 -0.15557505
0.09329825 -0.033036795 -0.05305553 -0.033666626 -0.14677683 0.045674406 0.064415075 -0.08788836
-0.121419534 -0.038204335 -0.051734287 -0.11043982 -0.10465299 0.07184229 0.08887103 -0.025310239
-0.10021692 -0.09595259 -0.06138409 0.10647281 -0.12027375 -0.043451723 0.0836055 -0.089665614
0.09221246 -0.014225854 -0.05042292 0.05296169 -0.04403865 0.0049368627 -0.12891392 0.12912576
0.08725398 -0.101205565 -0.0634289 -0.08519162 0.018056214 -0.029744139 0.004811908 0.12949415
0.03335247 -0.06151949 -0.023851167 -0.12776315 -0.08228232 -0.008365514 0.09713431 -0.08738885
-0.05486972 -0.018682443 0.1062614 0.06985937 -0.024314167 -0.15497202 -0.015611761 -0.1357133
0.092700556 -0.12108465 0.00943251 -0.10045471 0.052348625 0.09557947 -0.13859291 0.10249456
0.07675345 0.045992944 0.07201476 0.032490354 -0.07283339 0.02395745 0.10106668 -0.024659904
0.002451421 0.11632125 0.07714944 0.012364715 0.03591735 -0.043158285 0.105409294 -0.027968578
0.050884843 -0.0069671604 0.057379518 -0.13383742 -0.026917972 0.07418882 -0.0541945 -0.06994841
-0.09987575 -0.012368884 -0.13581036 -0.03315995 -0.027113853 0.01542557 0.036900416 -0.09504537
0.09731185 0.060452975 -0.07178537 0.07639812 -0.00427476 -0.088014744 -0.122052066 -0.08231548
0.06384454 0.0036982642 -0.11123529 -0.022503735 0.045624286 -0.10672991 0.015309795 -0.043368433
-0.02255803 -0.09694492 -0.07003324 0.050980624 -0.08192555 0.05804681 -0.001556771 -0.028832315
0.1146447 -0.13651486 0.04858236 -0.054657713 -0.013706286 0.11605595 -0.05714874 0.14640647
-0.0106817335 0.04506347 -0.04757702 0.024602732 -0.059118774 0.0038043852 0.0022944692 -0.01840881
0.11488001 -0.08209891 0.014724822 0.038330916 -0.013454822 -0.010830768 0.031197531 -0.011502059
-0.10268674 -0.042124584 0.031230314 0.050488696 -0.058136363 -0.013410631 -0.08215782 0.093756475
-0.073752865 -0.09713365 0.08189406 0.026119005 0.012133355 0.027696477 0.006450465 0.036213145
0.09646453 -0.07718022 0.116919175 -0.073704034 -0.10243211 0.11466818 0.08098733 0.05407831
-0.039924983 -0.12278072 0.055271532 0.028375207 0.014339573 0.101253375 -0.12384537 -0.031051256
0.044545487 -0.08142098 -0.03704993 -0.01443506 0.030758483 0.016136052 0.044307888 0.11358726
-0.01439845 0.1448119 -0.044677153 -0.10161183 0.11539106 -0.09417685 -0.05225126 -0.049306188
-0.014413415 0.016936863 -0.0944115 -0.055831943 0.07391775 0.1077177 -0.041866794 0.014626713
-0.035190407 -0.11721811 0.042662527 -0.05083363 -0.12976375 0.02341087 0.07622831 -0.085114256
-0.1178662 -0.089259945 -0.013971734 -0.04259845 0.042927496 -0.049638785 0.06770565 0.035795145
0.027687285 -0.08361979 0.040662456 0.05991461 0.035940845 0.08726359 0.0012721242 0.025152387

conv3.lin_l.bias f4 [64]
00000000: 2010 c33d 9adf e3bd 1b49 afbd 2d87 853d
00000010: a698 4dbd e3c6 4fbd 1f0a bbbd 28ec 34bd
00000020: 3008 6bbd c0ec d9bb 5575 483d a22c 49bd
00000030: 2969 a73d 9c28 97bb 01d0 56bd 4abe b3bd
00000040: f6ed e0bd ba80 bdbc 8f88 bc3c a113 463d
00000050: 8958 01ba eb9c a7bd 8682 afbc 0ab9 d8bd
00000060: 698f 27bd f928 bd3d 3a5a 913c f1f4 fabc
00000070: c60c c53d 762f 8d3d 1c20 973b c018 6ebd
00000080: 8467 bebd 507f 7abd 6d94 73bd 4e35 a93d
00000090: 6321 42bb 666d 5cbb 6f19 883b 44ad 083d
000000a0: 010c 043d e4f4 b2bd 73b8 bbbd e956 bc3c
000000b0: c9e1 073d a5af 403a c622 96bd 156d f1bc
000000c0: 614b a9bd 3201 903d 1233 bdbd 14ec ce3d
000000d0: 57dd b8bd 1cf1 a7bc baff c9bb 64f8 ef3d
000000e0: bbd6 c0bd 6e77 c0bc 28f9 94bd b0e0 60bd
000000f0: 3a3d dc3b ef8b aabd 54cf c83c 0610 b43d
0.0952456 -0.11126633 -0.08558866 0.06519923 -0.050194405 -0.050726783 -0.0913279 -0.04417053
-0.057380855 -0.0066505373 0.04894002 -0.04911483 0.081743546 -0.0046129953 -0.05244446 -0.08776529
-0.109828874 -0.02313267 0.023014335 0.048358563 -0.0004934152 -0.081842266 -0.021424543 -0.105821684
-0.04090825 0.092363305 0.017743219 -0.030634375 0.09621577 0.06893818 0.004611982 -0.058129072
-0.09297088 -0.06115657 -0.05946772 0.0826212 -0.002962195 -0.0033634542 0.0041534225 0.033368364
0.03223801 -0.087381154 -0.0916604 0.02299066 0.03317431 0.0007350392 -0.07330851 -0.02947096
-0.082663305 0.07031478 -0.092382565 0.10103622 -0.09026592 -0.020500712 -0.006164518 0.117172986
-0.094159566 -0.023494449 -0.07274085 -0.05490178 0.006721166 -0.083274715 0.024512924 0.08792119

conv3.lin_r.weight f4 [64, 64]
00000000: 9b0b 3a3d 2581 bf3d 532a ee39 09b9 94bd
00000010: 64a3 7b3d 6831 0c3e 3925 a4bc fd39 8dbc
00000020: a9f3 debd 4d03 febd 8232 5c3d 35ce 0d3d
00000030: a5fc 333d 5e70 023e fcf3 06be c77f 1b3d
00000040: 0c52 d13d 3761 eb3c 660b ad3d 5d63 abbd
00000050: b3ae cbbd 7561 093c 03c6 c9bd d646 0b3e
00000060: 5e69 fa3c ccfa 62bd 1ce0 0a3e c9fe 38bc
00000070: 67ea e1bd fe21 bcbd 52ed a33d 1907 333d
00000080: aa9e 2c3d 1410 2e3d 40e4 74bc 1816 f53d
00000090: ae6a 3cbd 4ed8 dc3d 2ce7 96bd 2021 4d3d
000000a0: a869 81bc a6e5 a0bd 3aec 4fbd 2f3e afbd
000000b0: 296d 28be f281 0ebd a92e 91bd 9d30 a8bd
000000c0: dc72 47bd 0c0a a3bc 23c8 1bbe ef00 79bd
000000d0: b182 973d 52da cebc 9cd4 263d c42d 883d
000000e0: 00e6 9cbc 0b93 8fbd 107f ac3d ccf1 cabd
000000f0: 8909 35ba a351 3bbd b059 963d a0a7 35bd
00000100: 6f95 5e3d 8c9c 903d 91af 5abd db59 633d
00000110: bdbd 093e be45 b63d 7450 3b3d f761 813c
00000120: a87b a8bd 57af 723d 7edd b63d 6647 9a3d
00000130: d524 8fbc 78dc 783b 506e adbc 2759 a63d
00000140: 308a b73d ae29 b83c d984 943d c53a cfbd
00000150: bb78 6b3d f630 b7bd 8d0a 8c3d f91f b9bd
00000160: be45 e2bd 584b 723a 46ce 2ebd f66d 4abd
00000170: 4a96 e0bd 6350 393d b44b 823c 22e2 eabc
00000180: a673 02bd b438 dc3d 41ea ea3d d5ce 94bc
00000190: a91a 983d fe54 47bd afdf 82bd 5351 e1bd
000001a0: 0896 5abd 4703 3abd 8696 183d 9f84 053e
000001b0: fc93 68bc a971 683d 1759 ecbd ac96 7b3d
000001c0: 4690 f13d 84fd 0a3e b7a1 0e3e 4035 333c
000001d0: a6fd 8e3c 1c08 5ebc 62e2 b7bd 90c5 56bd
000001e0: 82ce f43b a889 f4bd 9fed ecbc bcda 82bd
000001f0: c746 d33d 2d4f 003e 75a6 22bd 1281 57bd
00000200: d68f 9bbc 5a40 d93c e161 12bd 695f fa3d
00000210: 25d6 1d3e 62bb 993c 93fe 11be 3c10 94bd
00000220: 3bbd b43d 838f 6e3c 82b2 c8bc f9b0 a33d
00000230: ffcf 14bd 32c6 14bd adab 95bd 0386 5f3d
00000240: da63 46bd 0915 29bc 789d 8b3c 4859 e0bd
00000250: eb4b fabc 1a6a 12bd b0fc d13d bddd 8cbc
00000260: 74b5 0ebd 6b77 76bd 3c56 393d 0760 07be
00000270: 8e24 02be aeee ee3d 1f38 a33a 1fc6 b43d
00000280: 32ee 5cbc 8a5c 703d 47e8 59bc 4b37 05be
00000290: 8dbb b03b 025f 153d c579 0ebd 42dc 013c
000002a0: a4fd 073e e3a9 a43d d6fb 54bd 06ce 413d
000002b0: ad8c 173e 35d6 48bd d686 da3d 55ac c53d
000002c0: 66b2 153c 402f cf3b 49bf f03d c9fd a83d
000002d0: 3f6e e5bb f393 19bd 5e34 bf3d c0f6 abbd
000002e0: b68f d1bc 58b8 7abd 0597 89bb fd41 133e
000002f0: b07f 9e3d 6d17 17bd 956c 65bd 56e4 6bbd
00000300: 7324 363d e278 2cbd 87f0 acbd a00c 933d
00000310: 96fd 853d 1f13 e33c d636 5c3d 33f4 f9bd
00000320: e6f0 f5bd b0bb 6ebd 00f2 c9bd fbb1 013e
00000330: 32ad 0d3e 0e0d c93d 77cd 29bd 3284 3abd
00000340: 97fa b03d b200 f13d d5ac 06bd a362 bdbd
00000350: 3bec a1bd 5b68 c0bd 84a5 1b3d 3a47 423d
00000360: 0435 f3bd 1ce6 ae3d e988 fd3d 9cc8 3a3d
00000370: f416 0f3e a3b6 e7bc 1403 ba3c 128b cd3d
00000380: 8f24 1b3d b8ab c43c 1a78 823d e49d 9bbc
00000390: da32 a23c 781a b83d ae37 9bba 5511 de3d
000003a0: 0a25 163d 0738 903d 8ae8 3fbd 4f51 cbbd
000003b0: 05a6 0abc 502c 0ebe c480 183d 0e37 5a3d
000003c0: 7ec8 b3bd fb36 e2bd 7610 e8bd 2481 bcbd
000003d0: 237f acbb 555e df3d ead0 383d dc7a 163d
000003e0: f8e8 e83d e7e3 ea3d c032 50bc 8e5e fbbd
000003f0: 6b8a 11bc d0ab c43d b937 bf3d 1e87 ea3d
0.045421224 0.09350804 0.00045426431 -0.07261855 0.06143512 0.13690722 -0.02003728 -0.017239565
-0.10886318 -0.12402973 0.053759106 0.034620482 0.043942112 0.12738177 -0.1317901 0.037963655
0.10220727 0.02873288 0.0844944 -0.083685614 -0.099454306 0.008385052 -0.09852221 0.1360124
0.030567821 -0.05541496 0.13562053 -0.011291214 -0.11031037 -0.09186171 0.0800425 0.04370794
0.0421435 0.042495802 -0.014946997 0.11967105 -0.046000175 0.10783444 -0.07368311 0.05008042
-0.015797451 -0.07856302 -0.050762393 -0.085567825 -0.16447891 -0.034791894 -0.07088978 -0.08212397
-0.048693523 -0.019902252 -0.15213065 -0.060791906 0.07397974 -0.025250588 0.040730104 0.06649354
-0.019152641 -0.07010468 0.08422673 -0.099094 -0.0006906023 -0.04573215 0.07341325 -0.044349313
0.05434173 0.07061109 -0.05339009 0.055505615 0.13451286 0.08900021 0.045731023 0.015793784
-0.082267106 0.05924925 0.08928965 0.075331494 -0.017473618 0.0037973206 -0.021170765 0.08122473
0.08961904 0.022480812 0.07251901 -0.10118631 0.057488184 -0.089448854 0.0683795 -0.090393014
-0.110484585 0.00092427945 -0.042677186 -0.049421273 -0.10966165 0.04524268 0.015905239 -0.028672282
-0.031848572 0.10753003 0.11470462 -0.018165031 0.0742696 -0.04866504 -0.063903205 -0.110018395
-0.053365737 -0.04541328 0.037252925 0.13038872 -0.0141954385 0.05674902 -0.1154043 0.06142299
0.11795096 0.13573271 0.13928877 0.010937989 0.017454933 -0.013551738 -0.08978726 -0.052434504
0.0074709067 -0.11940318 -0.0289219 -0.063893765 0.10316234 0.12530203 -0.039709527 -0.052613325
-0.018989485 0.026519943 -0.035737876 0.12225229 0.15413721 0.018766109 -0.14257269 -0.07229659
0.08825155 0.014560583 -0.024499182 0.07992739 -0.036331173 -0.036321826 -0.07308135 0.054571163
-0.04843507 -0.010319957 0.01704286 -0.10954529 -0.030553779 -0.035745718 0.102532744 -0.017195577
-0.034841016 -0.06017248 0.045248255 -0.13220225 -0.12709257 0.11666618 0.0012452638 0.08826851
-0.013484525 0.058682002 -0.013300008 -0.13009374 0.0053934515 0.03646756 -0.034784097 0.007926049
0.1328035 0.08040216 -0.051997982 0.04731562 0.14799757 -0.04903241 0.10670249 0.0965201
0.009136772 0.0063227713 0.11755235 0.08251531 -0.0070016677 -0.03749461 0.0933616 -0.08396673
-0.025581222 -0.06121096 -0.004198911 0.14380641 0.07739198 -0.036887575 -0.056011755 -0.057590805
0.044468354 -0.04210747 -0.084443145 0.071801424 0.06542508 0.027719079 0.053763233 -0.122047804
-0.12008838 -0.05828446 -0.09860611 0.1266555 0.138356 0.09816943 -0.041455712 -0.045536228
0.08641546 0.11767711 -0.03287967 -0.09247329 -0.079063855 -0.09394904 0.037999645 0.04743121
-0.11875346 0.08539984 0.12379629 0.045601472 0.139736 -0.02828533 0.022706546 0.10036291
0.037876662 0.024007663 0.06370564 -0.018996187 0.019799639 0.089894235 -0.0011842155 0.108431496
0.036656417 0.07041936 -0.046852626 -0.09927618 -0.008462434 -0.13884091 0.037232175 0.05327516
-0.08778475 -0.11045643 -0.11331265 -0.09204319 -0.0052641793 0.10906664 0.04512111 0.03673826
0.1137256 0.1146925 -0.012707412 -0.12273894 -0.008883099 0.09603083 0.093368 0.11451553

conv4.lin_l.weight f4 [64, 64]
00000000: 2780 71bd 5fea 1f3e a785 1b3e e94e 7fbd
00000010: 119a 98bd 183b 16be aec3 cfbc 235a 073e
00000020: 2e5f a8bd ddfe 0fbe 7762 423d c1da 913d
00000030: 0c09 c83d 616f 0e3d cbe0 8e3c 2776 a23c
00000040: 78ae e13d 41c2 acbd cc16 af3c d72b de3d
00000050: d2cd 403c f15d 9b3c f3b3 03be 1b31 a4bd
00000060: b579 86bb 419f f1bb 3b8e 083e 70f4 67bd
00000070: 7240 f93c acaa d03d a0ee 2abc 5cd1 b93d
00000080: a859 9ebd 321a 173e 2d15 9dbd 16e9 99bd
00000090: 4baf 08be a2b3 823d a8b6 eb3c e8cc d73d
000000a0: 4e46 e43c e068 fe3c d5b6 fd3c 42ef f9bd
000000b0: 6a32 0f3e ad6f 663d 4ad4 24be df45 99bc
000000c0: 82b6 0f3e 66f5 bdbd 0a13 ff3d 3a94 24bc
000000d0: c44b 2fbd 06d2 203e f788 0ebe 4e22 09be
000000e0: 3dc6 2abe 8f0e f7bc 96f3 21bc 0053 9c3d
000000f0: 3599 083e 216f 8b3d 053a debd 5360 60bd
00000100: 5a83 3c3d d8a2 89bd e546 aabd 9cb5 033e
00000110: 758a 1dbc 29ca b1bc 69d1 0cbd b239 45bd
00000120: b052 c3bc 23b5 133e 56a4 763d 9f00 a7bd
00000130: be04 0dbe cf18 69bd 3b8b 8d3d a5a5 a1bb
00000140: ec05 573d c28a 063e b13a e8bc 91ad 443d
00000150: 8d52 1abd 8c3b 123d 8eeb db3d 166e bfbd
00000160: 030a 17be ebff 22be 1095 e83b ffad 15be
00000170: f997 12be cafc f0bd 6704 1ebd 8acc b1bd
00000180: 72e8 b83c 93ee afbd c5ac 8cbb 43f8 223e
00000190: f22d 52bd 7793 d2bd 064a fe3d cb91 a13c
000001a0: a4bb 95bd 928b cd3d 79ff f13c a4e1 b0bd
000001b0: fea8 ba3c 0bf4 fc3c b762 4a3d 7f08 b1bd
000001c0: e165 303d d4e1 a63c 6428 083b 946f 063d
000001d0: 9e67 c3bd 9c0d d739 7fdd 06bd be61 e03d
000001e0: 85b4 67bd e309 c43d ba77 903d ecec 823d
000001f0: 4600 eebd 8ed9 19bc 1ca7 9e3b f0f9 7b3b
00000200: 23a2 833d d024 04bd b3e1 cbbd a92b 753d
00000210: 65be 8a3d b8ea 123e 7664 09be cdb5 3fbd
00000220: 1367 1ebd e718 a63d 9088 b2bc e3e7 a43d
00000230: dbd0 acbd d930 21bb 88ff 7d3d ee79 973d
00000240: bfa7 093d a1c8 ff3d a137 b3bd bc64 d4bd
00000250: f77f 403d 68d3 653c f43c 45bd d771 803d
00000260: 8073 553d a89c d7bd d79c 8d3b 5f78 6a3d
00000270: d57a 16be 24ca 9dba a89c dcbc 97b1 d4b9
00000280: f12e 543d 3d31 efbd e992 b53c d783 88bd
00000290: f826 45bd 60b5 f93b 3df8 fb3d a956 c6bd
000002a0: dc7b 23be 69f9 0f3e 2e00 88bd 7ae7 713d
000002b0: 3b33 b63c 4576 003e 783f 043e 07f6 a43d
000002c0: 34a2 a93c a12a 41bd daa1 21be 7e97 92bd
000002d0: f478 b23d 8dbb 0abe 8c62 dc39 889e 233e
000002e0: 4c19 1d3e 504e 19bd 4f74 0e3e 3c13 1d3e
000002f0: f391 9cbd 3cba d0bd 4b32 6bbd cb76 2abe
00000300: a612 c2bc 7c17 d43d 1b2f 063e 8f2c cbbd
00000310: 8b88 08bd da80 b7bd 626a 023e 7d95 93bc
00000320: f122 c7bd 7d49 05be a77c e93d b464 553d
00000330: fb5c fc3d 4c4d f03d df37 9b3d 88d9 123e
00000340: c217 023d a237 d9bd bc4b 8abc 66f2 243e
00000350: ce9e a8bd 5bdc a9bd bc65 0fbc 1897 94bd
00000360: 574f f63c 1171 b7bc df1a 6d3d 36f0 35bd
00000370: 4556 94bd ba80 e33d 3765 33bd a9ba 8f3d
00000380: 5750 91bd 4ad1 ad3d 7f0a f2bd 963f b13d
00000390: 266e 943c d75c 02bd 186f 00bd fc02 423a
000003a0: 1968 b0bd 7d76 23bd e1a3 ccbd 7d90 943d
000003b0: 080f 043d 78ab 39bd d122 833d 0e39 023e
000003c0: 667c 223d b8c5 66bd 2e5c 1b3e 12e9 edbd
000003d0: c629 9dbd b118 4e3d e010 5b3c 3de5 ab3d
000003e0: c94b a4bd 2a56 bdbd 7433 24be b9bd 07be
000003f0: 48ef e43d d9a2 fa3d bb46 18bd a05d 1fbd
-0.058960106 0.15616749 0.15187703 -0.062331114 -0.07451261 -0.1467098 -0.025361862 0.13217978
-0.08221279 -0.14062066 0.047457185 0.07121802 0.097673506 0.034774188 0.017441174 0.01983173
0.110196054 -0.084354885 0.021373175 0.108482055 0.011767821 0.018965693 -0.12861614 -0.080171786
-0.004103864 -0.007373721 0.13335507 -0.0566296 0.030426238 0.10188803 -0.010432869 0.09073135
-0.07731944 0.14756086 -0.076700546 -0.07515161 -0.13348119 0.063819185 0.02877362 0.1053713
0.027865555 0.031055868 0.03097097 -0.12203838 0.13984075 0.056258846 -0.16096607 -0.018710075
0.14034465 -0.09275322 0.12454803 -0.010045106 -0.042796865 0.15705118 -0.13919435 -0.13391992
-0.16677184 -0.03015831 -0.009884736 0.076330185 0.13339694 0.068083055 -0.1085091 -0.054779362
0.046023704 -0.06720513 -0.08314303 0.12862247 -0.00961553 -0.021702843 -0.034379397 -0.048150726
-0.02384314 0.14424567 0.060215317 -0.08154415 -0.1377134 -0.056908425 0.06911322 -0.0049330764
0.052495882 0.1313887 -0.028348299 0.04801709 -0.037676383 0.03570132 0.10738288 -0.09347169
-0.14749913 -0.15917937 0.0070978478 -0.14617155 -0.14315785 -0.11766966 -0.038578417 -0.08681591
0.022571776 -0.08590426 -0.0042930567 0.15915017 -0.051313348 -0.10282033 0.124164626 0.01972284
-0.0731118 0.100363865 0.029540764 -0.086367875 0.02278566 0.030878088 0.049410548 -0.086441986
0.04306591 0.020371355 0.0020776028 0.032821253 -0.09541248 0.00041018135 -0.03292608 0.10956143
-0.05656864 0.09572198 0.07054086 0.063928455 -0.11621146 -0.009390248 0.0048416983 0.0038448535
0.064274095 -0.03226167 -0.09955158 0.05985609 0.06774596 0.1434735 -0.13417229 -0.046804238
-0.038672518 0.081102185 -0.021793634 0.080520414 -0.084382735 -0.0024595766 0.06201127 0.07396303
0.03360724 0.12489439 -0.08750845 -0.10370776 0.046997037 0.014027454 -0.048153833 0.06271713
0.052112103 -0.10527927 0.0043216753 0.0572437 -0.14695294 -0.0012038392 -0.026930168 -0.00040568106
0.05180258 -0.11679313 0.022164779 -0.066657715 -0.048132867 0.0076204985 0.12303207 -0.09684498
-0.15965217 0.14059986 -0.06640659 0.059058644 0.022241225 0.12545116 0.12914836 0.080547385
0.020707227 -0.047159795 -0.15784398 -0.07157801 0.08714476 -0.13548107 0.00042035093 0.15978444
0.15341681 -0.0374282 0.13911556 0.15339369 -0.07645025 -0.101917714 -0.05742101 -0.16646878
-0.023690533 0.10356042 0.13103907 -0.09920608 -0.033333343 -0.08960123 0.12735894 -0.018015618
-0.097234614 -0.13016315 0.11400729 0.05209799 0.12322422 0.11733493 0.07579016 0.14340794
0.03176094 -0.10606314 -0.016881816 0.16108093 -0.082334146 -0.082939826 -0.008752283 -0.07255381
0.030067129 -0.022392781 0.057886954 -0.044418536 -0.07243017 0.11108537 -0.043797698 0.070180245
-0.07095402 0.08487184 -0.11818408 0.08654706 0.01811893 -0.03182682 -0.031355947 0.00074009574
-0.08613605 -0.03990792 -0.09992195 0.072541215 0.032240897 -0.04532954 0.06403125 0.12717077
0.039669417 -0.056340903 0.15171883 -0.1161672 -0.07673983 0.050316516 0.0133707225 0.08393333
-0.08022267 -0.0924495 -0.16035253 -0.13255967 0.11178452 0.12238092 -0.03717683 -0.038907647

conv4.lin_l.bias f4 [64]
00000000: 2ce0 9f3d 4185 d2bd 36f1 aebd bcf8 27bd
00000010: 9309 8cbd ab64 bdbd 8d32 613d 95ef 00bc
00000020: d37f 73bd 4440 803d d321 963d 7ed2 f93c
00000030: d918 d73d ad33 3e3c 015d 96bd 22b7 a8bd
00000040: c764 ee3c e3c7 8dbd cd81 17bd a04d afbd
00000050: 21ec 6f3d 32b3 1dbc 329b 863c 3b57 2a3d
00000060: c9de 593d e9ce dcbb d861 7a3d f59a eebd
00000070: a7d1 cebd bd88 8c3d b76e 7a3d ae02 043d
00000080: 0fad 373d 0480 85bc 89e9 9e3d 6190 a5bd
00000090: 3dab 36bd 73af 88bd a766 acbd 20e2 233d
000000a0: ab56 f4bd f02c 2d3d 730b 0b3e d8d3 853d
000000b0: a510 17bb c7bb 7f3c 5b21 8c3d d909 c03c
000000c0: 2d9c 13bc aa1e 51bb 0790 8a3d 63ae f83c
000000d0: 9b6d 63bc 491d 503d fed8 bf3d 0c12 083b
000000e0: 8ea4 2ebd 6ebe 29bc eaa2 373b 07eb 643c
000000f0: e968 483d 3fa3 943d fd12 933c 1921 b43d
0.07806429 -0.102793224 -0.08542101 -0.041008696 -0.06837764 -0.092477165 0.05497985 -0.007869621
-0.059448075 0.06262258 0.0733067 0.030495878 0.10502786 0.011609 -0.07341958 -0.08238055
0.029100789 -0.06922891 -0.036989022 -0.08559728 0.0585748 -0.009625243 0.016431425 0.041587096
0.05319098 -0.006738533 0.061128467 -0.116506495 -0.10098582 0.06862018 0.061140742 0.032229118
0.044842776 -0.016296394 0.07759387 -0.08084179 -0.0445969 -0.06674089 -0.08418017 0.04001057
-0.11930593 0.042279184 0.13578586 0.065345466 -0.0023050692 0.015608734 0.068422996 0.023442196
-0.009009403 -0.0031909146 0.06765752 0.030356592 -0.013881112 0.05080918 0.0936756 0.002076271
-0.0426374 -0.010360343 0.0028020688 0.0139720505 0.048928175 0.07257699 0.01795339 0.087953754
