training/outputs/models/SageRes.pt (torch, 55124 bytes, 27 tensors)

conv1.lin_l.weight f4 [8, 3]
000000 2f 77 de bd 26 7d 08 be f6 4d 9d 3e 42 73 74 3e
       -0.10862576 -0.1332899 0.30723542 0.23872092
000010 c7 34 52 bd 62 f2 6c 3e a9 2a cb 3e 9a bc ef be
       -0.051319864 0.23139337 0.39680985 -0.4682358
000020 93 80 15 be 90 6e 62 be 1c 8f f8 be a0 1d 8a be
       -0.14599828 -0.22112489 -0.48546684 -0.26975727
000030 5a d0 11 3f cf 09 0f be 5e 2c aa 3e 4e 08 ab be
       0.56958544 -0.13968585 0.33236974 -0.33404773
000040 0b bf 02 3e dd 6c ce be 36 53 b4 be 18 f2 ac 3e
       0.1276819 -0.4031743 -0.35219735 0.33778453
000050 e1 f3 ff 3e 1b 8c 49 bc 80 25 cd be af 11 91 bc
       0.49990752 -0.01230147 -0.40067673 -0.017708628

conv1.lin_l.bias f4 [8]
000000 bc f3 5d bd 25 1c e9 be 6f 07 8f be c1 1b af be
       -0.05418752 -0.45529285 -0.2793536 -0.34200862
000010 88 73 00 bf ff b4 12 3e 62 e2 c6 be 25 6d 3e 3e
       -0.50176287 0.14326857 -0.3884459 0.18596323

conv1.lin_r.weight f4 [8, 3]
000000 fd 07 be bc 28 c7 4a bd ed 43 05 bf ac 9e 99 3e
       -0.023197168 -0.049506336 -0.5205677 0.3000387
000010 b9 1b 84 3d 2e 6c cf bd 40 c9 15 3e bc 94 05 be
       0.064506 -0.101280555 0.14627552 -0.13045019
000020 bc d8 eb 3e 57 e0 0b bd 39 9b ca be 83 6a ad be
       0.46063793 -0.034149494 -0.3957155 -0.33870324
000030 c8 4f e3 bd 76 04 b2 3d 4a d2 8c 3e a4 58 1f 3f
       -0.110992014 0.08692257 0.27504188 0.6224463
000040 51 b2 ea bd bb c1 86 3e 9a dc 20 bf 81 03 0f 3f
       -0.114597924 0.2631968 -0.6283661 0.5586472
000050 87 e6 55 be d2 5b 07 bf 88 bc 68 be 99 61 d3 3c
       -0.2088872 -0.5287448 -0.22728169 0.025803374

conv2.lin_l.weight f4 [16, 8]
000000 c9 f2 a0 be 30 2a a9 3c 64 b7 c7 3d f1 36 21 be
       -0.3143523 0.02065 0.09751776 -0.15743615
000010 40 1d 25 bd ce fc 40 3c ae b0 a7 bc 19 17 b8 3e
       -0.040311098 0.011779023 -0.02046999 0.35955122
000020 f7 f7 38 be 94 48 97 bd 57 b9 6c be 0d 0a 5f be
       -0.18063341 -0.0738689 -0.23117577 -0.21781178
000030 69 86 8e be 0a 17 da 3c 57 d2 ae 3e f2 4d c6 bc
       -0.27836922 0.026622314 0.34144852 -0.02420709
000040 a7 61 84 3e 68 1b d9 bd 90 7c 65 3e cf 31 1f 3e
       0.25855753 -0.106009305 0.22410798 0.15546344
000050 c8 14 bf 3d a9 61 8d 3e ac f9 c3 be e0 b7 91 3d
       0.093301356 0.2761357 -0.38276422 0.071151495
000060 59 16 4e be 71 b0 43 be 85 b9 9d 3e f7 59 b1 bd
       -0.20125712 -0.19110276 0.30805603 -0.086597376
000070 0a 62 99 be 90 41 b8 3e 5e 73 96 be 15 f8 c7 3c
       -0.2995761 0.3598752 -0.29384893 0.024410287
000080 16 ad 18 3e 89 ec 55 be c9 15 78 3e 3f 25 a6 be
       0.14909777 -0.20891012 0.2422706 -0.32450292
000090 d4 24 96 3e 8a 9d cb bd 03 ff 60 3c 07 f2 ef bd
       0.29324973 -0.099421576 0.0137326745 -0.11716085
0000a0 00 e8 28 be d9 18 94 be 88 c2 23 3d ac b8 17 bd
       -0.16494751 -0.28925207 0.03998044 -0.03704135
0000b0 d0 d2 e3 3c f0 de 61 be 10 b0 86 3e 9f 23 97 bb
       0.027810484 -0.220577 0.263062 -0.0046124007
0000c0 92 f6 98 be b3 2d 1e 3d 05 a6 15 3e 1f 2a 9a 3d
       -0.29875618 0.0386178 0.14614113 0.07527565
0000d0 63 4f 9c 3e 22 12 a7 3d ea 4c 93 be 93 2b 93 be
       0.30529317 0.081577554 -0.28769618 -0.28744182
0000e0 84 a8 0b 3e a4 29 5e be 93 cd 77 3e dc f0 06 bc
       0.13638502 -0.21695572 0.24199514 -0.008236136
0000f0 ed b9 73 bd 70 19 14 be be 89 08 be 6b 6a 05 be
       -0.059503485 -0.14462829 -0.13333794 -0.13028876
000100 e9 d2 14 be 04 35 e5 bd 91 d6 c0 3c e7 90 c0 3c
       -0.14533581 -0.111917526 0.023539813 0.023506595
000110 2d ea 06 be 73 e8 f3 bd 56 c7 d8 3b a6 7d c5 bd
       -0.13175268 -0.119095705 0.0066155596 -0.09643106
000120 36 ab b0 be c3 50 ee 3c dd 30 a7 be b3 9d 89 3d
       -0.34505624 0.029091245 -0.32654467 0.06719532
000130 f2 15 7e be c0 03 95 3d ef 40 21 3e c2 bb 76 3d
       -0.24813059 0.07276106 0.15747426 0.060237654
000140 76 dc 02 3d f4 f3 69 be 9b 02 33 be 78 90 0f be
       0.03194853 -0.22846967 -0.17481463 -0.14019954
000150 9d 07 93 be b7 db 99 3e 8d dc ae 3e 5b e3 bd bd
       -0.28716746 0.30050442 0.34152642 -0.0927188
000160 28 2d ed 3d 62 fa 2b 3d eb b6 6f 3e a3 de 48 3e
       0.115808785 0.04198683 0.23409621 0.19616179
000170 30 af a2 be ed 16 87 be 67 d7 44 3e 6a 69 a3 3e
       -0.31774282 -0.26384678 0.19222794 0.31916362
000180 0a 0d b1 be bb 3c 28 3e 7b d3 b1 3e c1 8d 2f bd
       -0.3458026 0.16429417 0.3473166 -0.042859796
000190 e6 52 58 3e 0c 98 16 be f7 4a 9b 3e ae 74 11 be
       0.21125373 -0.14706439 0.3033063 -0.14204666
0001a0 03 08 06 be 05 0d b8 be 4d d5 bb bd c2 8e 82 be
       -0.13088994 -0.35947433 -0.09171543 -0.2549954
0001b0 a5 b1 a6 3e 88 61 9c be 93 a9 70 be 96 79 92 bc
       0.32557407 -0.3054316 -0.23502187 -0.017880242
0001c0 fa 1e 56 be 53 1a b4 bd 66 6a 8e bd e9 6f 34 3c
       -0.20910254 -0.087940834 -0.06953888 0.01101301
0001d0 18 7f d1 bd 1a 3b b6 be c1 93 5a 3e dc 19 a8 3e
       -0.10229319 -0.35591966 0.21345426 0.3283223
0001e0 7b 2e f9 3d 68 5d 85 3e f2 2c a0 3e 7b a5 8e 3d
       0.121670686 0.26047826 0.3128429 0.06965157
0001f0 80 d6 c1 bd f5 1c 5b 3e 4a f2 85 be b4 90 90 3e
       -0.09464741 0.21397765 -0.26161414 0.282354

conv2.lin_l.bias f4 [16]
000000 bd a6 6e 3d e6 be d8 bc 72 f0 94 3d 12 4b 8e 3e
       0.058264483 -0.026458215 0.07272424 0.2779165
000010 1f fd b2 3d 5c fa 23 be 17 81 80 3e ef 20 66 bd
       0.08739685 -0.16013473 0.25098488 -0.05618375
000020 61 a5 16 be 7b 81 91 3e 40 cf 3b be 71 fc 07 3d
       -0.14711525 0.28419098 -0.18340778 0.03319973
000030 61 4f 22 bd 47 3f 9b 3e c7 16 23 be da 51 a3 3d
       -0.039626483 0.30321714 -0.15926658 0.07974596

conv2.lin_r.weight f4 [16, 8]
000000 26 2c aa 3e f0 65 7b bd 22 2a 9c bc 59 6e a8 bd
       0.33236808 -0.061376512 -0.01906306 -0.08224172
000010 14 41 85 bd 50 42 b2 be 7a ad 61 3d dc 1d 57 3d
       -0.06506553 -0.34816217 0.05509708 0.05251871
000020 ce 06 25 be f7 2f 39 3e 49 79 87 be c9 d5 11 3e
       -0.16115877 0.18084703 -0.2645972 0.14241709
000030 57 5e 85 3e ab 2d 37 3e dc cd c0 3d e0 e5 31 bd
       0.26048538 0.17888515 0.094142646 -0.043432117
000040 c9 f0 5b 3e de 37 a5 3e a7 78 5e 3e 37 b0 23 be
       0.21478571 0.32269186 0.21725713 -0.1598519
000050 8e 76 13 bd 89 f1 96 3d e4 7b 98 be ac 1c bc be
       -0.036001734 0.07370288 -0.2978202 -0.36740625
000060 81 d0 9e be dc 2d 41 be ee f5 a2 bd b6 3e c8 3d
       -0.3101845 -0.1886515 -0.079570636 0.09777586
000070 df 8c 46 3e 55 79 58 3e ae 5b 39 be c6 b5 bf be
       0.19389676 0.21140034 -0.1810138 -0.3744337
000080 c2 be 86 be a5 86 9f 3c ee 23 2c be 89 62 5f 3e
       -0.26317412 0.019473383 -0.16810581 0.21814932
000090 46 20 bb 3d 47 c0 ab 3e d8 f1 14 be 10 ad 38 be
       0.09137015 0.33545133 -0.14545381 -0.18034768
0000a0 76 97 37 be e9 f3 f0 bd f6 64 17 be f2 06 98 3e
       -0.17928872 -0.11765272 -0.14784607 0.296928
0000b0 36 71 0c 3c 79 07 c1 be ba 30 15 3e 72 2f 76 3e
       0.0085719135 -0.37701014 0.14569369 0.24041536
0000c0 2f cb 93 bd fe e9 9c bd d0 fb b0 3e 21 98 58 3e
       -0.072164886 -0.07661818 0.34567118 0.21151783
0000d0 85 f8 ac 3c 72 62 91 3e f7 6a 8c 3e 50 6f 20 bd
       0.021114597 0.2839542 0.27425358 -0.039168656
0000e0 a7 e9 a2 3e 95 21 96 be 9c 8b 8e 3e 22 be 57 be
       0.31818888 -0.29322496 0.27840889 -0.21068624
0000f0 f5 85 a4 3e 7c 67 87 be cf 63 92 3e c5 ba a1 3e
       0.3213345 -0.2644614 0.28591773 0.31587806
000100 83 f8 aa 3e 57 9d 49 3e cd 32 c6 3c 0e e8 aa be
       0.33392724 0.19688927 0.024194146 -0.3338017
000110 e1 3d 00 3e f9 46 a8 3e e3 2b aa be 84 a2 7b 3d
       0.12523605 0.32866648 -0.33236608 0.061434284
000120 75 15 44 be 8b 13 04 3e e2 a3 1d be 37 e1 28 3e
       -0.1914881 0.1289808 -0.15394548 0.16492163
000130 a3 00 bc 3d a2 ff 54 bd a8 0a 0f 3e 07 08 01 3e
       0.09179809 -0.052001603 0.13968909 0.12600718
000140 a1 f4 aa 3d 4f fb 2c 3e 93 bc 62 3d 18 32 03 be
       0.083474405 0.16892742 0.05535562 -0.12812078
000150 83 f2 6f be 20 9b 44 be 0a 28 19 3e 1c f7 cf bd
       -0.23432355 -0.191998 0.1495668 -0.10154554
000160 7c ae 5e be 98 0b 81 be 1b 49 57 3d 36 38 68 3d
       -0.21746248 -0.25204158 0.052559953 0.056694232
000170 8e 54 ad 3d 32 7c 90 3e 03 e2 1d bd 5d 18 a0 be
       0.08463393 0.28219754 -0.03854562 -0.31268588
000180 dd d2 a1 bd 22 69 00 3e 77 e1 25 be 1c 05 20 bd
       -0.07901547 0.12540105 -0.1619929 -0.039067373
000190 48 09 e8 3d df f5 76 be 8a cc 45 be e9 fa 1a 3e
       0.11329895 -0.2411723 -0.19316307 0.15134777
0001a0 c6 32 75 be ef 34 39 be cc 21 31 be 79 74 0a be
       -0.2394515 -0.18086599 -0.17298049 -0.13520993
0001b0 42 22 8b 3e b9 4d d2 bc 60 3a a7 3e e8 04 6b 3e
       0.27174574 -0.025671827 0.32661724 0.2295109
0001c0 8d ac 2a be aa 57 9e 3e 4b d0 bb be f6 59 ec bd
       -0.16667385 0.30926257 -0.36682352 -0.11540596
0001d0 b6 9c 8b 3e 01 0c 17 3e 27 53 b0 3e c1 a1 3d 3e
       0.27267998 0.14750673 0.3443844 0.18518735
0001e0 89 d0 4c bd 99 fd 65 3e 71 76 bb 3e 01 97 41 bd
       -0.050003562 0.22460021 0.366138 -0.04726315
0001f0 e1 4c b7 bc 1b 76 9f 3e cc 28 9b 3e e0 75 0d bc
       -0.022375526 0.31144795 0.30304563 -0.008634061

conv3.lin_l.weight f4 [32, 16]
000000 c0 c1 29 be 2e c9 99 3d fe 04 22 be ee f7 55 3e
       -0.16577816 0.07509075 -0.15822217 0.20895359
000010 d0 3b 88 be 97 50 8a 3e c4 28 c4 3d 77 9c 40 3e
       -0.26608133 0.2701461 0.09578088 0.18809687
000020 03 76 94 3d 57 3e b3 3c 90 df cb 3c 68 f6 d5 bd
       0.072490714 0.021880312 0.024886876 -0.10447389
000030 cd 3f b2 bd 7e 23 b0 bc b2 ac 2e 3e 91 76 69 bc
       -0.08703575 -0.021501299 0.17058066 -0.01424946
000040 7f 33 83 bd e3 98 72 3e b7 1f 45 3e 9f d7 45 be
       -0.064063065 0.23691134 0.1925038 -0.19320534
000050 e7 29 3a be 13 be ba 3c 81 28 0b 3d 9a da 4f be
       -0.18180047 0.022795713 0.033974174 -0.20298234
000060 c6 ad 47 3e 43 d5 59 3e c4 63 60 be fe 48 33 3e
       0.19499883 0.21272759 -0.21913058 0.17508313
000070 ba 96 60 be c2 a2 c4 bd 08 42 51 3d e7 3b 8a be
       -0.21932498 -0.09601356 0.051088363 -0.26998827
000080 92 7d 4b be 23 d6 82 be 7e f0 3a 3d f3 05 79 ba
       -0.1987212 -0.25553998 0.045639507 -0.00094994827
000090 64 4f 87 bd 8c 5e 4b 3e fb 31 e6 3d 68 98 c1 bd
       -0.066069394 0.19860286 0.11240002 -0.09452897
0000a0 7e 77 5d 3d 63 5c df bd e9 21 11 3e 20 71 dc 3b
       0.054069035 -0.10906293 0.14173092 0.0067273527
0000b0 42 bb 16 bd ab 8f 73 bd 9d c2 b0 bd 0e 96 1c be
       -0.036799677 -0.059463184 -0.086308695 -0.15291616
0000c0 16 01 ac 3d e0 87 89 be 4f 21 98 3e 7e b2 96 bd
       0.083986446 -0.26861477 0.29712912 -0.073582634
0000d0 c6 22 71 3e 6e 78 c9 bd 64 8a 26 3e 70 87 03 3e
       0.23548421 -0.09837423 0.1626373 0.12844634
0000e0 39 8e 7c bd 5c 00 d2 ba cf 8c 47 3e b9 eb 08 bc
       -0.06165907 -0.0016021836 0.19487308 -0.008356982
0000f0 32 ab 2d 3e 83 74 bb bd 26 5f 59 be ea 44 e1 bd
       0.16959837 -0.09153082 -0.21227702 -0.109994724
000100 67 81 0b ba 88 5d 5f 3e 47 e5 99 3d f1 8e 19 3e
       -0.00053217117 0.21813023 0.07514434 0.14995934
000110 f5 a3 33 bb b9 12 19 be 9c f0 52 be f0 d4 64 3e
       -0.0027410958 -0.14948548 -0.20599598 0.22346854
000120 5d 56 43 3e e5 bb d2 bc 8d 51 47 3e a5 25 55 3c
       0.19075914 -0.02572436 0.19464703 0.013009463
000130 a9 ec 96 bd 50 19 72 3c 73 1c 13 3e 10 62 93 bd
       -0.07369358 0.014776543 0.14366321 -0.07196438
000140 ab c3 16 be 71 eb ac bc 34 7a 8f be de 34 34 be
       -0.14723079 -0.021108361 -0.2802292 -0.17598292
000150 38 d3 55 be 06 73 48 bd a2 61 2c be 67 c3 e6 3d
       -0.20881355 -0.04893782 -0.16834119 0.11267739
000160 62 3e 51 3e 6e a8 bc 3d b7 54 3a 3e 0b 48 06 3e
       0.20433953 0.09211813 0.18196379 0.1311342
000170 33 fa ee bc 6b 03 6c 3e 68 b2 d8 bd 66 2d 31 bc
       -0.029172039 0.23048179 -0.10580903 -0.0108140465
000180 54 86 82 be 9f 52 a1 3d c6 c3 07 3e 78 da 6c 3e
       -0.2549311 0.07877087 0.13258275 0.23130214
000190 eb 49 32 be ff 09 de 3d 0a 6b 42 be 1a 9a 34 be
       -0.1741101 0.1084175 -0.18986145 -0.1763691
0001a0 65 3d 88 3e be b1 12 bd e8 ce 54 be 37 b9 db 3d
       0.2660934 -0.03581404 -0.20782053 0.10728686
0001b0 9d e1 60 be d6 04 4d bd e8 be 8b be 72 2f 55 3e
       -0.21961065 -0.05005344 -0.27294087 0.2081888
0001c0 bb 00 e7 3c e6 5d 48 be 20 78 a3 bd 3e 29 65 be
       0.02819859 -0.1956707 -0.079818964 -0.22379014
0001d0 75 6b 20 be 39 55 7d 3e 61 9e 95 bd c4 1b 60 be
       -0.15665992 0.24739541 -0.07305599 -0.21885592
0001e0 20 a4 eb 3d 3b 1c 6b bd 34 4f 4c be 38 7b 96 bd
       0.11505914 -0.05739997 -0.19952089 -0.07347721
0001f0 b2 af 4e be 6f a4 ec bd 79 6b 98 3d 00 ae 5b 3e
       -0.2018421 -0.11554801 0.07442374 0.21453094
000200 f6 f5 2a 3e 3b 17 50 3e ee 58 6c 3e 18 53 39 3e
       0.16695389 0.20321362 0.23080799 0.18098104
000210 77 0e e7 bb f1 0f 03 3e a7 ca 56 3e e2 29 44 3e
       -0.007051285 0.1279905 0.20975743 0.19156602
000220 50 7c 23 3e 38 4c a9 bd 12 cd a3 3d 03 aa 0f 3e
       0.1596539 -0.08266491 0.079980984 0.14029698
000230 9e 9a 50 3e 41 07 01 be 7e 92 52 3e 4d f1 d1 3d
       0.20371482 -0.12600423 0.20563695 0.102511026
000240 04 27 66 3e 65 af 0d be 1c c1 ea 3d c4 8c ef 3c
       0.22475821 -0.13836439 0.11462614 0.029241927
000250 30 d4 8f be 89 18 8b 3d 21 1b e4 3d 64 0e a7 bd
       -0.28091574 0.06791789 0.11137987 -0.08157042
000260 8b 27 bc bd 55 22 58 3e 49 08 96 bd 0d e7 21 3e
       -0.0918723 0.21106847 -0.07325799 0.15810795
000270 15 73 c3 bd 85 02 3a 3e 95 d0 04 3e f5 0c fe 3d
       -0.095434345 0.18165024 0.12970193 0.12404815
000280 21 ac 89 bc 7a 53 d6 bd 8f 89 69 be b7 2b d6 3c
       -0.01680571 -0.10465141 -0.2280638 0.026143892
000290 c2 e1 9a 3d 8e 45 95 bd 97 23 63 bd e9 c1 0d 3e
       0.07562591 -0.07288657 -0.055453863 0.13843502
0002a0 2e 18 8b be bd fc 3f 3e e7 cb e3 3d d2 a0 f3 3b
       -0.27166885 0.18748756 0.11122876 0.0074349428
0002b0 22 45 db 3d 57 7d be bd 10 69 55 3e 61 c0 9e 3c
       0.107065454 -0.093012504 0.2084086 0.019378843
0002c0 c1 1d 07 3e 88 6a 25 be 32 e3 26 be 72 f6 10 be
       0.13194944 -0.1615392 -0.16297606 -0.14156511
0002d0 01 0e 27 3d 06 87 88 3e 3d bf b1 3d be 16 bb 3d
       0.04078484 0.26665515 0.08679054 0.09135197
0002e0 00 58 a4 bd 80 66 04 be 84 a4 63 be 75 c5 46 be
       -0.08024597 -0.12929726 -0.22230726 -0.19411261
0002f0 29 ec 48 be 06 7f 60 be 77 b8 b9 3d 15 59 98 bd
       -0.19621338 -0.21923456 0.09068387 -0.07438866
000300 da 83 47 be 9b 12 63 3d 01 16 2a be 6a d0 83 be
       -0.19483891 0.055437665 -0.16609956 -0.25744945
000310 76 91 b8 3d 15 ff 2b bd f6 2f 90 be c3 3e 10 3e
       0.090121195 -0.041991312 -0.2816159 0.14086442
000320 73 05 ed 3c 07 d7 4f 3e c1 ab 5f 3e f3 21 f9 bd
       0.028933262 0.2029687 0.21842863 -0.121646784
000330 c6 16 06 3e 05 dc b0 3d f8 50 cd 3d 4b 08 0b be
       0.13094625 0.086357154 0.10025209 -0.13577382
000340 51 b0 98 bc e7 e2 4c bd d6 b0 b4 3d d3 16 fb 3d
       -0.018638762 -0.05002108 0.08822791 0.12260213
000350 a7 68 5d 3e da 1b 50 3d 75 64 c5 3b c9 a5 83 be
       0.21621953 0.05080781 0.0060239383 -0.25712422
000360 e2 16 d2 bd 38 91 92 bd f1 a1 60 be bd a9 89 bd
       -0.10258271 -0.071566045 -0.21936776 -0.06721828
000370 b5 a3 dd 3d 71 2d 44 be 5d 9b f1 3c b3 90 28 3d
       0.1082224 -0.1915796 0.029493028 0.04115362
000380 c7 cf bf bd cc 53 ba 3d 6d bc fb bd d1 a6 e4 bd
       -0.09365802 0.09098014 -0.12291799 -0.1116463
000390 f5 56 1f 3e e5 d6 79 3e 6c 62 b7 bd a9 fe f9 3b
       0.15560515 0.24398382 -0.08954319 0.007629235
0003a0 67 26 3c 3e 74 c8 b9 3d 8b 51 30 3e 7d cd 32 3e
       0.18374024 0.090714365 0.17218606 0.174612
0003b0 f1 18 4e be af 39 c7 3d 66 3c 64 3e 85 1c 3e be
       -0.20126702 0.09727799 0.22288665 -0.18565567
0003c0 5a ce 7a bd 1a 82 d0 bc b2 74 71 bc 39 96 f2 bd
       -0.06123195 -0.025452662 -0.014737295 -0.11845059
0003d0 83 ac 45 3e b7 fc 0e 3e dd 34 43 3e 53 34 5b 3d
       0.19304089 0.1396359 0.19063134 0.053516697
0003e0 fd da 31 3d d7 d3 36 3e e9 da b0 3d bc d4 61 bd
       0.043421734 0.17854248 0.08635504 -0.05513452
0003f0 13 b1 da bd 42 09 e4 bd 83 97 62 3d 60 14 24 bd
       -0.106783055 -0.11134578 0.055320274 -0.040058494

conv3.lin_l.bias f4 [32]
000000 68 ae a0 3d 47 e9 14 be cb b6 c3 3c f1 52 1e 3e
       0.07845765 -0.14542113 0.023890873 0.15461327
000010 3a 1a f9 bd 94 52 17 3e f9 47 97 bd a0 49 58 be
       -0.121632054 0.14777595 -0.073867746 -0.21121836
000020 5b 86 1d be b6 d4 93 bc e0 82 4c 3e 30 c9 04 be
       -0.15383284 -0.018045764 0.199718 -0.12967372
000030 10 79 8b bc a1 ce 17 be 78 59 a2 3d da 37 48 be
       -0.0170255 -0.14824916 0.07927221 -0.19552556
000040 d9 84 34 3e 3e 9e 55 be e2 e7 bc 3c 07 75 4a 3e
       0.17628802 -0.20861146 0.02305979 0.19771205
000050 0f 7d 44 bd a7 0d 14 be d2 80 03 be ea 15 85 bd
       -0.047970828 -0.14458333 -0.1284211 -0.064983204
000060 af 50 46 3e 7f 71 b4 3d 62 b6 2a 3e 82 36 4c 3c
       0.19366716 0.0881071 0.16671136 0.012464168
000070 ad 8d b7 bd 1c d0 63 be ef 9f 12 3e c5 62 52 be
       -0.089625694 -0.22247356 0.14318822 -0.2054549

conv3.lin_r.weight f4 [32, 16]
000000 87 66 3a 3e 7c 36 b1 bc 4a 5d 76 be 53 8a 20 be
       0.18203174 -0.021632425 -0.24059024 -0.15677767
000010 d5 59 50 3e dc 9f 9b 3d 30 ea 09 3e df 69 d2 bd
       0.20346768 0.0759885 0.13468242 -0.102740996
000020 ee c3 62 be d8 c5 0a be a0 ad 6f 3e 4e f6 8c bd
       -0.22145054 -0.13552034 0.23406076 -0.068829164
000030 fb 55 8a bd fb b4 ec bb d4 29 ea 3c 9d 11 3c 3e
       -0.06754681 -0.007223723 0.028584398 0.18366094
000040 93 19 b6 bd 56 65 08 3e 3e ae cb bd a8 2d 15 be
       -0.08891597 0.13319907 -0.099453434 -0.14568198
000050 44 aa 18 be 1b a5 39 be aa 31 7f be 12 95 4f b9
       -0.14908701 -0.18129389 -0.24921289 -0.00019796591
000060 65 a5 ae 3d d9 a7 95 bd e0 64 a7 bc bc 06 29 be
       0.0852764 -0.07307405 -0.020433843 -0.16506475
000070 70 6d 29 be 19 4a a5 bd 58 cb 80 3e b3 a8 46 3e
       -0.16545653 -0.08070774 0.2515514 0.19400291
000080 ac 8c 3b 3e 71 81 87 be 7c c3 f9 bc db a9 66 3d
       0.18315381 -0.26465943 -0.030488722 0.05631433
000090 db 9b 72 3e a2 eb 42 be c8 51 6c bd 16 ba 9d 3d
       0.23692267 -0.190352 -0.05769518 0.07701509
0000a0 2e f3 ee bd ce ec 23 be 11 38 93 3d 14 01 47 3e
       -0.116674766 -0.16008303 0.07188428 0.19434005
0000b0 53 d5 3e be b7 1e 7a be 3d d3 91 bc 33 50 40 3e
       -0.18636064 -0.2442578 -0.017800922 0.18780594
0000c0 85 28 59 be 72 1f 72 be bc a7 87 3e a8 ac 0f 3e
       -0.21206863 -0.23644808 0.2649516 0.14030707
0000d0 48 4c 85 3e b6 88 61 3d ea ac aa 3d 4f 4b a6 bd
       0.2603476 0.05506202 0.08333762 -0.08119833
0000e0 1f d5 80 3e 31 61 cc 3d 8e 26 12 be 7d 31 57 be
       0.25162598 0.09979475 -0.1427252 -0.21014972
0000f0 33 9e d4 3d 8b 75 0f 3d 03 1f ad 3d 49 3a 92 3d
       0.103817366 0.035024207 0.08453181 0.07140023
000100 57 a2 6b be 38 10 e5 bc 9c 29 fd bd 22 fd 4f be
       -0.23011146 -0.027961835 -0.12361452 -0.20311406
000110 1a 30 4e 3c 42 33 2b 3e b3 7f 8e be 31 de 52 3e
       0.0125847105 0.16718772 -0.27831802 0.20592572
000120 d3 ab 7a be 56 2d b1 bd 08 2b 87 3d 02 75 38 3e
       -0.24479608 -0.08651225 0.066000044 0.18013385
000130 5d eb 12 bd 7c 4d 14 3e 26 04 35 be 75 08 63 bd
       -0.03586899 0.14482683 -0.17677364 -0.055427987
000140 29 3e 6a bd 00 db 73 bb a0 d3 68 be c8 2a c6 3d
       -0.057188187 -0.0037209392 -0.22736979 0.096761286
000150 b7 be 3a 3e 66 b2 cd 3a 5c a5 fa bd ce 3a 7c 3e
       0.18236814 0.0015693426 -0.12238571 0.24631807
000160 e9 16 8d be ad b6 83 3e c0 54 1a 3e 1d 0d a0 bb
       -0.27556542 0.25725308 0.15071392 -0.0048843757
000170 84 4a 40 3d 0e 75 7d be 5e 19 4f bd a4 cf 29 3e
       0.046946064 -0.24751684 -0.0505613 0.16583115
000180 84 c9 a5 3d d2 58 92 3c e8 d1 46 3e 9f b0 ad bc
       0.08095077 0.017864618 0.1941601 -0.021202384
000190 07 ca 39 3e 8b 13 29 3e 69 2e 91 bd e5 db fd 3d
       0.18143474 0.16511361 -0.0708893 0.12395457
0001a0 e0 8f 3d be 1c cc 58 be 1d b1 3e 3e 76 be 5f 3e
       -0.18511915 -0.21171612 0.18622251 0.21849999
0001b0 51 4e 88 3e 6c de 7c 3e 99 3c 1b be c3 40 f3 3d
       0.2662225 0.24694222 -0.15159835 0.11877587
0001c0 6b 9a 34 be 89 cf 40 3e f9 4d ad bd b7 fb 50 be
       -0.17637031 0.18829168 -0.08462138 -0.20408522
0001d0 a3 2e 15 be 80 0f 6a 3d ca c4 9d 3d a0 69 7f 3c
       -0.14568572 0.05714369 0.0770355 0.015589148
0001e0 d0 4e ee 3c a9 6d 6a bd e9 d8 2b bd 71 17 66 bc
       0.029090315 -0.057233486 -0.04195491 -0.014043675
0001f0 a8 82 3a be fa 20 06 3d 43 92 81 3e 38 22 59 be
       -0.18213904 0.032746293 0.253069 -0.2120446
000200 a9 33 e9 bc e7 fd 23 be 14 14 8d 3e 0f 2f 30 bd
       -0.028467016 -0.16014825 0.2755438 -0.04301363
000210 0f 08 f9 bd 78 cc 9b bd 03 6d 15 be ba bf 6d be
       -0.1215974 -0.07607359 -0.14592366 -0.23217669
000220 31 07 96 bd 90 47 11 3c 64 cf f2 bd 8a a5 08 3d
       -0.073255904 0.0088671595 -0.11855963 0.033360995
000230 c6 f8 57 3e db 0e 51 be 51 ce 18 be ed a4 86 3d
       0.21090993 -0.20415823 -0.14922453 0.06574426
000240 ac 98 82 3d ee 99 e6 3d c7 5c 87 3d 19 66 26 be
       0.06376776 0.112598285 0.06609493 -0.16249885
000250 de ee 6c bc ef 5e 1a 3e 77 50 88 be ee eb 3f 3e
       -0.014461247 0.15075277 -0.2662389 0.18742344
000260 e6 cf 8d be ac e7 6c 3d 96 3e 2c bd 27 9d 10 3d
       -0.27697676 0.057838127 -0.042051874 0.035306122
000270 56 9a ee 3d e0 23 7a 3d a5 dc 49 3e 35 f6 12 be
       0.11650531 0.06106937 0.19713075 -0.14351733
000280 4d 69 f9 3d bf ab 2d be 87 05 0d be b3 c6 43 bd
       0.12178288 -0.16960047 -0.1377164 -0.047796916
000290 b3 84 60 be d1 17 bf bd 22 4b 6c bd b5 23 1a 3d
       -0.2192562 -0.093307145 -0.05768884 0.03763171
0002a0 f8 78 e1 bd a4 d3 fd bd e9 6e 05 3e 61 a5 47 3e
       -0.11009401 -0.12393883 0.1303059 0.19496681
0002b0 63 34 13 3d 97 53 0a 3d e1 55 4f 3e 44 86 65 3c
       0.03593863 0.033771124 0.20247604 0.014009062
0002c0 3e 67 dd bc 85 52 28 bd fc aa 46 be 93 5f 9d 3c
       -0.027026769 -0.04109432 -0.19401163 0.019210612
0002d0 5b dd 9f 3d 22 c3 82 bd ca 30 19 3e be 54 d6 bd
       0.07805892 -0.06384875 0.14960018 -0.10465382
0002e0 1a eb 83 be 9b 36 05 be fc aa 52 be 27 65 fc 3d
       -0.25765306 -0.13009112 -0.20573038 0.12323981
0002f0 e1 91 2a 3c b5 23 2f be 88 6e 9d bd e8 87 6a be
       0.010410757 -0.17103465 -0.07687098 -0.22903407
000300 1e 4d 18 3e df 8d 92 bd b2 31 2f 3e 85 a4 50 ba
       0.14873168 -0.07155966 0.17108801 -0.00079590856
000310 72 fc 31 be c4 e4 14 3e f3 96 d9 bc 20 dc 93 3d
       -0.17381456 0.14540392 -0.026561236 0.0721972
000320 0b 7e 0c be 84 d2 65 3c 72 9a 3d bd b3 d4 de 3d
       -0.13719957 0.014027242 -0.04628987 0.10880413
000330 9f 6d a2 bd a3 57 aa bd fb f3 d4 3d 27 c6 16 3e
       -0.07931065 -0.08317497 0.10398098 0.14724027
000340 32 2a c7 3c 52 27 31 3e 74 da 1a be 24 66 b8 bd
       0.024312112 0.17300156 -0.15122396 -0.09003857
000350 ca 88 18 be 85 7b 91 be 1a 2c 46 3e 17 f4 15 3b
       -0.14895931 -0.2841455 0.19352761 0.0022881085
000360 f0 57 8b bd 51 f0 e3 bd 33 36 25 bd 92 ee 54 be
       -0.06803882 -0.11129821 -0.04033489 -0.20794132
000370 af dd 0e be 0b 66 e4 3d b0 39 35 be 39 b8 80 3e
       -0.13951753 0.11152276 -0.17697787 0.2514055
000380 9e 27 36 be 95 12 df bd aa 44 a1 3d 64 e8 7b be
       -0.1778855 -0.10892216 0.07874425 -0.24600369
000390 a3 5b 58 be b6 33 75 3e c4 0a f4 bd a3 6b d4 bb
       -0.21128707 0.23945507 -0.11916116 -0.006482558
0003a0 18 59 0c 3e 2e cc 3c be f3 d1 3e 3e 22 a8 3b 3e
       0.13705862 -0.18437263 0.18634777 0.18325856
0003b0 6f 86 05 be 3d 6a 39 3e 2b 29 1d be c4 ab 64 3e
       -0.13039564 0.18106933 -0.15347736 0.22331148
0003c0 87 0b 02 3e fa be b9 3d f3 e8 2b 3e 6b 87 d3 3d
       0.1269971 0.09069629 0.16788082 0.10328563
0003d0 9c d3 e5 3d e6 8b 17 be 51 cb ed bd 74 19 6f 3e
       0.11222002 -0.14799461 -0.11611045 0.23349553
0003e0 66 3b 23 3e 50 58 38 3e e0 d8 1d 3e 60 67 1b be
       0.15940627 0.18002439 0.15414762 -0.15176153
0003f0 b8 70 8e 3d 08 7d a3 bc da 6d 45 3e 90 a4 07 3e
       0.06955093 -0.01995708 0.19280186 0.1324637

conv4.lin_l.weight f4 [64, 32]
000000 2e 28 ef bc 75 71 12 3e 71 50 03 be cf c5 09 be
       -0.029193964 0.14301093 -0.12823655 -0.13454364
000010 d6 01 09 be 07 83 77 3c e8 5a 29 be cd 3a 19 be
       -0.13379607 0.015106923 -0.16538584 -0.14963837
000020 c6 3e 1b bd a5 30 3f 3e 92 2c a7 3c 51 77 3b 3d
       -0.037901662 0.186709 0.020406995 0.045768086
000030 80 f4 ce bd 66 8e 4e be 03 ca 85 3d e9 7c b4 bd
       -0.101052284 -0.20171508 0.06532671 -0.08812887
000040 ff 4c 5a 3d 7d ef 3d 3c 30 59 1d be 80 e4 47 be
       0.053296085 0.011592743 -0.15366054 -0.1952076
000050 4b 54 a2 bd a9 80 41 bc b0 1f fa bd 9b 87 6b bd
       -0.07926234 -0.01181046 -0.12213075 -0.05750237
000060 99 82 37 be e7 c2 82 3c 43 6c 94 3d db 5b d4 3d
       -0.17920913 0.015962077 0.07247212 0.103690825
000070 1c e1 97 3d 77 6a 9e bd b7 96 0c bd ac 53 94 3d
       0.07415983 -0.0773515 -0.03432342 0.07242522
000080 34 30 26 be 97 7a 0f 3e 01 ec 1c be dd ea 3f bd
       -0.16229326 0.14011608 -0.15324403 -0.046854842
000090 74 49 13 bd 9c 79 6a 3c 98 e9 e3 3d dd 8b d5 bd
       -0.035958722 0.0143112205 0.11128539 -0.104270674
0000a0 01 5e ac bd d0 84 3c be 16 36 29 be 93 42 9a 3c
       -0.08416367 -0.18410039 -0.16524538 0.018830573
0000b0 55 7f 55 be 1e 75 d7 3d 1f 14 c8 3d fb ae 49 3d
       -0.20849355 0.10520385 0.09769463 0.04923914
0000c0 ec 4e 54 3d 2b 01 90 bd 34 d4 1b 3e 4c 17 14 3e
       0.05183308 -0.07031473 0.15217668 0.14462012
0000d0 0a 1d 07 3e 17 03 0e 3d ae 7d 22 3e 93 e8 44 3e
       0.13194671 0.034670915 0.15868255 0.19229345
0000e0 84 af b8 3d 0f fc 61 be ba 5b 78 bd cc 74 42 be
       0.09017852 -0.22068809 -0.060634352 -0.18989867
0000f0 44 59 b1 3c 3d cc 4a 3d ff f6 1d 3d 72 93 40 bd
       0.02164901 0.049511183 0.038565632 -0.047015615
000100 a8 8c 19 3e c4 42 b4 bd d2 4b 7d bd c7 bb 17 be
       0.14995062 -0.08801797 -0.061839886 -0.14817725
000110 a7 51 39 bd 63 42 26 3e 6b 79 b8 3d ca b3 ce bd
       -0.045243885 0.16236262 0.09007534 -0.10092886
000120 49 4a 7d 3d c6 11 ad 3d 53 fc 5f 3e 90 a6 b8 bd
       0.061838422 0.08450656 0.21873598 -0.09016144
000130 0c 76 e2 3d 8a 92 16 be 46 6a 4a 3d 66 14 95 bd
       0.11057672 -0.14704338 0.049417756 -0.07279281
000140 9b 15 44 be d5 ef a1 3d 57 99 75 3d 9c ba 6e bc
       -0.19148867 0.079070725 0.05996069 -0.014570858
000150 ce ca 99 bd ad 30 ff bd 77 41 ef 3d 5b c8 6a bd
       -0.07509385 -0.12460456 0.11682408 -0.05731998
000160 4c ce 92 3d 56 78 d9 3d 1a 35 e4 3d b7 1f 15 bb
       0.07168254 0.106186554 0.11142941 -0.00227545
000170 4e 11 de bc c1 b7 97 3d 0c ba 9d 3c 20 9d c6 bd
       -0.02710786 0.07408095 0.019253753 -0.09697938
000180 39 ff e1 3c 78 10 85 bd 71 1a bd 3d b5 a4 3d bd
       0.02758752 -0.06497282 0.09233559 -0.046299655
000190 4d 98 0d 3e c4 47 86 bd 07 e5 06 3c fa 4b 98 bd
       0.1382763 -0.06556657 0.008233315 -0.074363664
0001a0 49 39 cf 3d da a1 e2 3d f6 fc 3e 3e c1 59 b9 3d
       0.10118348 0.11066027 0.18651184 0.09050322
0001b0 c4 62 10 3e ad a8 5a be 53 9b 83 bd f7 4e 4e 3d
       0.14100176 -0.21353407 -0.0642611 0.050368275
0001c0 1c 13 31 be 9c 49 49 3c b2 9f ac 3c b0 28 9e 3d
       -0.17292446 0.012285616 0.021072242 0.07722604
0001d0 e1 7a 33 3e 0d d4 06 3e 5a 75 ae 3d 59 b8 55 be
       0.17527343 0.13166828 0.08518477 -0.20871104
0001e0 bf 52 21 be 8b 6f 0e 3e 40 02 b6 3b c1 03 18 3e
       -0.15754221 0.13909738 0.0055544674 0.14845182
0001f0 5b 19 9d bd a1 cf bd 3d 05 fb 1a bd b0 86 76 bd
       -0.07670852 0.09268118 -0.037837047 -0.06018704
000200 2d 21 0e 3e 82 a6 10 3d 59 40 9a bd 13 77 46 3c
       0.13879843 0.035315044 -0.075318046 0.01211335
000210 f9 00 da bd 20 23 c6 bd 3a 63 bf bd d6 e5 49 bd
       -0.10644717 -0.09674668 -0.09345098 -0.049291454
000220 aa 12 bb bc f9 8e b0 bd 85 0c 3e 3e 34 12 49 bd
       -0.022836048 -0.0862102 0.18559463 -0.049089625
000230 99 55 d3 bc 76 fc 0f 3b 82 42 fe bd 41 74 b7 3d
       -0.025797652 0.0021970547 -0.12415029 0.089577205
000240 5e c1 a4 3d 14 1d 99 bd 39 89 f4 bd a0 6d 05 bc
       0.08044694 -0.07476249 -0.11940236 -0.008143812
000250 47 43 3b 3e 50 6f 09 be 1d 11 c8 3d 75 d3 ed bd
       0.18287383 -0.13421369 0.09768889 -0.11612598
000260 48 02 0d be 9f be 78 3d f7 ea 1b bd 7e d7 15 3d
       -0.13770401 0.060728665 -0.038065877 0.036582462
000270 a5 93 09 3e 27 16 25 be fd 75 0d 3e 51 55 2e be
       0.13435228 -0.16121732 0.1381454 -0.17024733
000280 20 19 97 3d 26 e5 12 be f1 34 eb bc 48 b4 b7 bd
       0.07377839 -0.14345226 -0.028711768 -0.08969933
000290 cd 7d e4 bd 7e 30 52 3c c5 26 84 3d 30 d4 ef 3c
       -0.11156807 0.012828944 0.06452707 0.029275984
0002a0 34 73 e1 3d 31 b7 3b be 6a 09 48 be 13 40 ac 3d
       0.110083014 -0.183316 -0.19534841 0.08410659
0002b0 b6 0d d9 bd 3b a1 7a 3d c2 d1 ef bd b6 e8 fb 3d
       -0.10598318 0.061188918 -0.1170993 0.123002455
0002c0 3e 82 73 bc 83 78 10 be 3e 69 02 be 14 2f 89 bd
       -0.014862595 -0.14108472 -0.12735459 -0.066984326
0002d0 8d 33 cb bd 7d b6 a7 3d 50 7c ab 3d d9 17 59 3d
       -0.09921942 0.08189104 0.0837332 0.05300126
0002e0 e0 1a 46 3e fa 8e 50 be 32 8b f6 bd 3b e4 4f bd
       0.1934619 -0.20367041 -0.12038268 -0.050754767
0002f0 c0 5c 00 3e ff ea 89 bc 29 b5 e1 bc ca 77 10 3e
       0.12535381 -0.016835688 -0.027552204 0.14108196
000300 b7 12 ab bd b4 b4 ee 3d 0f 2c ce bd da 73 bd 3d
       -0.08353179 0.1165556 -0.10066997 0.092506126
000310 85 fb 18 3e 25 dc 07 bc 80 9c 3e 3e 1c db 4e bd
       0.14939697 -0.008292233 0.18614388 -0.050501928
000320 0d 08 60 3d 3b 23 12 be 21 58 a0 bb 35 14 c7 bd
       0.054695178 -0.14271252 -0.0048933183 -0.09720651
000330 01 66 5a 3d c0 f4 61 3b e0 24 57 3b 34 8b 61 3d
       0.053319935 0.0034478158 0.0032828376 0.055064395
000340 04 fa 11 be b5 df db bd 71 5b c4 3d 4a ab 04 bd
       -0.1425553 -0.10736028 0.095877536 -0.032389916
000350 54 f5 f2 3d cd 0e 2c 3e 46 3d 0e 3e f6 d7 f4 3d
       0.11863199 0.16802521 0.13890561 0.11955254
000360 3b 68 07 bd 92 f4 0b be 75 07 d6 bd 10 b2 12 39
       -0.033058386 -0.13667515 -0.10450641 0.00013989978
000370 f3 59 4c bd 59 e3 d3 bd 33 49 0d 3d a6 81 d5 3d
       -0.04989047 -0.103460975 0.034493636 0.10425119
000380 0e 4b 1c 3e 6b 1e b9 bd fa 03 f5 bd e1 6b 95 3d
       0.15263006 -0.09039005 -0.11963649 0.07295967
000390 1b 5d 0e 3e 95 41 0e be 12 c2 13 3e b0 b0 24 be
       0.13902704 -0.13892205 0.144295 -0.16083026
0003a0 e4 53 0d be ac 1d b4 3d ce e9 14 3e 14 85 81 3d
       -0.13801533 0.08794722 0.14542314 0.06324211
0003b0 12 98 8f bc b2 99 b6 bd e4 09 b7 3d fd 48 e7 3c
       -0.017528567 -0.08916034 0.08937433 0.028233046
0003c0 28 03 03 be 91 fd b4 bc 3d 39 08 3c 9a 5f 14 be
       -0.12794173 -0.022093566 0.008314428 -0.14489594
0003d0 8c 75 7c 3d 0f 32 ae bc 4d c4 98 3d ae ee 91 3d
       0.06163554 -0.021264104 0.074593164 0.07125603
0003e0 98 7f ae bd 68 dc d1 bd f6 ed fc bd 0f b0 21 3e
       -0.0852043 -0.10247117 -0.12350075 0.15789817
0003f0 c5 e8 5b bd 39 4e 4c 3d e9 db df bc ac b7 c9 bd
       -0.053688783 0.049879286 -0.027326541 -0.09849486

conv4.lin_l.bias f4 [64]
000000 49 68 0a be 64 fd a6 bc fa c1 7d 3a ae 52 69 bd
       -0.13516344 -0.020384498 0.0009680089 -0.056963615
000010 03 99 db bd f3 c1 61 bd 44 fd 58 bd ae 8c 2c bd
       -0.10722544 -0.055116605 -0.052975908 -0.04212635
000020 69 83 18 3d b3 df 06 3e fc 9f fd 3d d8 6a b5 bb
       0.037234697 0.13171272 0.1238403 -0.0055364184
000030 05 79 bf bd d2 30 2b 3e de 2e e6 3d 66 96 43 be
       -0.093492545 0.16717842 0.11239408 -0.19100341
000040 40 8b 8f bd 10 66 cd 3d d1 de 9e 3a ea 70 cc bc
       -0.07008982 0.100292325 0.0012120848 -0.024956185
000050 da 87 85 3d e6 d6 0f 3e 71 58 d2 bd a2 70 05 be
       0.06520052 0.14046821 -0.10270775 -0.13031247
000060 63 93 d5 3c 3c 26 3d bd 4b 8a 0c 3d 71 80 05 3d
       0.026071256 -0.04617904 0.034311574 0.032593194
000070 20 01 93 bd 85 79 f2 bc d7 3e aa bc 9d f9 51 3d
       -0.07177949 -0.02959896 -0.020781917 0.05126344
000080 a0 c2 5a 3c d7 1b 85 3d 43 14 f7 3d 8f fa 9e bd
       0.013352066 0.06499451 0.120644115 -0.07762634
000090 09 b4 00 be 4f 2f b1 3d fd fd 53 bc 3d ed 6a 3c
       -0.12568678 0.086516015 -0.0129389735 0.014338789
0000a0 5d bb be 3d 4f 92 b0 bc a2 7a 0d 3e e1 24 d5 3d
       0.093130805 -0.02155414 0.13816312 0.10407425
0000b0 38 8e 8b 3d 3b 4a a3 bd 1c d0 4f bc db 44 0e be
       0.068142354 -0.07973143 -0.0126838945 -0.13893454
0000c0 ce f4 90 bd 92 71 3d 3e a1 71 c4 3c de 93 fb 3c
       -0.07077943 0.18500355 0.023979964 0.030710157
0000d0 96 33 c0 3d b7 91 fc 3d 42 a3 ca bd a4 dc 21 3e
       0.09384839 0.123324804 -0.0989442 0.15806824
0000e0 1a 15 e1 bd 7e 0d 22 bd 91 ac d7 bb 51 8f 6f bc
       -0.10990353 -0.03956365 -0.006581851 -0.014621572
0000f0 68 b1 9d bc 9a 67 93 3d 48 85 89 bd 3f 32 a8 3d
       -0.019249633 0.07197495 -0.067148745 0.08212709

conv4.lin_r.weight f4 [64, 32]
000000 3b 6c 41 3e da 3a 12 3e 78 6c 2d be e4 5d 07 3e
       0.18888943 0.14280263 -0.16935909 0.1321941
000010 7c 1f 06 3d 01 20 59 3e a6 2e 04 3d 10 33 0b 3e
       0.03274487 0.21203615 0.03227105 0.13593698
000020 ae fd c7 bc 8f e8 85 bc 1b 5c 46 3e db 45 68 bd
       -0.024412956 -0.016346244 0.19371073 -0.056707244
000030 e5 7c 4f bd 09 6a 45 3d 6f 94 0e 3e 0d fa 19 be
       -0.050656218 0.048196826 0.1392381 -0.15036793
000040 2d ac 00 3e 8f 99 41 3d 61 ed 2d be ea f2 50 bd
       0.1256568 0.047265586 -0.16985084 -0.05101291
000050 83 ba a9 3c 43 4e 26 bc ad 9b 20 bd 89 91 18 bd
       0.020718819 -0.010150495 -0.039210964 -0.03724817
000060 cd c7 90 3c 30 e1 81 bd 72 14 19 be 1d fb 04 bd
       0.017673397 -0.06341779 -0.14949206 -0.032466043
000070 13 0c 8a 3d 1a 8b 19 be b9 3b 99 bd 47 75 d4 bd
       0.06740584 -0.1499447 -0.07482094 -0.103739314
000080 75 ba e2 3d 37 ac 67 3b 72 b9 2f 3e c6 db 18 3e
       0.1107072 0.003535045 0.17160586 0.14927587
000090 2e be 5b 3d 9f 6e 2e 3d ee 61 03 bd 2b 7c 09 3e
       0.053648166 0.042585965 -0.032075815 0.13426273
0000a0 56 38 32 3e 82 95 27 bd 27 0c 12 be f9 d4 32 be
       0.17404303 -0.040914066 -0.14262448 -0.17464055
0000b0 85 bd 90 3d 2c 96 11 3e db 6b 31 bc fe 74 66 3d
       0.07067398 0.14217442 -0.010828937 0.056263916
0000c0 f4 a0 41 3d 60 31 91 bd 67 6e d8 3b 83 dc c7 bc
       0.047272637 -0.07089496 0.006604958 -0.02439714
0000d0 98 31 4f bd f7 82 35 3e 4d 24 c0 3b c2 f3 f3 bd
       -0.050584406 0.1772574 0.0058637024 -0.119117275
0000e0 83 60 cc 3d c5 d2 28 be 81 7d 9a bd d6 3b 76 bd
       0.09979346 -0.16486652 -0.07543469 -0.060115658
0000f0 a8 e2 bd 3d 9f d9 61 3d 8f 20 b0 bd 66 fe f3 bd
       0.09271747 0.05513918 -0.0859996 -0.11913757
000100 26 59 b0 bd b7 2e 63 bd 4a 44 32 3e b7 84 f3 3d
       -0.08610754 -0.055464473 0.17408863 0.11890548
000110 8c 8d 8f 3d 4b 91 94 bd c7 13 0e be 13 f0 01 be
       0.0700942 -0.07254275 -0.13874732 -0.12689237
000120 36 b9 28 be 82 9f 3b 3e e2 8f 6b bd f8 ce c4 3d
       -0.16476902 0.18322566 -0.057510264 0.09609789
000130 87 83 4f 3d d2 e9 3a be a4 76 3a bc 05 15 b3 3d
       0.050662544 -0.18253258 -0.011380825 0.087442435
000140 af 88 f9 3d 30 18 dd bc c3 a3 6f 3d d5 1e 92 3d
       0.121842735 -0.026989073 0.058505785 0.07134787
000150 b2 dd f7 3c 65 2b 45 3d 6b 07 63 3d 0e cf 08 be
       0.03025708 0.048137087 0.055426996 -0.13360235
000160 fd b0 34 be db ae e5 3b cb b3 cb bc 77 81 fd 3c
       -0.1764564 0.00700937 -0.024866005 0.030945523
000170 cf 40 1c 3e 39 fb da 3d 29 e9 87 bc 05 9b 4d be
       0.15259098 0.10692448 -0.016590672 -0.20078667
000180 3a f2 0d 3e 95 99 d6 3d 76 d0 f8 3a 0f 29 11 be
       0.13861933 0.10478512 0.0018983025 -0.14175819
000190 90 c7 d3 3d 2f c1 9d bb ef 7b 81 bd 41 0a 52 bd
       0.10340798 -0.004814289 -0.063224666 -0.05127931
0001a0 50 5f a9 3c 50 32 83 3d 93 59 63 3c 92 16 36 be
       0.020675331 0.06406081 0.013876337 -0.17782047
0001b0 45 80 a5 3b 68 93 19 be 2f 61 78 bb dc ad 83 bd
       0.0050506913 -0.14997637 -0.0037899723 -0.064296454
0001c0 6b d3 c5 3d 90 52 0f 3e 0c b8 e0 3c 51 46 cf bd
       0.096594654 0.13996339 0.02743151 -0.10120834
0001d0 ec 56 80 3c bf 46 9e 3d 25 c0 cf bc 9b 9e 74 bc
       0.015666448 0.077283375 -0.025360176 -0.014930393
0001e0 17 ae 50 be be 66 78 ba 3f 69 a1 3d 74 06 84 3c
       -0.2037891 -0.0009475759 0.07881402 0.016116358
0001f0 74 30 17 be ee 92 e3 3d d5 e0 05 be 1f 9b 4d be
       -0.14764577 0.11112009 -0.13074048 -0.20078705
000200 85 01 4f 3d e2 63 f5 3d 6f 3d 37 be 2b 83 0f 3e
       0.05053856 0.11981942 -0.17894529 0.1401488
000210 09 3d 99 3a 1e 40 2f 3e c4 af d1 3d d8 b7 eb bc
       0.0011691164 0.17114303 0.10238603 -0.028774187
000220 1f ac 0c 3e a5 68 02 3e 1f 8a 38 3e 7e 32 32 be
       0.13737534 0.12735231 0.18021439 -0.17402074
000230 9d e2 1e 3e fd af 40 be 9f e1 c1 3d b1 af f3 3d
       0.15516134 -0.18817134 0.09466862 0.11898745
000240 02 ff 85 bd d7 86 40 3a 29 b5 b1 bd 65 a8 96 3d
       -0.065427795 0.00073443115 -0.08677132 0.073563375
000250 a7 c3 0d be c1 58 d4 bc a2 b2 85 bd 5d 93 1f be
       -0.13844167 -0.025921227 -0.06528212 -0.15583558
000260 d1 8b 3a bd 4f d5 0e be 81 a1 db bd a5 4f 27 3e
       -0.045543496 -0.13948558 -0.10724164 0.16338976
000270 b4 e3 30 3d de f9 11 3c 0a 98 19 be 59 d6 0f be
       0.043185905 0.008909671 -0.14999405 -0.14046611
000280 7e 88 25 bd 7a fa c7 bd 20 ca 93 3d 99 aa 92 bd
       -0.040413372 -0.097645715 0.07216287 -0.07161445
000290 22 14 8d 3d 29 c6 e4 bd cd 08 90 3d b0 b6 c1 3d
       0.06888606 -0.111706086 0.070329286 0.09458673
0002a0 86 d1 b5 3d 1b 9d a8 3d 7d c6 02 be 36 56 ba bc
       0.08877854 0.082330905 -0.1277103 -0.022746187
0002b0 58 30 03 be b4 8f b3 3d 5a a3 fd bb 79 9f 8f bd
       -0.1281141 0.087676436 -0.0077404203 -0.07012839
0002c0 b5 85 43 3e 4d 3e b8 bd b0 9e 1d be ee b4 21 3d
       0.19093974 -0.08996258 -0.15392566 0.03947919
0002d0 19 70 ce bd ee 8a 2c 3e 96 58 9f bd 2d 34 34 3d
       -0.10079975 0.16849872 -0.07780568 0.04399507
0002e0 df 9b 88 3d 4a 72 83 3d 68 a8 04 be 6d ef 42 be
       0.06670355 0.06418283 -0.12954867 -0.19036646
0002f0 37 04 d0 bd e5 64 9f bd 10 3e a9 3c db 7a 2f 3e
       -0.10157054 -0.07782916 0.020659477 0.1713671
000300 40 47 d0 3c ff c2 a7 bd ff 42 87 bc b0 8e b7 3d
       0.0254246 -0.081914894 -0.016511438 0.08962762
000310 bf 45 33 3d 4d 5a 01 3e cd 01 27 3e f4 33 93 bd
       0.043767687 0.12632103 0.1630928 -0.07187644
000320 67 70 b9 3d 39 97 3d be 5f 8d 4f 3b 45 3f b7 bd
       0.09054642 -0.18514718 0.0031669957 -0.089476146
000330 9d fe ee 3d 6c 81 15 3e f0 23 07 3e c2 a0 33 be
       0.116696574 0.14600152 0.13197303 -0.17541793
000340 7c ed 46 bd 05 dc df 3c 0b 68 43 bc c4 c0 f1 3d
       -0.048566326 0.027326593 -0.011926661 0.11804345
000350 61 dd 10 3d 2a 96 d6 bc 5a b0 3e 3e 70 bd 95 bb
       0.035367373 -0.02619465 0.1862196 -0.004569702
000360 a8 07 3b 3d f1 47 41 be 35 30 0a bd 7f da 25 be
       0.0456616 -0.188751 -0.03373738 -0.16196631
000370 25 22 d5 3d fa 90 aa bd 57 02 03 be e1 99 8a 3d
       0.10406903 -0.08328433 -0.12793861 0.06767631
000380 c0 d8 0b be b5 89 f7 bd 03 62 69 3d 4c 73 a5 bc
       -0.13656902 -0.120868124 0.056978237 -0.02019658
000390 1c 2e 2f 3d 13 8e d3 bd 09 a9 00 3e 58 10 28 3e
       0.042768583 -0.10329833 0.12564482 0.16412485
0003a0 9d f7 c4 bd fc a4 5f 3d d7 44 51 3e b1 eb 0e bd
       -0.09617541 0.0546007 0.20436417 -0.03489274
0003b0 3f b5 c6 bc 93 33 d3 3d 81 af 3f 3d 58 34 73 bd
       -0.024256347 0.103125714 0.046798233 -0.05937609
0003c0 94 6d 97 bd 1f 83 84 3d 13 45 0f bc 3e 02 53 be
       -0.07393947 0.06470322 -0.008744496 -0.20606324
0003d0 c4 aa 1e be f1 aa 03 3e f1 79 13 3e ce 26 64 3d
       -0.1549483 0.12858178 0.14401986 0.05570107
0003e0 87 a4 9d bd 16 0e 8e bd ff 4a 3b be 24 a2 21 3e
       -0.07697397 -0.069362804 -0.18290327 0.15784508
0003f0 54 ef fb 3d 8d d4 48 bd ef 3d 21 3e e7 42 ae 3d
       0.123015076 -0.04903083 0.15746282 0.08508854

conv1r.lin_l.weight f4 [32, 64]
000000 af 1c 1f 3e 6b 80 7d bd bf ae 43 bd 79 15 e3 3d
       0.15538286 -0.061890047 -0.047774073 0.1108808
000010 1d 61 86 bd 6e 2e 3b 3d 18 eb 4f 3d 82 69 47 3c
       -0.06561492 0.045698576 0.050761312 0.012171151
000020 fb 5b d7 3b 8e 98 b8 bd ee 9c 71 3d 02 e2 5d bd
       0.006572244 -0.090134725 0.05898755 -0.054170616
000030 ce 71 b9 bd 22 0b 2b be 8e 37 80 bd e0 cf df bd
       -0.0905491 -0.16703466 -0.06260596 -0.10928321
000040 67 c6 2d 3e 8a b3 3f 3d 7a e3 2b 3d fc e2 fb bd
       0.16970216 0.04680208 0.041964985 -0.12299153
000050 71 53 f8 3c 7e 99 df 3c 58 04 48 3d 93 f4 00 be
       0.030313225 0.02729487 0.048832268 -0.12593298
000060 ac ae ca bd 74 71 17 3e 90 00 fd bc cc c2 13 be
       -0.09896597 0.14789373 -0.030884057 -0.14429778
000070 25 13 95 bd 66 0d 37 bc 01 db 39 bc 85 a5 0a be
       -0.07279042 -0.011172628 -0.0113437185 -0.13539703
000080 3b ec f6 3d 9d 99 90 bd b1 7d a1 bd 64 90 1a be
       0.12056776 -0.070605494 -0.07885302 -0.15094143
000090 68 65 af 3d f3 67 9d 3d 47 a2 31 3e d2 00 95 3d
       0.085642636 0.07685842 0.1734706 0.07275547
0000a0 e7 d2 d0 bb 71 e1 b8 3d bd 70 98 bd 29 78 94 3c
       -0.006372798 0.090273745 -0.07443378 0.018123703
0000b0 c6 3b ba 3c 5b 90 4a 3c 9b 2b 01 be 8b 60 19 3e
       0.02273358 0.012363519 -0.1261429 0.14978234
0000c0 29 bb 31 be 4e 14 38 3d 3a a4 2c 3e 89 8b 91 3d
       -0.17356552 0.04494124 0.16859522 0.07106692
0000d0 05 13 16 be 5d e1 32 bd 7b 9c 0b be 92 06 f7 3d
       -0.14655693 -0.043671954 -0.13633911 0.120618
0000e0 b6 ce 08 bd 52 c2 00 bd 1e ad 41 3a 17 b3 6e 3d
       -0.03340026 -0.03143532 0.0007388162 0.058276262
0000f0 68 b0 49 3d e1 e2 f0 bb bb aa 44 3a 5e e4 ac 3d
       0.0492405 -0.007351265 0.00075022475 0.08441995
000100 15 56 d7 bc 4f d1 f5 bd a2 a6 9b bd 1b 46 5c 3d
       -0.026286164 -0.12002813 -0.07600142 0.053777795
000110 6b b6 fb 3d 73 c7 99 bd cf 9d 39 bd 3d 68 dd 3d
       0.12290653 -0.07508745 -0.045316514 0.108108975
000120 b6 94 85 3d 15 07 04 3e b0 04 1c 3c 14 ba 1e 3e
       0.06522505 0.12893327 0.009522602 0.1550067
000130 d9 2f d5 bd 0e f7 a3 bc 54 b4 d0 bc 34 b0 57 ba
       -0.10409517 -0.020015266 -0.025476612 -0.00082278554
000140 ea 2e 2d 3e 0f e1 ac 3b 8d 0f bc 3d b9 43 cf bc
       0.16912428 0.0052758525 0.091826536 -0.025300847
000150 a5 d3 b0 3d 69 9b 57 bc 7e ea 4b 3d 95 73 9e bd
       0.08634118 -0.013159611 0.049784176 -0.07736889
000160 4f 18 cc bd d0 eb a5 3d ba fa ed 3c ba 77 58 bd
       -0.09965574 0.08101618 0.02905022 -0.052848555
000170 b2 0d bf 3c 3f ac 64 bd ee 17 0c bb 35 29 df bd
       0.02332196 -0.05582833 -0.0021376568 -0.108965315
000180 5b 7e bf 3c 3b 8e 1f 3d ce c6 9b bc a0 24 98 bc
       0.02337568 0.038954 -0.019015696 -0.018572152
000190 47 56 80 3d 4f 50 ef 3b 7c 3a 01 3e 83 f3 cb 3d
       0.06266456 0.0073032747 0.12619966 0.099585555
0001a0 19 7f 7a bc 58 4a fa bd 07 23 00 3e b7 5d 01 be
       -0.0152890915 -0.12221211 0.12513362 -0.12633406
0001b0 ac 00 f3 bd 7b d4 0c 3d 29 01 0b be 81 d3 52 ba
       -0.118653625 0.034382325 -0.13574661 -0.0008042381
0001c0 65 fc a4 bc 6b 86 98 3c df 70 dd bc d9 fb 1a 3d
       -0.020139882 0.018618783 -0.02703136 0.037837837
0001d0 2b b8 30 be 77 10 94 3d 0c 08 29 bd e4 10 8b 3d
       -0.17257755 0.07229703 -0.04126744 0.06790331
0001e0 a8 2e 54 3d 8f 70 46 bd f2 22 15 bb 3c 96 fc 3d
       0.051802307 -0.048447188 -0.0022756425 0.123333424
0001f0 e4 58 de 3c 5d ef e8 3d c3 34 f6 3d 29 ba c6 3c
       0.027141996 0.1137378 0.12021782 0.02425869
000200 3e e1 dd bd b7 13 08 3e 9e 7e 14 3d c7 29 09 be
       -0.10833977 0.1328877 0.036253564 -0.13394843
000210 0a ff 41 bd 09 4e f6 3d df c6 70 3d f8 ce a0 3d
       -0.047362365 0.12026603 0.05878341 0.07851976
000220 f8 cc 21 3d 02 6e 1f bd 53 77 05 3e 79 cb 02 be
       0.039502114 -0.03892327 0.130338 -0.12772931
000230 9e fd 1c 3b ec a7 d9 3b 73 c6 d3 bc 5a 44 c8 3d
       0.0023954879 0.0066423323 -0.025851464 0.09778662
000240 a1 99 a6 bd c0 7b c1 bd a1 ea 74 3d bc 8d 7b 3d
       -0.08134771 -0.094474316 0.059794072 0.061414465
000250 95 14 5b 3c 3b ea d2 3d 66 96 93 3b 7e ee 49 bb
       0.013371606 0.10298582 0.004504013 -0.0030812318
000260 19 5a 1f 3e fc 2d 65 bd 02 88 fc bd f0 72 1e 3e
       0.15561713 -0.055952057 -0.12330629 0.15473533
000270 89 11 9d 3d ce 29 16 be 58 ae 28 bd f1 43 df 3c
       0.0766936 -0.14664385 -0.041181892 0.027254077
000280 7f 9a 14 be 26 ac 84 3d d7 60 e6 3b 21 a8 2a 3d
       -0.1451206 0.06478147 0.007030587 0.041664246
000290 39 f0 b6 3d 10 f8 17 bd d6 3f 28 3d 10 76 1a be
       0.089325376 -0.037101805 0.041076504 -0.150841
0002a0 ac f4 e7 ba 6e 2c e2 3d 4b 55 f2 bd 29 a4 bf bd
       -0.0017696819 0.110436305 -0.118326746 -0.09357483
0002b0 85 64 b9 3d cb c0 aa 3b 01 a5 42 3d d3 c0 25 be
       0.09052376 0.005210971 0.04752064 -0.16186838
0002c0 62 b8 24 3e c2 44 15 3e 5f bf 2c be 49 6a b6 3c
       0.16085961 0.1457701 -0.16869877 0.022267478
0002d0 18 e9 93 3d 64 fa 81 3d 0a b5 e7 bc db bf 8d 3d
       0.072221935 0.06346586 -0.028284568 0.06921359
0002e0 7c 76 8a 3d 1d 63 0b 3e c5 8a 10 3d 6d 99 14 be
       0.0676088 0.13612027 0.03528859 -0.14511652
0002f0 e0 eb 11 3e 81 64 8d bd 41 3f 33 be 98 82 1e be
       0.14250135 -0.06903935 -0.17504598 -0.15479505
000300 77 a9 a4 3d e0 9c 0c 3e 4f fa b8 3c 49 4b 9a 3c
       0.08040135 0.13731718 0.022580294 0.018834727
000310 c4 d8 36 3d 7e 35 1d 3e 50 23 0b 3e 15 f7 ec bd
       0.044640318 0.15352437 0.1358769 -0.11570565
000320 a5 79 97 3d 78 9a e4 bd 97 a2 58 bd 43 bd 72 bc
       0.07396249 -0.11162275 -0.052889433 -0.014815631
000330 72 67 5d bd 5d ae fe 3c a1 36 7b bd 35 dd f2 3d
       -0.05405373 0.031089002 -0.061331395 0.11858598
000340 c2 7b af bd 88 6d b0 bd f5 f6 a7 3d 22 bf 29 3e
       -0.08568527 -0.086146414 0.082014 0.16576818
000350 c2 dc 93 3c 3e 4f 1d 3e f5 4c 0c bd b4 92 57 bd
       0.018049601 0.1536226 -0.03425308 -0.05263014
000360 b6 4d 80 3d d8 ea c9 bd 59 1e 47 3d ae 81 d3 3b
       0.06264822 -0.09859246 0.048612926 0.006454668
000370 d4 9f ad 3c 7c 83 81 bd 0a 73 62 3d ce 54 82 bc
       0.021194376 -0.06323907 0.05528549 -0.015909579
000380 b7 44 99 bb ce ff a4 3d bd 2b 33 3e c5 2b 2f bc
       -0.004677381 0.08056603 0.17497154 -0.010691588
000390 e4 04 af 3d c4 ad ed bc c7 d3 2d be 9b 99 d6 bd
       0.08545855 -0.029013522 -0.16975318 -0.10478517
0003a0 7d 2b c3 bd cf f3 ca bc cc c4 ad 3c bc 92 d5 3d
       -0.09529779 -0.02477446 0.021212004 0.10428378
0003b0 b2 1d 63 bd 81 05 52 3d 85 1d 2a 3e 0f 33 91 bd
       -0.05544824 0.05127478 0.16612823 -0.07089817
0003c0 19 93 90 bd 8a fc 1a 3e 02 28 60 3d 31 b4 08 3e
       -0.07059307 0.15135399 0.054725654 0.13349988
0003d0 a1 c7 03 3e dd cd f0 bd ee da 59 bd 9b d6 52 bd
       0.12869121 -0.11758015 -0.053187303 -0.051474195
0003e0 52 42 4a 3d 37 ae 86 3d 8c 41 1a be 31 f2 fb ba
       0.049379654 0.065761976 -0.15064067 -0.0019221959
0003f0 6c b6 a9 bd 62 a4 18 be d3 53 6d bd e3 e9 2a be
       -0.08286747 -0.14906457 -0.05794127 -0.16690783

conv1r.lin_l.bias f4 [32]
000000 88 88 e2 bd 7d 1d d6 bd b3 30 8a 3c a7 ad 8c bd
       -0.110611975 -0.10454843 0.016868925 -0.06869059
000010 19 82 fb bd 1d f0 b9 3d 5d df 19 3d 1c 73 8b bc
       -0.122806735 0.09079001 0.03756653 -0.017022662
000020 b0 33 30 bd 3e 0f 32 bd df 91 00 bd 8a 02 b1 bc
       -0.043018043 -0.043471567 -0.031389114 -0.021607656
000030 a2 3a ab 3d a0 53 d7 3d f9 08 62 3d 78 c1 d1 bd
       0.08360793 0.10513997 0.05518434 -0.10241979
000040 bd ba bd bc 0e 6f e1 bd bf 46 38 bd 87 65 c6 bd
       -0.023160333 -0.1100751 -0.044989344 -0.096873336
000050 1e 8c 7c bd 2c 7a cf 3d 67 1b 26 bd cc 91 bc 3d
       -0.061657064 0.10130724 -0.040553477 0.09207496
000060 4d 7c 22 bd 47 80 d5 3d 26 01 a9 3d 69 28 0f bd
       -0.039669324 0.104248576 0.08252172 -0.034950648
000070 42 f2 a8 3d f1 aa c5 3d 4e 2b 41 3d fb 25 bc bd
       0.08249332 0.09651745 0.04716044 -0.09186932
