code_agglom_MG/mesh/agglomerate/model_res.pt (torch, 55124 bytes, 27 tensors)

conv1.lin_l.weight f4 [8, 3]
0	0x3e39968a	0.18123832
1	0xbe77c6ec	-0.24196976
2	0xbceeb4ad	-0.029138887
3	0x3f21235b	0.62944573
4	0xbdf44456	-0.119270965
5	0xbe3328c4	-0.1749602
6	0x3daf12c9	0.08548505
7	0x3c9d1e52	0.019179497
8	0xbe8defc3	-0.27721986
9	0xbeaf8530	-0.34281301
10	0xbd07c0a9	-0.03314272
11	0xbdd9acbd	-0.1062865
12	0xbdadd63b	-0.08488127
13	0xbd1bbcb6	-0.038021766
14	0xbe51df2c	-0.2049529
15	0x3ea0426b	0.31300673
16	0xbe957e1b	-0.29197773
17	0x3e86885b	0.26275906
18	0x3e27bc1f	0.16380356
19	0xbce65f22	-0.028121535
20	0xbee3d392	-0.44497353
21	0x3dd83bf5	0.10558311
22	0x3da43914	0.08018699
23	0x3e7760ee	0.2415807

conv1.lin_l.bias f4 [8]
0	0x3e2ece2f	0.1707084
1	0x3c4183f8	0.011811249
2	0x3e9cd79a	0.3063324
3	0xbea17be2	-0.31539828
4	0x3e98111a	0.29700547
5	0x3e3e1740	0.18563557
6	0xbea5ceb4	-0.32384264
7	0x3dde255c	0.108469695

conv1.lin_r.weight f4 [8, 3]
0	0x3e9c867c	0.30571353
1	0x3e3e8cd8	0.18608415
2	0x39de641c	0.00042417727
3	0x3f09b073	0.53784865
4	0x3e2c1fae	0.1680896
5	0x3e981582	0.2970391
6	0x3dec235d	0.115301825
7	0xba685c20	-0.00088638254
8	0x3cb871f9	0.022515284
9	0xbecd46c5	-0.40093055
10	0xbdc1ac7e	-0.094567284
11	0x3e7c8f23	0.24663977
12	0xbe843ea9	-0.25829056
13	0xbd7bb19b	-0.061448675
14	0x3e10093a	0.1406602
15	0x3e7b9627	0.24568997
16	0x3d6a6296	0.057222925
17	0x3d6f353b	0.058400374
18	0x3ec1eb50	0.37874842
19	0x3e8e9c74	0.2785374
20	0x3d5e3da7	0.054258015
21	0x3cc9a5d7	0.024615211
22	0x3ddc9f1c	0.10772535
23	0x3cf8b757	0.03036086

conv2.lin_l.weight f4 [16, 8]
0	0xbd9513c0	-0.07279158
1	0x3d8d7be7	0.06908398
2	0x3dd069cc	0.10176429
3	0x3cfd7881	0.03094125
4	0xbdb36656	-0.087597534
5	0x3e6923d3	0.22767572
6	0x3d40c4b1	0.04706258
7	0x3dc02db4	0.09383717
8	0xbe4caa89	-0.19986929
9	0xbe18eac9	-0.14933313
10	0x3e089eae	0.13341781
11	0x3e093f35	0.13403018
12	0x3e09b7c6	0.1344901
13	0xbe0a7ba4	-0.13523728
14	0x3e45878d	0.1928999
15	0x3d73e53b	0.059544783
16	0xbe3a46d6	-0.18191084
17	0xbeaeb8cb	-0.3412536
18	0x3d89b403	0.06723788
19	0x3e61224c	0.2198574
20	0x3e699989	0.22812475
21	0xbd3969cf	-0.045266923
22	0xbe49f733	-0.19723205
23	0xbe154b5a	-0.14579526
24	0xbc8ae144	-0.016953118
25	0xbd3f01e0	-0.046632648
26	0xbb8dc40a	-0.004326348
27	0x3cb728ba	0.022358287
28	0x3cdcac45	0.026937613
29	0xbab4d471	-0.0013796223
30	0xbd9bae47	-0.076016
31	0x3c13b8ef	0.00901626
32	0xbd98407b	-0.07434174
33	0xbd96be3e	-0.073605046
34	0x3d55ff3d	0.052245367
35	0x3d8bed22	0.06832339
36	0x3dc9426c	0.09827122
37	0xbdfc4079	-0.12316985
38	0x3d36bdf9	0.044614766
39	0xbd9d4d76	-0.0768079
40	0xbcaa2bca	-0.020772833
41	0x3d67b1df	0.056566115
42	0x3d0fdbd5	0.035121758
43	0x3cd6291b	0.026142647
44	0xbd926123	-0.071474336
45	0x3ccb00ef	0.024780719
46	0x3dd279b4	0.10277119
47	0x3c344ef4	0.011005152
48	0x3df16cb6	0.11788313
49	0x3e214756	0.15749869
50	0xbc8b3729	-0.016994076
51	0xbe00e164	-0.1258598
52	0xbdda5019	-0.10659809
53	0x3c5ee295	0.013603826
54	0x3d900e51	0.07033981
55	0xbdaa840f	-0.083259694
56	0x3dd9ff47	0.106443934
57	0x3ceda417	0.029008908
58	0x3da202b0	0.07910669
59	0xbd76454e	-0.060124688
60	0x3c6b40b9	0.014358693
61	0x3e3c5ff6	0.18395981
62	0x3e2d4547	0.16920958
63	0xbe146f7d	-0.14495654
64	0xbe2ddf29	-0.1697966
65	0xbea476a0	-0.32121754
66	0xbda12f22	-0.07870318
67	0x3c832403	0.016008383
68	0xbc9978eb	-0.018734416
69	0xbdfd06db	-0.12354823
70	0xbd74f4c0	-0.059803724
71	0x3e61bdd4	0.2204507
72	0x3ccde409	0.02513315
73	0x3d8b4edf	0.06802153
74	0x3c1ce6d5	0.009576519
75	0xbd81b94b	-0.0633417
76	0xbdd61075	-0.10452358
77	0x3e01706a	0.12640539
78	0x3e3ad702	0.18246081
79	0x3dc699ff	0.09697341
80	0x3d34ee77	0.04417273
81	0x3ddc6846	0.10762076
82	0x3da50b0a	0.08058746
83	0xbdf19233	-0.117954634
84	0x3ccf2f5c	0.025291137
85	0xbda19652	-0.078899994
86	0x3d5a38c4	0.053276792
87	0xbdea89ab	-0.11452039
88	0x3c656aa2	0.014002474
89	0x3c741939	0.014898592
90	0xbe53b15f	-0.2067313
91	0x3e88bc03	0.26705942
92	0xbe45e2a8	-0.19324744
93	0x3d944433	0.072395705
94	0xbe930be7	-0.28720018
95	0xbbead8e9	-0.007166971
96	0xbd1d33e0	-0.03837955
97	0xbd1d6d7e	-0.038434498
98	0xbd24b60c	-0.040212676
99	0xbb71ca3b	-0.003689422
100	0x3d042584	0.03226234
101	0xbd1b9b40	-0.037989855
102	0x3dffc884	0.12489417
103	0x3d6cdbb2	0.057826705
104	0x3d208efe	0.039198868
105	0x3d8549c5	0.06508211
106	0x3a3a9d7f	0.00071188057
107	0xbd2dc0e9	-0.0424203
108	0x3d55585a	0.05208621
109	0x3cc99aaf	0.024609892
110	0x3c12dbab	0.008963506
111	0x3c9235c7	0.017847909
112	0xbe28632c	-0.16444081
113	0xbe9a1a3d	-0.30098143
114	0xbcb9b14e	-0.022667553
115	0x3e2a027e	0.16602513
116	0xbdf86198	-0.121279895
117	0xbe82b0b0	-0.25525427
118	0x3c4eabcd	0.012614203
119	0xbdbfa4f8	-0.09357637
120	0xbaf3a85f	-0.0018589607
121	0x3e12f398	0.14350736
122	0x3db13228	0.08652145
123	0x3c6b3c44	0.01435763
124	0xbe171658	-0.14754617
125	0x3e167b89	0.14695562
126	0xbd1d4bf3	-0.03840251
127	0xbaea7089	-0.0017886321

conv2.lin_l.bias f4 [16]
0	0xbe1097ab	-0.14120357
1	0xbc6e73d1	-0.01455398
2	0x3e5be29a	0.2147316
3	0xbd0a65f0	-0.03378862
4	0xbdcaa635	-0.09894983
5	0xbd9898f9	-0.07451052
6	0xbcb0007f	-0.021484612
7	0x3d914c68	0.070946515
8	0x3d7eec66	0.062237166
9	0xbc810d3f	-0.015753387
10	0x3e467cb5	0.1938351
11	0x3e827d02	0.25485998
12	0x3d7f1660	0.062277198
13	0xbdf51653	-0.11967149
14	0x3df758a6	0.12077455
15	0x3e6dee5c	0.23235458

conv2.lin_r.weight f4 [16, 8]
0	0xbcb7eb58	-0.022451088
1	0x3e08eaf8	0.13370883
2	0x3e256ae0	0.16154051
3	0xbaeb7f1a	-0.0017966956
4	0xbded1387	-0.1157599
5	0x3ced56d9	0.028972076
6	0x3c54275e	0.012948839
7	0x3dc66e71	0.09689034
8	0x3da02b97	0.07820814
9	0xbe42a873	-0.19009571
10	0xbddf675e	-0.109083876
11	0x3dc4c67d	0.09608171
12	0xbdaff6cc	-0.08591995
13	0x3e19de5a	0.15026227
14	0xbe2685cf	-0.16261981
15	0x3d95e676	0.073193476
16	0x3d80c34d	0.06287251
17	0xbe0ee6ac	-0.13955182
18	0xbda110f8	-0.07864565
19	0x3e6120ce	0.2198517
20	0x3df57437	0.11985057
21	0xbdadaaf2	-0.08479871
22	0xbe56893d	-0.2095079
23	0xbe73f0e7	-0.23822366
24	0xbb1a5abe	-0.0023552622
25	0xbd2fda14	-0.042932585
26	0xbc1d1bdf	-0.0095891645
27	0x3cbad65a	0.022807289
28	0x3cb3a6db	0.021930149
29	0xbd8b8a90	-0.06813538
30	0x3d1d8ba4	0.03846325
31	0xbb52c57b	-0.0032161165
32	0xbd8db270	-0.069188
33	0xbd99332c	-0.074804634
34	0xbcf3ba27	-0.02975185
35	0x3dae0680	0.084973335
36	0xbd811a5d	-0.063038565
37	0xbda30fa3	-0.07961967
38	0x3d85ebf8	0.06539148
39	0x3bc02d9a	0.005864811
40	0x3d5c691c	0.053811178
41	0x3d4a1ea6	0.049345635
42	0xbc964ac2	-0.018346194
43	0xbd2291ed	-0.039689947
44	0xbda78124	-0.081789285
45	0x3d804bd9	0.06264467
46	0xbd25e653	-0.040502857
47	0xbb871cd2	-0.0041233087
48	0x3e17a957	0.14810692
49	0x3e1c3514	0.15254623
50	0xbdf38593	-0.11890712
51	0xbe0d05bf	-0.13771723
52	0x3e282372	0.16419771
53	0x3de87c43	0.11351826
54	0x3d19886a	0.03748361
55	0x3e1d75b0	0.15376925
56	0x3d2f3e46	0.042783998
57	0x3d67d762	0.05660189
58	0xba926e46	-0.001117178
59	0x3d9417c4	0.072310954
60	0xbd91af59	-0.07113523
61	0x3d8ab9e3	0.06773736
62	0x3dbcac33	0.09212532
63	0x3dc7e280	0.09759998
64	0xbdf85ead	-0.12127433
65	0xbde6df3d	-0.11273048
66	0x3daf2929	0.085527726
67	0x3e85bd79	0.2612112
68	0x3e80bae5	0.2514259
69	0xbd5c0a0c	-0.05372052
70	0x3d1a0cdd	0.037609924
71	0xbd1bc0b0	-0.038025558
72	0x3cdfe830	0.027332395
73	0x3d4efff1	0.050537053
74	0x3d8ac8c9	0.06776578
75	0xbd5bb45b	-0.053638797
76	0x3d1b6c5c	0.037945136
77	0xbba85f58	-0.005138319
78	0xbd69d9b0	-0.05709237
79	0xbde97531	-0.113993056
80	0x3d55a050	0.05215484
81	0x3e2ab10b	0.16669099
82	0xbce2cc71	-0.027685376
83	0xbd8e3ba5	-0.0694497
84	0xbd636cd1	-0.055523697
85	0xbcbc028b	-0.022950431
86	0xbe1ead80	-0.15495872
87	0xbe2d7bde	-0.16941783
88	0xbe61c720	-0.22048616
89	0xbe999170	-0.29993773
90	0xbd449685	-0.04799511
91	0x3d9cb25c	0.07651207
92	0x3dc6c096	0.097047016
93	0xbe04c346	-0.12965116
94	0x3e3ab5ad	0.18233366
95	0xbd0c10a3	-0.034195554
96	0x3aec53b2	0.0018030314
97	0xbd31b4dc	-0.04338537
98	0xbc7f0364	-0.015564773
99	0x3d6fab44	0.05851294
100	0xbd398322	-0.045291074
101	0x3db1f80e	0.08689891
102	0xbdb6db9e	-0.089286074
103	0x3c1559fc	0.009115692
104	0x3b5f5e8e	0.0034083459
105	0x3d40843f	0.04700112
106	0xb9b394f6	-0.00034252525
107	0xbd449660	-0.04799497
108	0xbdc1ef34	-0.094694525
109	0x3c75b4a6	0.014996683
110	0x3d8cc1c1	0.06872893
111	0x3d528b55	0.05140241
112	0x3d40eb6f	0.047099527
113	0xbdbb55d1	-0.091472276
114	0xbdf51805	-0.11967472
115	0x3e24f783	0.16110043
116	0xbd164a9a	-0.03669224
117	0x3e31dbb0	0.1736896
118	0xbe2691ee	-0.16266605
119	0x3e477ce7	0.1948124
120	0xbd97ecef	-0.07418238
121	0x3e7b6c74	0.2455309
122	0xbe11bdf0	-0.14232612
123	0xbe4083f2	-0.18800333
124	0x3dde4d20	0.10854554
125	0x3e7a8f65	0.24468763
126	0x3e9cb823	0.30609235
127	0x3d9a4641	0.07532931

conv3.lin_l.weight f4 [32, 16]
0	0xbc800c62	-0.015630905
1	0x3cab4c23	0.020910328
2	0x3c345737	0.011007122
3	0x3bdd100c	0.0067462977
4	0x3cc6d7b1	0.024272772
5	0xbc3476ec	-0.011014681
6	0xbd18238c	-0.037143275
7	0xbc5ffc8f	-0.0136710545
8	0x3d0ce246	0.03439548
9	0xbc5bbdea	-0.013411978
10	0xbd09ec7f	-0.033672806
11	0x3cdf5c39	0.027265655
12	0x3b9be8ca	0.004757975
13	0xbc0cbf3d	-0.008590517
14	0x3ce9d3cf	0.028543381
15	0xbd876856	-0.066116974
16	0x3d143e0a	0.036191978
17	0xbd3edaba	-0.046595313
18	0xbdcbd8a3	-0.099534295
19	0xbcb0e1e7	-0.021592094
20	0x3a0ebc4d	0.0005444929
21	0x3d7027de	0.05863177
22	0xbb6473c5	-0.0034859043
23	0x3cffebcb	0.031240365
24	0xbda42043	-0.08013966
25	0x3cf9f306	0.03051139
26	0x3dc91ce1	0.09819961
27	0xbda71e39	-0.081600614
28	0xbca099ab	-0.019604525
29	0x3d0df604	0.034658447
30	0xbd944084	-0.07238868
31	0x3d589897	0.052879896
32	0x3c979db0	0.018507808
33	0xbccb8793	-0.02484492
34	0xbd6c8a07	-0.05774882
35	0xbc0cfb06	-0.0086047705
36	0xbc95630e	-0.01823571
37	0x3c787a7b	0.01516592
38	0x3d06e841	0.03293634
39	0x3c83486b	0.016025743
40	0xbd273ca4	-0.040829316
41	0x3c81386b	0.015773972
42	0x3c8f7497	0.017511649
43	0xbd136864	-0.035988227
44	0xbb901af6	-0.0043977452
45	0x3bf70062	0.0075378874
46	0xbd0af6c4	-0.03392674
47	0xbc7b8cf8	-0.015353434
48	0x3b17a0db	0.0023136649
49	0xbb4664f8	-0.0030272584
50	0xbbd4e017	-0.00649644
51	0xba8912d5	-0.0010457883
52	0xbb07b09e	-0.0020704637
53	0x3ab0c632	0.0013486801
54	0x3b749e2d	0.0037325725
55	0x3b06ccdc	0.0020568883
56	0xbba362d2	-0.0049861455
57	0x3b01783a	0.0019755499
58	0x3b04ce55	0.0020264585
59	0xbb8279f0	-0.0039818212
60	0xba260dae	-0.0006334436
61	0x3ac09353	0.0014692344
62	0xbb881f02	-0.004154087
63	0x3b82ea4a	0.0039952146
64	0xbc83457c	-0.016024344
65	0x3cada0ad	0.02119478
66	0x3d46e6b6	0.048559867
67	0x3be4f750	0.0069874898
68	0xbcd67fc2	-0.026183967
69	0xbc830eb0	-0.015998214
70	0xbcdb779f	-0.026790438
71	0xbc655681	-0.013997675
72	0x3d10991d	0.03530227
73	0xbc63c3d3	-0.013901669
74	0xbc6ba269	-0.014381983
75	0x3cebebed	0.028799022
76	0x3ba9de2c	0.0051839557
77	0xbc40a242	-0.011757435
78	0x3cf0d70f	0.029399423
79	0xbd1e758e	-0.038686328
80	0x3c127cf5	0.008940925
81	0xbc400c63	-0.011721703
82	0xbcfc4939	-0.030796634
83	0xbb813d19	-0.003944051
84	0x3c5fb09d	0.013652948
85	0x3ba2cd36	0.0049683107
86	0x3c66f3c4	0.014096204
87	0x3c00fa7e	0.007872222
88	0xbc9f3ad2	-0.019437227
89	0x3bfb7dbd	0.0076749013
90	0x3bc87ef1	0.006118648
91	0xbc7f0fb7	-0.015567712
92	0xbb262839	-0.0025353564
93	0x3bc106de	0.005890711
94	0xbc84826e	-0.016175475
95	0x3cc2146b	0.023691377
96	0x3b2ea25f	0.0026647074
97	0xbb63e58d	-0.0034774274
98	0xbbf11c30	-0.0073580965
99	0xba9d6365	-0.0012007771
100	0xbb027c29	-0.001991043
101	0x3acb7671	0.0015522969
102	0x3b8bfa46	0.0042717783
103	0x3b1afd92	0.0023649675
104	0xbbbc3a86	-0.005744281
105	0x3b1531d8	0.0022765305
106	0x3b14593a	0.002263619
107	0xbb95eec8	-0.004575584
108	0xba3fcdd2	-0.00073167414
109	0x3add6444	0.0016890843
110	0xbb9cc7cc	-0.00478456
111	0x3b8677a4	0.0041036177
112	0xbcaddebe	-0.021224376
113	0x3ce5c1b1	0.02804646
114	0x3d008d09	0.0313845
115	0x3c140edd	0.009036747
116	0x3bcdc64c	0.0062797423
117	0xbc6f372a	-0.0146005545
118	0xbc7f1da7	-0.0155710345
119	0xbc98aa76	-0.01863597
120	0x3d433363	0.047656428
121	0xbc98e152	-0.018662129
122	0xbd62e51b	-0.055394273
123	0x3d2b7a15	0.041864473
124	0x3bd9b2be	0.006643622
125	0xbb2e9906	-0.0026641502
126	0x3d22cc51	0.039745633
127	0xbdb7a5f6	-0.089672014
128	0x3b31b646	0.00271167
129	0xbb688253	-0.003547807
130	0xbbf99c10	-0.007617481
131	0xbaa05f9d	-0.0012235526
132	0xbb29bd47	-0.0025900172
133	0x3acf58a7	0.0015819267
134	0x3b8f55fe	0.0043742647
135	0x3b1ddb8b	0.0024087157
136	0xbbbf8f60	-0.005845949
137	0x3b17bf25	0.0023154703
138	0x3b1ac65d	0.002361677
139	0xbb990ab9	-0.0046704677
140	0xba430ccf	-0.00074405683
141	0x3ae1e0b5	0.0017233106
142	0xbb9f95bd	-0.004870145
143	0x3b9714a7	0.0046106162
144	0x3baa4805	0.0051965737
145	0xbbdfe7e5	-0.006833064
146	0xbc5f5e6a	-0.01363335
147	0xbb1905d4	-0.002334942
148	0xbbbabf82	-0.005699099
149	0x3b480cb7	0.0030525157
150	0x3c0a737a	0.008450383
151	0x3b96fe11	0.004607924
152	0xbc387361	-0.011257977
153	0x3b91a1b4	0.0044443253
154	0x3b9fd27b	0.004877386
155	0xbc135832	-0.008993195
156	0xbabc4fa5	-0.0014366998
157	0x3b58665e	0.003302
158	0xbc1963d2	-0.009362178
159	0x3c2b06b1	0.010438607
160	0x3c60c930	0.013719842
161	0xbc947b0a	-0.018125076
162	0xbd2888d6	-0.041146122
163	0xbbc7fab8	-0.006102886
164	0xbc4011aa	-0.011722961
165	0x3bfd9d38	0.007739689
166	0x3cc43f3e	0.023955937
167	0x3c47233a	0.012154395
168	0xbcf8f1b8	-0.030388698
169	0x3c43bb46	0.011946505
170	0x3a411b84	0.0007366466
171	0xbcc1e8c1	-0.023670556
172	0xbb7bcd91	-0.0038422088
173	0x3c204c21	0.009783776
174	0xbccdf4db	-0.02514117
175	0x3cedcd82	0.029028658
176	0xbcc4d9b1	-0.024029585
177	0x3d081153	0.033219647
178	0x3d998d62	0.0749767
179	0x3c28bddf	0.010299175
180	0xbcdf1c17	-0.027235074
181	0xbc8e646b	-0.017381867
182	0xbcbf6fc1	-0.023368718
183	0xbca39418	-0.019968078
184	0x3d55c084	0.05218555
185	0xbca569e3	-0.020192092
186	0xbcb49c99	-0.022047328
187	0x3d3a1dfd	0.045438755
188	0x3c05a40d	0.008156789
189	0xbb4a0f8e	-0.0030832025
190	0x3d342e1a	0.04398928
191	0xbd64c29d	-0.05584966
192	0xbd1aec8d	-0.03782325
193	0x3d91093f	0.07081842
194	0x3e3f3f1b	0.18676417
195	0x3c79d9d5	0.015249689
196	0x3d7ee7f6	0.062232934
197	0x3c3559fa	0.011068815
198	0xbdd5bc2f	-0.10436284
199	0xbd0fb698	-0.035086244
200	0x3dcb80db	0.099366866
201	0xbd13bc75	-0.0360684
202	0xbd0141ec	-0.03155701
203	0x3d9910f4	0.07473937
204	0x396138f2	0.00021478886
205	0xbd826dd4	-0.06368604
206	0x3da41f40	0.08013773
207	0xbde343e9	-0.11096937
208	0x3d100fde	0.035171382
209	0xbd5945e7	-0.05304518
210	0xbe1cfcaf	-0.15330766
211	0xbc867bfe	-0.016416546
212	0x3d7b0007	0.061279323
213	0xbc828e77	-0.015937073
214	0x3ded09e1	0.1157415
215	0x3d09f4cb	0.03368072
216	0xbdb4b1df	-0.08822989
217	0x3d035d7d	0.03207158
218	0x3de4de97	0.11175268
219	0xbd5d32f3	-0.054003667
220	0xbc19ac24	-0.00937942
221	0x3d4e88fc	0.050423607
222	0xbd94923a	-0.07254453
223	0xbd44eb2c	-0.04807584
224	0xbd006dfd	-0.031354893
225	0x3d26e902	0.040749557
226	0x3e00730c	0.12543887
227	0x3c62963f	0.013829767
228	0xbd6f8a9e	-0.058481805
229	0xbd5bf490	-0.05370003
230	0xbd026260	-0.0318321
231	0xbcd9400d	-0.0265198
232	0x3d913584	0.070902854
233	0xbce58a32	-0.028019998
234	0xbd97c469	-0.07410509
235	0x3d721707	0.05910399
236	0x3c6c9d93	0.0144418655
237	0xbcba534b	-0.022744795
238	0x3d681dc4	0.05666901
239	0xbd7184e7	-0.058964636
240	0xbc8ccd1d	-0.01718765
241	0x3cbce33e	0.023057576
242	0x3c670d2c	0.0141022615
243	0x3bfb6e00	0.007673025
244	0x3d4e336b	0.050342005
245	0xbc7986d7	-0.015229902
246	0xbce92f18	-0.028464839
247	0xbc7a323a	-0.015270764
248	0x3d1de5c1	0.03854919
249	0xbc77d8da	-0.015127385
250	0xbc839ffb	-0.016067496
251	0x3cef449d	0.029207522
252	0x3ba322d1	0.0049785157
253	0xbc1ca485	-0.009560709
254	0x3d025d8b	0.03182749
255	0xbd8ec4c6	-0.06971125

conv3.lin_l.bias f4 [32]
0	0x3c0270b5	0.007961442
1	0x3ddb376c	0.1070393
2	0xbb8c3fa8	-0.0042800494
3	0xbab482a3	-0.0013771843
4	0xbd61a04d	-0.055084515
5	0x3c84a755	0.016193071
6	0xbc764328	-0.01503066
7	0x3dd157c5	0.10221819
8	0xba66e34e	-0.0008807675
9	0xbd42d6f4	-0.047568277
10	0xbdc21ada	-0.09477778
11	0xbd975c85	-0.073906936
12	0x3d3e82c4	0.046511427
13	0xbda70ef0	-0.08157146
14	0xbd0b72b8	-0.03404495
15	0x3df13420	0.1177752
16	0x3c62d152	0.013843851
17	0x3de168c3	0.1100631
18	0xbd254fa8	-0.04035917
19	0x3d658372	0.05603356
20	0x3dc965fa	0.098339036
21	0xbd58f1b4	-0.05296488
22	0xbc2432c9	-0.010021874
23	0xbdb2e0e4	-0.08734301
24	0x3d81230b	0.06305512
25	0x3d39b791	0.04534108
26	0xbd873a40	-0.06602907
27	0xbd525a3f	-0.051355597
28	0xbd30d0fa	-0.043168046
29	0x3e110000	0.14160156
30	0xbd816d2b	-0.0631965
31	0xbd4b941e	-0.049701802

conv3.lin_r.weight f4 [32, 16]
0	0xbc80be3b	-0.015715709
1	0x3caee016	0.021347087
2	0x3d9ee67a	0.07758804
3	0x3be166d9	0.0068787155
4	0xbc972c8e	-0.018453863
5	0xbc5a59ee	-0.013327105
6	0xbce88bf0	-0.02838704
7	0xbc612500	-0.013741732
8	0x3d100169	0.035157595
9	0xbc60a4b8	-0.013711147
10	0x3c09b0d9	0.00840398
11	0x3cdd7c8f	0.027036933
12	0x3b933c01	0.004493237
13	0xbbb92943	-0.0056506707
14	0x3cf04c2c	0.029333197
15	0x3cf4cef6	0.029883843
16	0x3d1476d1	0.036246125
17	0xbd3ebd35	-0.04656716
18	0xbdd2396f	-0.10264861
19	0xbc45b92b	-0.012068073
20	0x3c77c3f6	0.015122404
21	0xbcca7d92	-0.02471808
22	0x3dbbd36e	0.091711864
23	0x3cf4dbf2	0.029890034
24	0xbdb0b396	-0.08628003
25	0x3d0049f9	0.031320546
26	0x3cb94438	0.022615537
27	0xbd95a560	-0.073069334
28	0x3b4cf6a6	0.0031274944
29	0x3d06f238	0.03294584
30	0xbd92c009	-0.07165534
31	0x3bffb399	0.007803392
32	0x3c984c26	0.018590998
33	0xbccf7759	-0.025325464
34	0xbd74a2f5	-0.05972572
35	0xbbf48db1	-0.00746318
36	0xbd7393cc	-0.059467122
37	0xbb06c274	-0.002056268
38	0x3d25da1c	0.04049121
39	0x3c844708	0.016147152
40	0xbd2b1b4d	-0.041774083
41	0x3c843c69	0.016142087
42	0x3c91af2a	0.01778372
43	0xbd0b2362	-0.03396929
44	0xbbc3f367	-0.0059799436
45	0x3c6aa270	0.014320955
46	0xbd0f7939	-0.035027716
47	0xbc479e75	-0.012183775
48	0x3b190f47	0.0023355053
49	0xbb4a275d	-0.0030846216
50	0xbbdb78d1	-0.006697752
51	0xba89f60a	-0.0010525596
52	0xbb072397	-0.0020620578
53	0x3ab25ff0	0.0013608914
54	0x3b7799d6	0.0037780902
55	0x3b07872c	0.0020679934
56	0xbba69bfd	-0.005084513
57	0x3b040753	0.0020145967
58	0x3b072c49	0.0020625761
59	0xbb842b56	-0.0040334864
60	0xba285a9c	-0.0006422193
61	0x3ac2a2bd	0.0014849525
62	0xbb8bf9aa	-0.0042717056
63	0x3b842b43	0.0040334775
64	0xbc85ba30	-0.016324133
65	0x3cb16760	0.021655738
66	0x3d1f9867	0.0389637
67	0x3be4c79c	0.006981803
68	0xbb0fa935	-0.0021920924
69	0xbc830e78	-0.01599811
70	0xbcf47b91	-0.029844077
71	0xbc66e054	-0.01409157
72	0x3d13ab78	0.036052197
73	0xbc68d601	-0.014211179
74	0xbcb7058e	-0.022341516
75	0x3cef3faa	0.029205162
76	0x3b9c73f3	0.0047745644
77	0xbc31f7c1	-0.010862292
78	0x3cf7b5b8	0.030238017
79	0xbd6eeab6	-0.058329307
80	0x3c13f97d	0.009031651
81	0xbc43db9f	-0.011954217
82	0xbcb22f13	-0.021750962
83	0xbb82165f	-0.003969952
84	0xbc6387cf	-0.01388736
85	0x3bb7cc65	0.0056090825
86	0x3c7042d9	0.014664375
87	0x3c01a9bb	0.007914002
88	0xbca270be	-0.01982915
89	0x3c005397	0.007832429
90	0x3c0cd074	0.008594621
91	0xbc810f8e	-0.015754487
92	0xbb287ec6	-0.0025710328
93	0x3bb73549	0.005591069
94	0xbc885b14	-0.016644992
95	0x3c914696	0.017733853
96	0x3b30385a	0.0026889057
97	0xbb68265c	-0.0035423255
98	0xbbf85a09	-0.0075790924
99	0xba9e5c1f	-0.0012081898
100	0xbb217ce7	-0.0024641098
101	0x3acd3178	0.0015655002
102	0x3b8d92f9	0.004320499
103	0x3b1bc58c	0.002376887
104	0xbbbfde53	-0.0058553605
105	0x3b18255b	0.0023215625
106	0x3b16be6a	0.002300168
107	0xbb97c905	-0.0046321177
108	0xba425cc3	-0.0007414335
109	0x3adf8fe9	0.0017056438
110	0xbba133a2	-0.004919485
111	0x3b96a13f	0.0045968588
112	0xbcb099ca	-0.021557707
113	0x3ce60ad7	0.02808134
114	0x3d078688	0.033087283
115	0x3c163f62	0.009170385
116	0x3d8682e6	0.06567936
117	0xbc628247	-0.013825006
118	0xbc969ba5	-0.018384764
119	0xbc9932a4	-0.018700905
120	0x3d477694	0.04869707
121	0xbc9c99a8	-0.019116238
122	0xbd428476	-0.047489606
123	0x3d2170e6	0.03941431
124	0x3b9dcc45	0.0048156106
125	0xbc84702c	-0.016166769
126	0x3d277c66	0.04089012
127	0xbda2b6b2	-0.079450026
128	0x3b33635a	0.002737245
129	0xbb6cea91	-0.0036150555
130	0xbc00ac7a	-0.007853622
131	0xbaa168d2	-0.0012314564
132	0xbb24a182	-0.002512068
133	0x3ad13831	0.0015962181
134	0x3b9113d2	0.0044274116
135	0x3b1eb42a	0.0024216273
136	0xbbc356bf	-0.0059612687
137	0x3b1abf97	0.0023612732
138	0x3b1d8ce0	0.0024040267
139	0xbb9b052d	-0.0047308416
140	0xba45c0a8	-0.00075436616
141	0x3ae44a99	0.0017417251
142	0xbba41aae	-0.0050080633
143	0x3b99f4ce	0.0046983724
144	0x3babf51b	0.0052477247
145	0xbbe43167	-0.006963897
146	0xbc7d2fb7	-0.015453271
147	0xbb1a0952	-0.002350409
148	0x3a71c91d	0.00092233886
149	0x3b4e20fb	0.0031452763
150	0x3c0cb4e1	0.008588047
151	0x3b97d01f	0.0046329643
152	0xbc3c20d6	-0.011482438
153	0x3b948608	0.0045325793
154	0x3bc98ee7	0.0061510685
155	0xbc1547b6	-0.0091113355
156	0xbabef8c2	-0.0014569985
157	0x3b5c6555	0.0033629735
158	0xbc1db837	-0.00962644
159	0x3c20b55f	0.009808867
160	0x3c62972a	0.013829986
161	0xbc9842ef	-0.018586604
162	0xbd1eac2e	-0.038738422
163	0xbbc8f448	-0.006132636
164	0x3aef1d0d	0.0018242911
165	0x3c055501	0.008137942
166	0x3cc1fb4d	0.0236794
167	0x3c47c9ec	0.012194138
168	0xbcfdafbe	-0.03096759
169	0x3c4806fb	0.0122086955
170	0x3becabfc	0.0072226506
171	0xbcc0afb2	-0.023521278
172	0xbb8029b2	-0.0039112205
173	0x3c057ab1	0.008146928
174	0xbcd449af	-0.025914041
175	0x3ca55a22	0.02018458
176	0xbcc6bfa9	-0.024261313
177	0x3d0695e3	0.032857787
178	0x3ce8f62c	0.028437696
179	0x3c14d282	0.009083392
180	0x3dc774dc	0.09739086
181	0xbc8dfe0e	-0.017333057
182	0xbb9767cc	-0.004620528
183	0xbca6d01f	-0.020362912
184	0x3d5a1cfb	0.053250294
185	0xbca97e4e	-0.02069011
186	0xbd36a62f	-0.04459208
187	0x3d52bcde	0.05144965
188	0x3c0869d7	0.008326015
189	0xbd0152a9	-0.03157297
190	0x3d313487	0.043262985
191	0xbdbd3818	-0.09239215
192	0xbd3106e6	-0.04321947
193	0x3d915049	0.07095391
194	0x3d1a6fca	0.037704267
195	0xbb6c075c	-0.0036015129
196	0x3d4c4c42	0.049877413
197	0x3d1c9a18	0.038232893
198	0xbc99584c	-0.018718861
199	0xbd0eb3a1	-0.034839276
200	0x3dcd6be6	0.100303456
201	0xbd1b95c7	-0.037984636
202	0xbd364a07	-0.04450419
203	0x3dbea6a4	0.09309128
204	0x3c4331ca	0.011913726
205	0xbd28bc29	-0.04119507
206	0x3daabb4f	0.083365075
207	0xbc6e83a4	-0.014557753
208	0x3d1ce2fa	0.0383024
209	0xbd5cb06a	-0.05387918
210	0xbe2758ad	-0.16342421
211	0xbbab8b29	-0.005235095
212	0x3b1d21a7	0.0023976357
213	0x3caacade	0.020848688
214	0x3d870516	0.06592767
215	0x3d097e8f	0.03356796
216	0xbdb52264	-0.0884445
217	0x3d088e25	0.033338685
218	0x3d0b9362	0.034076102
219	0xbd1af6b6	-0.037832938
220	0xbc3ec5dd	-0.011643854
221	0xbc313015	-0.010814686
222	0xbd98434f	-0.07434713
223	0x3d7d0750	0.061774552
224	0xbd03ee67	-0.03220978
225	0x3d266b96	0.040629946
226	0x3d9f48cd	0.077775575
227	0x3c3b65ab	0.011437814
228	0x3d74f403	0.05980302
229	0x3c7c3ebb	0.0153958155
230	0xbda76957	-0.08174389
231	0xbce07f8b	-0.027404567
232	0x3d956be9	0.07295973
233	0xbceb9c61	-0.02876109
234	0xbcd128bb	-0.025532117
235	0x3d58126f	0.052751955
236	0x3b65445c	0.0034983372
237	0xbc9830a8	-0.018577889
238	0x3d7c668c	0.061621234
239	0xbd8008fa	-0.06251712
240	0xbc8e8210	-0.017396003
241	0x3cc021a5	0.023453543
242	0x3d7bc625	0.061468262
243	0x3bf999cd	0.0076172114
244	0xbc90bea2	-0.017669026
245	0xbbd9b4f7	-0.006643887
246	0xbcf93c4a	-0.030424256
247	0xbc7b37fc	-0.015333172
248	0x3d20d333	0.039263915
249	0xbc7d8754	-0.015474159
250	0xbc8684b1	-0.016420694
251	0x3cfe4a3c	0.031041257
252	0x3ba67785	0.005080166
253	0xbc123557	-0.00892385
254	0x3d066343	0.032809507
255	0xbd2efa05	-0.042718906

conv4.lin_l.weight f4 [64, 32]
0	0x3c54bc84	0.012984399
1	0xbcfb3863	-0.030666536
2	0xbc777d57	-0.015105567
3	0xbb00b809	-0.0019640944
4	0x3c6ae32a	0.014336387
5	0xbbfc68d7	-0.0077029276
6	0xbb1297ef	-0.0022368392
7	0x3c98d689	0.018656986
8	0xbb16d9e1	-0.002301805
9	0xbb9ca8fc	-0.0047808867
10	0xbc3cae12	-0.011516111
11	0x3ca89164	0.02057714
12	0x3d1208a8	0.035652786
13	0xbd0afe75	-0.033934075
14	0x3ce50187	0.02795483
15	0x3c74641e	0.014916448
16	0x3c2d93eb	0.010594348
17	0x3c9f5690	0.019450456
18	0xbd0b4e16	-0.034010015
19	0x3c95129c	0.01819735
20	0xbc876b06	-0.016530525
21	0xbc7a9df6	-0.01529645
22	0xbd1f7202	-0.038927086
23	0x3c88b1b0	0.01668629
24	0xbbe87a51	-0.0070946594
25	0xbc9d5bbc	-0.019208781
26	0xbd200069	-0.03906289
27	0x3c25cadc	0.010119166
28	0xbd2f6fd7	-0.04283127
29	0x3cd95afb	0.02653264
30	0xbcfbb48a	-0.030725736
31	0xbbf5a13c	-0.0074960273
32	0x3ab1ddd1	0.0013570135
33	0xbb48ee4d	-0.0030659616
34	0xbace7708	-0.0015752027
35	0xb957bddb	-0.00020574724
36	0x3ac21107	0.00148061
37	0xba527bf4	-0.0008029335
38	0xb976e368	-0.00023545104
39	0x3b011d83	0.0019701428
40	0xb97ca654	-0.00024094555
41	0xb9f66157	-0.000469933
42	0xba9ef95a	-0.0012128756
43	0x3b0b8d66	0.0021293997
44	0x3b74c253	0.0037347272
45	0xbb62a62d	-0.0034583912
46	0x3b4141df	0.0029488725
47	0x3ad20285	0.0016022479
48	0x3a913b86	0.0011080361
49	0x3ac028f7	0.0014660646
50	0xbb69ce5b	-0.0035675976
51	0x3af955d4	0.0019022771
52	0xbadf9989	-0.0017059307
53	0xbad4c6dd	-0.0016233582
54	0xbb847123	-0.0040418073
55	0x3ad8f2e2	0.0016551877
56	0xba3e9cd4	-0.0007271294
57	0xbb053257	-0.0020324194
58	0xbb8651fc	-0.004099129
59	0x3a86c5dd	0.0010282357
60	0xbb928343	-0.004471214
61	0x3b357def	0.002769347
62	0xbb5376ba	-0.0032266811
63	0xba50d6b9	-0.00079665665
64	0xbba28b4a	-0.004960452
65	0x3c38c3bb	0.0112771345
66	0x3bbcc8f5	0.0057612606
67	0x3a44de8f	0.00075099705
68	0xbbb1c820	-0.005425468
69	0x3b406425	0.0029356566
70	0x3a615933	0.00085963606
71	0xbbeb2fa3	-0.0071773096
72	0x3a66a125	0.0008797816
73	0x3ae15a6b	0.0017193084
74	0x3b8f2f37	0.004369642
75	0xbbff2810	-0.0077867582
76	0xbc5f6892	-0.013635771
77	0x3c4f4724	0.012651239
78	0xbc302ac3	-0.010752383
79	0xbbbe8430	-0.005814098
80	0xbb84ac65	-0.0040488713
81	0xbbaccf46	-0.0052737324
82	0x3c555085	0.013019686
83	0xbbe3c5ea	-0.0069510834
84	0x3bcc462c	0.006233951
85	0x3bc19fb3	0.00590893
86	0x3c724a37	0.014788202
87	0xbbc77982	-0.006087483
88	0x3b2eddf1	0.002668258
89	0x3bf3e179	0.00744265
90	0x3c750ac3	0.014956179
91	0xbb77e04d	-0.0037822903
92	0x3c85c9eb	0.016331634
93	0xbc2566cc	-0.0100953095
94	0x3c407704	0.011747126
95	0x3b3dfea7	0.0028990896
96	0x232459fd	8.9095136e-18
97	0x24771d2a	5.358429e-17
98	0xa352f073	-1.143504e-17
99	0xa20a2db0	-1.8726674e-18
100	0xa33a89b8	-1.0112243e-17
101	0xa31aaf45	-8.3854715e-18
102	0x216c3430	8.002898e-19
103	0x23201266	8.677513e-18
104	0xa23109c4	-2.3993143e-18
105	0xa201a27b	-1.7568776e-18
106	0xa3911cc4	-1.5733114e-17
107	0xa4b39fa0	-7.789929e-17
108	0x239a6a42	1.6741715e-17
109	0x220c8eaf	1.9049074e-18
110	0xa1175f20	-5.1286687e-19
111	0x23366728	9.888084e-18
112	0x233cb55b	1.0229904e-17
113	0x24199a7e	3.3307446e-17
114	0xa33484b4	-9.7859205e-18
115	0x2387e070	1.4731782e-17
116	0x2427ea6b	3.6410912e-17
117	0xa29975f6	-4.159563e-18
118	0xa3b033d0	-1.9103902e-17
119	0xa4096e4a	-2.9800558e-17
120	0x2371f358	1.3116166e-17
121	0x240f090a	3.101584e-17
122	0xa35ac50a	-1.1859528e-17
123	0x9fe157c0	-9.5436377e-20
124	0xa3705b92	-1.3029817e-17
125	0x2291c56a	3.951135e-18
126	0x2248cb98	2.7212836e-18
127	0xa257df89	-2.9256272e-18
128	0x3c028556	0.00796636
129	0xbc969ad3	-0.018384373
130	0xbc17be56	-0.009261688
131	0xba9e2d4f	-0.0012067946
132	0x3c105fff	0.00881195
133	0xbb9b55e4	-0.0047404636
134	0xbab316f1	-0.0013663453
135	0x3c3c2774	0.011484016
136	0xbab96bf8	-0.0014146557
137	0xbb32f2cc	-0.0027305363
138	0xbbe4a824	-0.0069780517
139	0x3c4efa29	0.012632885
140	0x3cb37d38	0.021910295
141	0xbc9f163d	-0.019419784
142	0x3c8db959	0.017300295
143	0x3c16d6c6	0.009206479
144	0x3bd5610b	0.0065118126
145	0x3c21774e	0.009855105
146	0xbcab4379	-0.020906197
147	0x3c3713c3	0.011174145
148	0xbc254410	-0.010087028
149	0xbc1a79ef	-0.009428485
150	0xbcc31ece	-0.0238184
151	0x3c23225a	0.0099569205
152	0xbb8f2081	-0.0043678884
153	0xbc46a3af	-0.012123986
154	0xbcc4cbc3	-0.024022942
155	0x3bca1258	0.0061667375
156	0xbcd760bf	-0.02629125
157	0x3c83857b	0.01605486
158	0xbc99d3cc	-0.01877775
159	0xbb969ba3	-0.00459619
160	0x3c740f3a	0.014896208
161	0xbd0e865c	-0.034796104
162	0xbc8e07fd	-0.017337793
163	0xbb13c105	-0.0022545469
164	0x3c875b71	0.016523095
165	0xbc10fab6	-0.008848837
166	0xbb2788e6	-0.0025563776
167	0x3caee782	0.021350626
168	0xbb2d2fa5	-0.0026426103
169	0xbbb45fcf	-0.0055045853
170	0xbc43d71f	-0.011953144
171	0x3cb92b73	0.022603726
172	0x3d274845	0.040840406
173	0xbd312f7d	-0.04325818
174	0x3d02e20f	0.031953868
175	0x3c885a2b	0.016644558
176	0x3c4736b3	0.012159037
177	0x3bbf200d	0.005832678
178	0xbd1f8d3d	-0.038953055
179	0x3cab0b48	0.020879403
180	0xbc97e93e	-0.018543836
181	0xbc8f073e	-0.017459508
182	0xbd36ea0a	-0.04465679
183	0x3c9aacf1	0.018881293
184	0xbc05651b	-0.008141781
185	0xbcb989ce	-0.022648718
186	0xbd37364e	-0.044729523
187	0x3c3f34cf	0.011670305
188	0xbd48ef4f	-0.049056347
189	0x3cf31dcc	0.029677294
190	0xbd0df1a4	-0.034654275
191	0xbc0bdb49	-0.008536168
192	0x3c915b28	0.017743662
193	0xbd2ea5a4	-0.042638436
194	0xbca93495	-0.020654956
195	0xbb2fb1db	-0.002680889
196	0x3ca12dda	0.019675184
197	0xbc2be29b	-0.010491039
198	0xbb486726	-0.003057906
199	0x3cd02207	0.02540685
200	0xbb4dd949	-0.003141003
201	0xbbcbd12c	-0.0062200036
202	0xbc94961f	-0.01813799
203	0x3d08b871	0.033379022
204	0x3d472621	0.048620347
205	0xbd4eab38	-0.050456256
206	0x3d1b969f	0.03798544
207	0x3ca6212e	0.020279493
208	0x3c6cc7c0	0.014451921
209	0x3cdd5c98	0.027021691
210	0xbd3ddcfe	-0.046353333
211	0x3ccb854b	0.024843832
212	0xbcab69c4	-0.020924456
213	0xbcaa1200	-0.020760536
214	0xbd5a9027	-0.05336013
215	0x3cbf611c	0.023361735
216	0xbc01a4ab	-0.007912795
217	0xbcdc9559	-0.026926683
218	0xbd59f93c	-0.053216204
219	0x3c6424fc	0.013924833
220	0xbd6f9339	-0.05849001
221	0x3d18b046	0.037277482
222	0xbd289cf5	-0.04116531
223	0xbc3101cf	-0.010803654
224	0x3c69d247	0.014271325
225	0xbd0ae5c8	-0.033910543
226	0xbc88049f	-0.016603766
227	0xbb0d7edf	-0.0021590514
228	0x3c8130d7	0.015770359
229	0xbc0a8376	-0.008454194
230	0xbb214f6b	-0.0024613987
231	0x3ca7b965	0.020474145
232	0xbb25cdd2	-0.002529968
233	0xbb97a365	-0.0046276324
234	0xbc2caa16	-0.0105385985
235	0x3cbca6b4	0.023028709
236	0x3d2031ad	0.039109875
237	0xbd2b09d2	-0.041757412
238	0x3cfa2865	0.03053684
239	0x3c850ec1	0.016242387
240	0x3c3eb121	0.0116389105
241	0x3c7daa2e	0.0154824685
242	0xbd18ceae	-0.03730648
243	0x3ca3c1cc	0.01998987
244	0xbc903b25	-0.017606327
245	0xbc895712	-0.016765151
246	0xbd2f042b	-0.042728584
247	0x3c9afa1f	0.018918095
248	0xbc0992bd	-0.008396802
249	0xbcb0257d	-0.02150225
250	0xbd2f67ee	-0.042823724
251	0x3c35fe62	0.011108013
252	0xbd402a7c	-0.046915516
253	0x3cef50b0	0.02921328
254	0xbd09e1bc	-0.033662543
255	0xbc05fe11	-0.00817825

conv4.lin_l.bias f4 [64]
0	0x3c3892f1	0.011265502
1	0xbb3df1d4	-0.0028983252
2	0xbb6ec79c	-0.0036434894
3	0xa4669ee1	-5.0007876e-17
4	0x3d368eb8	0.0445697
5	0x3c8c4db3	0.017126894
6	0xbb0b8c84	-0.002129347
7	0x3bcec193	0.006309697
8	0xbd1a87c9	-0.03772715
9	0xbd231cd6	-0.039822422
10	0xbb2e1017	-0.0026559883
11	0xb173b360	-3.5463117e-09
12	0xb1f5d821	-7.1550095e-09
13	0xa1c3ae41	-1.3259839e-18
14	0xbd1042b0	-0.03521985
15	0xbd484d67	-0.04890194
16	0x39410cc7	0.00018410674
17	0xb69223e2	-4.3553164e-06
18	0x3b510e86	0.0031899526
19	0xbc5b635f	-0.013390391
20	0xbc64721f	-0.013943224
21	0xa583a218	-2.2834717e-16
22	0x3d81fe0a	0.06347282
23	0xbd4031c1	-0.04692245
24	0x3d148dca	0.036268033
25	0x3d6a4617	0.05719575
26	0x3ca3a665	0.019976804
27	0x290141be	2.8700776e-14
28	0x247888af	5.3892203e-17
29	0xa5edae14	-4.1230906e-16
30	0xbbd49b3b	-0.0064882315
31	0xbd106f9f	-0.0352627
32	0x3d167652	0.036733933
33	0xbd605873	-0.05477185
34	0x38f74df6	0.00011792399
35	0xae933926	-6.694938e-11
36	0x3cb6ac25	0.022298882
37	0xbc8814bf	-0.016611455
38	0xbb40e425	-0.002943286
39	0x3d33fccc	0.043942258
40	0x3b7de60e	0.003874186
41	0xbd00381d	-0.031303514
42	0xbd857b6b	-0.06517681
43	0xbcefe0da	-0.029282022
44	0x3d670626	0.056402348
45	0xba03343c	-0.0005005037
46	0x3bf0d5c8	0.0073497035
47	0x3d5e7c35	0.05431767
48	0x3d117190	0.035508692
49	0xb9c19548	-0.00036923052
50	0xbb6db8da	-0.003627351
51	0xbca7f02d	-0.020500267
52	0x3d25c62e	0.040472202
53	0x3d031a13	0.03200729
54	0x379410b0	1.7650746e-05
55	0xbad43ccd	-0.0016192436
56	0xbc5eefbe	-0.013606964
57	0x3bfe1694	0.0077541564
58	0x3bdc8ace	0.006730414
59	0xbca51bf6	-0.020154934
60	0x3d36e57b	0.044652443
61	0xbc931503	-0.017954355
62	0xbd5a85d4	-0.053350285
63	0x3b837094	0.004011223

conv4.lin_r.weight f4 [64, 32]
0	0x3c5a54d7	0.013325891
1	0xbcffe06f	-0.031234948
2	0xbc7d967b	-0.015477772
3	0xbb03a39a	-0.0020086528
4	0x3c714cc3	0.014727774
5	0xbc0126ce	-0.007882787
6	0xbb15e8cf	-0.002287436
7	0x3c9c7a30	0.019101232
8	0xbb1a450e	-0.0023539695
9	0xbb974721	-0.0046166335
10	0xbc5d4e85	-0.01350749
11	0x3cb57a28	0.022152975
12	0x3d165bfe	0.036708824
13	0xbcfb76e9	-0.03069635
14	0x3ceb5408	0.028726593
15	0x3c7a2dd1	0.015269713
16	0x3c317ed4	0.010833461
17	0x3c6f5cfb	0.014609571
18	0xbd0f3f50	-0.03497249
19	0x3c984c13	0.018590963
20	0xbc897a5e	-0.016781982
21	0xbc8050ab	-0.015663465
22	0xbd2408e7	-0.040047552
23	0x3c8ac32f	0.016938774
24	0xbbee388d	-0.007269925
25	0xbcaab1e0	-0.02083677
26	0xbd24a3ef	-0.0401954
27	0x3c2965d3	0.010339218
28	0xbd34b8a0	-0.044121385
29	0x3cdfd890	0.027324945
30	0xbd00cd02	-0.03144551
31	0xbbf818b2	-0.0075713033
32	0x3ab62edc	0.0013899463
33	0xbb4dd6e0	-0.0031408593
34	0xbad3414f	-0.0016117486
35	0xb95c651f	-0.00021018506
36	0x3ac643fd	0.0015126463
37	0xba570d07	-0.00082035403
38	0xb97c20b5	-0.00024044777
39	0x3b040afd	0.002014815
40	0xb981091c	-0.00024611584
41	0xb9fbaf1d	-0.0004800492
42	0xbaa2ba37	-0.0012415115
43	0x3b0e6504	0.002172769
44	0x3b7b9fc5	0.003839479
45	0xbb694f9a	-0.0035600425
46	0x3b460921	0.0030217844
47	0x3ad70090	0.0016403366
48	0x3a9453e1	0.0011316502
49	0x3ac4fc3d	0.0015028786
50	0xbb704737	-0.003666354
51	0x3afea553	0.0019427933
52	0xbae4c2aa	-0.0017453034
53	0xbad996c4	-0.0016600718
54	0xbb882b90	-0.0041555837
55	0x3addda87	0.0016926088
56	0xba42cf0b	-0.00074313645
57	0xbb080799	-0.0020756482
58	0xbb8a2207	-0.004215482
59	0x3a89960d	0.0010496989
60	0xbb96ce81	-0.004602254
61	0x3b3a9207	0.0028468387
62	0xbb5965a0	-0.0033172145
63	0xba554e4f	-0.0008136974
64	0xbba689d5	-0.005082349
65	0x3c3d617b	0.011558886
66	0x3bc1335e	0.005896016
67	0x3a4918e2	0.00076712493
68	0xbbb5b036	-0.0055446876
69	0x3b449c5d	0.0030000426
70	0x3a662ce1	0.0008780491
71	0xbbf08b76	-0.007340844
72	0x3a6b928c	0.0008986376
73	0x3ae64bc8	0.0017570192
74	0x3b92ef6b	0.0044841073
75	0xbc023940	-0.00794822
76	0xbc65b8a3	-0.014021072
77	0x3c55a2df	0.01303932
78	0xbc348e48	-0.011020251
79	0xbbc3225e	-0.0059550246
80	0xbb878519	-0.0041357395
81	0xbbba8520	-0.0056921393
82	0x3c5b3e02	0.013381483
83	0xbbe89fbb	-0.0070991195
84	0x3bd1190a	0.0063811587
85	0x3bc60a9b	0.0060437447
86	0x3c792613	0.0152068315
87	0xbbcc0dfb	-0.0062272525
88	0x3b32c4a8	0.002727786
89	0x3bf9844f	0.0076146494
90	0x3c7c0272	0.015381442
91	0xbb7d16d2	-0.0038618338
92	0x3c89ba81	0.016812565
93	0xbc2a25e5	-0.010385011
94	0x3c45ef00	0.012080908
95	0x3b4219c1	0.0029617401
96	0x232dbb86	9.4180584e-18
97	0x247eee52	5.5279336e-17
98	0xa35c6916	-1.1948477e-17
99	0xa214d016	-2.01679e-18
100	0xa340e323	-1.0456439e-17
101	0xa3202cde	-8.683118e-18
102	0x214afef4	6.877769e-19
103	0x2321b4e6	8.766134e-18
104	0xa23d680f	-2.5669364e-18
105	0xa201686b	-1.7538038e-18
106	0xa38a7849	-1.5012933e-17
107	0xa4b7c5ac	-7.969847e-17
108	0x23907f72	1.5666486e-17
109	0x22d0cbdb	5.6594353e-18
110	0xa18981e0	-9.317859e-19
111	0x23269e22	9.032364e-18
112	0x23483e34	1.0855194e-17
113	0x24133781	3.1922558e-17
114	0xa3248764	-8.919128e-18
115	0x238f7990	1.5555575e-17
116	0x242b224f	3.7108775e-17
117	0xa2959985	-4.0549076e-18
118	0xa3a54c7c	-1.7921728e-17
119	0xa40cc765	-3.0526555e-17
120	0x2374ad44	1.3263957e-17
121	0x2413428b	3.1931908e-17
122	0xa33ea6fe	-1.0335283e-17
123	0xa00e6300	-1.2060624e-19
124	0xa3509750	-1.1307744e-17
125	0x21e23fcf	1.5331246e-18
126	0x22b2f468	4.850577e-18
127	0xa25343a8	-2.863165e-18
128	0x3c05c602	0.0081648845
129	0xbc9a65b7	-0.01884733
130	0xbc1b5300	-0.009480238
131	0xbaa19b24	-0.0012329561
132	0x3c138f5c	0.0090063475
133	0xbb9ec4d2	-0.00484524
134	0xbab70298	-0.0013962565
135	0x3c4076b8	0.011747055
136	0xbabd6f1c	-0.0014452669
137	0xbb36ff43	-0.0027923144
138	0xbbe12bc3	-0.006871672
139	0x3c55847f	0.013032078
140	0x3cb8977f	0.022533176
141	0xbcabbea2	-0.020964924
142	0x3c9140ef	0.017731158
143	0x3c1a8872	0.009431945
144	0x3bd9fcf9	0.006652471
145	0x3c174d3c	0.009234723
146	0xbcb001aa	-0.021485168
147	0x3c3af39f	0.011410623
148	0xbc296beb	-0.010340671
149	0xbc1e09c0	-0.009645879
150	0xbcc8a443	-0.024492389
151	0x3c26f00d	0.0101890685
152	0xbb92df30	-0.0044821724
153	0xbc4837f9	-0.012220376
154	0xbcca5f8d	-0.024703765
155	0x3bce474a	0.0062951194
156	0xbcddb357	-0.027063055
157	0x3c87fe21	0.01660067
158	0xbc9e4166	-0.019318294
159	0xbb99cbe5	-0.0046934956
160	0x3c7a9c29	0.015296021
161	0xbd12fbf2	-0.035884805
162	0xbc919599	-0.017771529
163	0xbb1729cf	-0.0023065691
164	0x3c8aabc8	0.016927615
165	0xbc146db8	-0.009059362
166	0xbb2b6b4a	-0.0026156479
167	0x3cb321ef	0.021866767
168	0xbb312f68	-0.0027036313
169	0xbbace068	-0.0052757747
170	0xbc6ac4a9	-0.014329114
171	0x3cd71ebf	0.026259778
172	0x3d2c4ee5	0.042067427
173	0xbd2e8278	-0.042604893
174	0x3d066272	0.03280873
175	0x3c8cdae9	0.017194228
176	0x3c4bc81c	0.0124378465
177	0x3caa7004	0.020805366
178	0xbd241589	-0.0400596
179	0x3caec0d4	0.021332182
180	0xbc9f2250	-0.019425541
181	0xbc928171	-0.017883988
182	0xbd3c3a27	-0.045953896
183	0x3ca84144	0.020538934
184	0xbc0a8257	-0.008453927
185	0xbcc42de1	-0.023947658
186	0xbd3c8876	-0.046028577
187	0x3c4368a9	0.011926808
188	0xbd4f1424	-0.050556317
189	0x3d0116f7	0.03151604
190	0xbd12f44f	-0.035877522
191	0xbc09514b	-0.008381198
192	0x3c9562e1	0.018235626
193	0xbd3003f2	-0.042972513
194	0xbcad8cc3	-0.021185284
195	0xbb33dd39	-0.0027445091
196	0x3ca7a6ab	0.020465216
197	0xbc301fa0	-0.0107497275
198	0xbb4cd831	-0.003125679
199	0x3cd5448b	0.02603366
200	0xbb52ba7a	-0.0032154606
201	0xbbe43b28	-0.00696506
202	0xbc4e3ea0	-0.012588173
203	0x3ce9c726	0.028537344
204	0x3d4d5260	0.050127387
205	0xbd4847c4	-0.048896566
206	0x3d1eca7b	0.03876732
207	0x3caa5b23	0.02079541
208	0x3c725822	0.01479152
209	0x3c3ce3a7	0.011528886
210	0xbd4353f3	-0.047687482
211	0x3cd00249	0.025391715
212	0xbcc015ca	-0.02344789
213	0xbcae6ebe	-0.02129304
214	0xbd61405e	-0.054993026
215	0x3caf8776	0.021426897
216	0xbc20ac21	-0.009806664
217	0xbcd7b4b6	-0.026331287
218	0xbd6059bc	-0.054773077
219	0x3c694376	0.014237275
220	0xbd76f5d8	-0.06029305
221	0x3d1feae1	0.039042357
222	0xbd2d16e4	-0.04225816
223	0xbc2786ec	-0.010225039
224	0x3c700f19	0.014652037
225	0xbd0b9dd1	-0.034086052
226	0xbc8b68bf	-0.01701772
227	0xbb10bf4d	-0.002208668
228	0x3c83f5be	0.01610839
229	0xbc0dcbed	-0.008654577
230	0xbb250803	-0.0025181777
231	0x3cabc20c	0.020966552
232	0xbb299c8f	-0.002588067
233	0xbbb49536	-0.0055109514
234	0xbc567f1e	-0.013091831
235	0x3ce40e58	0.02783887
236	0x3d24fac1	0.0402782
237	0xbd1c38b1	-0.038140003
238	0x3d008715	0.031378824
239	0x3c85e399	0.016343879
240	0x3c430abd	0.011904416
241	0x3c6d2d8d	0.014476192
242	0xbd1d257b	-0.038365822
243	0x3ca74fb2	0.020423744
244	0xbc913751	-0.017726572
245	0xbc8cb273	-0.017174935
246	0xbd3404f8	-0.04395005
247	0x3c95ac1a	0.018270541
248	0xbbf4d6e0	-0.007471904
249	0xbcaa6df5	-0.020804385
250	0xbd3485d8	-0.044072956
251	0x3c3a00c6	0.011352723
252	0xbd45afbb	-0.048263293
253	0x3cf6ee93	0.030143058
254	0xbd0d3f4d	-0.034484196
255	0xbc080da9	-0.008304038

conv1r.lin_l.weight f4 [32, 64]
0	0x3c68fa08	0.014219768
1	0x3ac07f62	0.00146864
2	0xbbb0e3d5	-0.0053982534
3	0xa39f1929	-1.724947e-17
4	0x3c0fd327	0.00877837
5	0x3c861ffe	0.016372677
6	0x3c9fc56a	0.019503314
7	0x3c8041aa	0.015656311
8	0x3c13d2a8	0.009022392
9	0x3c1d0ac2	0.009585084
10	0x3c27707d	0.01021969
11	0x3090ffb7	1.0550057e-09
12	0x307959ef	9.0713476e-10
13	0xa00f1fd1	-1.2123098e-19
14	0xbbc7832c	-0.006088635
15	0xbc2240b3	-0.009903121
16	0xb9ba864d	-0.00035576746
17	0x386618a0	5.4859207e-05
18	0x3b2a85ea	0.002601976
19	0xbb6decf0	-0.0036304556
20	0xbc6d45b2	-0.014481949
21	0x23defdc5	2.4176764e-17
22	0x3c7be571	0.015374527
23	0xbc619536	-0.013768485
24	0x3c256045	0.010093753
25	0x3c3ae2f2	0.011406647
26	0xbb721745	-0.003694014
27	0xa64b5c71	-7.0555055e-16
28	0xa276e82a	-3.3462123e-18
29	0xa6ccc2f8	-1.420819e-15
30	0x3b7ade1b	0.0038279358
31	0xbc5868a7	-0.013208545
32	0xbc07ac03	-0.008280757
33	0x3c10e000	0.008842468
34	0x3c3f0690	0.0116592795
35	0xaf0573cc	-1.2137419e-10
36	0x3c825224	0.015908308
37	0xbbf5fdd6	-0.0075070662
38	0x3acd300e	0.001565458
39	0xbbec2576	-0.007206614
40	0x3ba0d8b0	0.0049086437
41	0x3bf62ec6	0.0075129
42	0xbc3e6e6a	-0.011623004
43	0x3ba11dfd	0.004916905
44	0x3c1e9ec6	0.009681409
45	0xbb196028	-0.002340326
46	0x3b7b3e3a	0.003833665
47	0x3c6fa610	0.014626995
48	0xbbecd825	-0.007227915
49	0x3beb0c04	0.0071730632
50	0xbc0af86e	-0.008482082
51	0xbbe127c8	-0.0068711974
52	0x3be2fefd	0.0069273696
53	0xbc5e3adc	-0.013563838
54	0xb94f8de4	-0.00019793917
55	0x3b8138df	0.003943547
56	0xbc09a73a	-0.008401686
57	0xbc365b84	-0.011130217
58	0x3c37ff7c	0.011230346
59	0x3bb04ecf	0.0053804885
60	0xbc393aaf	-0.011305495
61	0xbc386bc7	-0.011256165
62	0xbc806511	-0.015673192
63	0xbc0b6fcc	-0.008510541
64	0xbcfc6900	-0.030811787
65	0xbb510e6b	-0.0031899463
66	0x3c3f656a	0.011681894
67	0x24322277	3.862679e-17
68	0xbc9b0b91	-0.018926414
69	0xbd113921	-0.035454873
70	0xbd2d4fdb	-0.042312484
71	0xbd0aefe9	-0.033920202
72	0xbca1ba74	-0.019742228
73	0xbcabea6e	-0.020985808
74	0xbcb586e9	-0.022159057
75	0xb11bf090	-2.2692213e-09
76	0xb10432e5	-1.9237458e-09
77	0x20a79949	2.8392336e-19
78	0x3c56de34	0.013114501
79	0x3caf25f9	0.021380411
80	0x3a49ea00	0.000770241
81	0xb8f83580	-0.00011835527
82	0xbbb84bc2	-0.0056242654
83	0x3c00424e	0.007828308
84	0x3d007682	0.031363018
85	0xa4254a20	-3.5841458e-17
86	0xbd080a59	-0.033212993
87	0x3cf3ee5e	0.029776748
88	0xbcb2a952	-0.021809254
89	0xbcc9e6b4	-0.02464614
90	0x3c04768a	0.008084903
91	0x26089c7e	4.7396565e-16
92	0x22aa6e9c	4.6195705e-18
93	0x276078aa	3.1151657e-15
94	0xbc08364d	-0.008313728
95	0x3ce9dafd	0.028546805
96	0x3c945713	0.018107926
97	0xbc9f3852	-0.019436035
98	0xbccf163d	-0.025279159
99	0x2f97c46e	2.7606312e-10
100	0xbd0d0946	-0.034432672
101	0x3c84f173	0.016228413
102	0xbb5ecf05	-0.0033997905
103	0x3c814df9	0.01578425
104	0xbc2dffb9	-0.010620051
105	0xbc867301	-0.01641226
106	0x3ccdd906	0.025127899
107	0xbc30ae8c	-0.010783803
108	0xbcaaa9ab	-0.020832857
109	0x3ba5fa50	0.00506524
110	0xbc07b0d2	-0.008281903
111	0xbd015f1f	-0.031584855
112	0x3c81922f	0.015816776
113	0xbc7ea41e	-0.015542058
114	0x3c967b31	0.01836929
115	0x3c731b3b	0.014838035
116	0xbc74955c	-0.014928188
117	0x3cf26397	0.029588504
118	0x39e067a7	0.00042801836
119	0xbc0c0274	-0.008545507
120	0x3c94db02	0.018170837
121	0x3cc5d566	0.024149608
122	0xbcc7458a	-0.024325151
123	0xbc405b61	-0.011740536
124	0x3cca615b	0.024704626
125	0x3cc7790e	0.024349716
126	0x3d0a88f2	0.033822007
127	0x3c973288	0.018456712
128	0xbc8b9318	-0.017037913
129	0xbae4e3b8	-0.0017462885
130	0x3bd2fc95	0.0064388015
131	0x23b8d51a	2.0039572e-17
132	0xbc2d69e3	-0.010584327
133	0xbca0f26d	-0.019646848
134	0xbcbfcb0e	-0.023412254
135	0xbc99b011	-0.018760713
136	0xbc30ec37	-0.0107985055
137	0xbc3c15ab	-0.011479775
138	0xbc48075d	-0.012208787
139	0xb0a8d4a1	-1.2284042e-09
140	0xb091ef44	-1.0618142e-09
141	0x2025ff9e	1.406062e-19
142	0x3bf00300	0.0073245764
143	0x3c43d1e5	0.011951898
144	0x39ddcae8	0.00042303582
145	0xb888b671	-6.518968e-05
146	0xbb4b38a7	-0.003100911
147	0x3b8e3ab0	0.004340492
148	0x3c8e2f72	0.017356608
149	0xa3f93219	-2.7017851e-17
150	0xbc98967a	-0.01862644
151	0x3c87fe95	0.016600886
152	0xbc46e12d	-0.012138647
153	0xbc620fae	-0.013797684
154	0x3b901908	0.004397515
155	0x26616115	7.8194127e-16
156	0x228a3980	3.7465855e-18
157	0x26ee0a73	1.65174e-15
158	0xbb95576f	-0.004557542
159	0x3c82218e	0.01588514
160	0x3c2240b6	0.009903124
161	0xbc2de53f	-0.010613739
162	0xbc64655d	-0.0139401825
163	0x2f1b406f	1.4120059e-10
164	0xbc9c83ee	-0.019105878
165	0x3c132488	0.008980878
166	0xbaf400e1	-0.0018615985
167	0x3c0d495c	0.008623447
168	0xbbbfd3ad	-0.005854091
169	0xbc130dc7	-0.008975453
170	0x3c670919	0.01410129
171	0xbbc01d82	-0.0058628926
172	0xbc3ffb81	-0.011717678
173	0x3b36a2c6	0.0027868017
174	0xbb95e685	-0.004574599
175	0xbc90cc73	-0.017675614
176	0x3c0d85dc	0.008637872
177	0xbc0c3718	-0.008558057
178	0x3c25f647	0.010129518
179	0x3c06cdfc	0.008227821
180	0xbc08c2d4	-0.008347232
181	0x3c8534bd	0.0162605
182	0x3976cd0e	0.00023536777
183	0xbb99eccb	-0.0046974174
184	0x3c249f9c	0.010047819
185	0x3c59ec1f	0.013300925
186	0xbc5c0fc7	-0.013431496
187	0xbbd22a75	-0.0064137527
188	0x3c5e297b	0.013559694
189	0x3c5ce4d5	0.013482292
190	0x3c9b305f	0.018943964
191	0x3c266d64	0.010157917
192	0xbb0309de	-0.0019994895
193	0xb959d009	-0.00020772232
194	0x3a4802d8	0.0007629818
195	0x22455e54	2.6748415e-18
196	0xbaa1c66d	-0.0012342461
197	0xbb16b662	-0.0022996892
198	0xbb332900	-0.002733767
199	0xbb1036ea	-0.0022005388
200	0xbaa54e76	-0.0012611884
201	0xbaaf829a	-0.0013390363
202	0xbabcb44d	-0.0014396996
203	0xaf2e1769	-1.5833525e-10
204	0xaf10b3da	-1.316062e-10
205	0x1eb7a4fb	1.9444113e-20
206	0x3a611e68	0.00085876
207	0x3ab640e3	0.0013904836
208	0x38549001	5.0678853e-05
209	0xb705bd2f	-7.9714655e-06
210	0xb9c138da	-0.00036854186
211	0x3a06b7e5	0.0005139097
212	0x3b057669	0.0020364767
213	0xa26f025f	-3.2391795e-18
214	0xbb0cd076	-0.0021486557
215	0x3afd0b84	0.00193058
216	0xbaba1a55	-0.0014198521
217	0xbad18281	-0.0015984328
218	0x3a07e7c8	0.00051843794
219	0x24ca1ce1	8.765246e-17
220	0x210683ce	4.557541e-19
221	0x257a73f4	2.172333e-16
222	0xba0da113	-0.0005402725
223	0x3af338e8	0.0018556388
224	0x3a97cd00	0.001158148
225	0xbaa128dc	-0.0012295502
226	0xbad725ac	-0.0016414425
227	0x2da60ba3	1.8877183e-11
228	0xbb12680c	-0.0022339849
229	0x3a8ae074	0.0010595457
230	0xb9682a2e	-0.00022140957
231	0x3a83bcef	0.0010050813
232	0xba35eed6	-0.00069401914
233	0xba89ee4d	-0.001052329
234	0x3ad51b89	0.0016258816
235	0xba346bbc	-0.0006882509
236	0xbab1f6da	-0.0013577596
237	0x39adc057	0.00033140436
238	0xba0e3a0c	-0.000542552
239	0xbb062cbe	-0.0020473446
240	0x3a84816d	0.0010109373
241	0xba84b177	-0.001012369
242	0x3a9cd91d	0.001196656
243	0x3a7e497c	0.0009700281
244	0xba7fc1cc	-0.0009756356
245	0x3af8af25	0.0018973096
246	0x37ed3e0d	2.8281496e-05
247	0xba1220bf	-0.00055743376
248	0x3a9b600e	0.0011854188
249	0x3acd52e8	0.0015664967
250	0xbacf5cfa	-0.0015820556
251	0xba46254d	-0.0007558659
252	0x3acec5b2	0.001577547
253	0x3acfd029	0.0015854883
254	0x3b0fbf2c	0.0021934016
255	0x3a9d3e76	0.0011996764

conv1r.lin_l.bias f4 [32]
0	0x3ccd4065	0.02505512
1	0xbca9a22e	-0.020707216
2	0x3bfbd574	0.0076853577
3	0xb9628514	-0.00021602615
4	0x3a282a2c	0.00064149755
5	0x39d58a2e	0.00040729478
6	0xb9fc3571	-0.00048105002
7	0x3bf8a9c2	0.007588596
8	0xba4b92d2	-0.00077657134
9	0xba385bcc	-0.0007032722
10	0x3bb6d4ed	0.005579582
11	0xbca532f2	-0.020165894
12	0x3d3a133f	0.04542851
13	0x3c17d0db	0.009266104
14	0x3c181e22	0.009284528
15	0x3bd02e70	0.006353192
16	0x3b0f2e75	0.002184776
17	0x3c176be0	0.009242028
18	0xbc6dcbef	-0.014513954
19	0x3c364f2e	0.011127276
20	0x3b382ab3	0.0028101623
21	0xbc899ecb	-0.016799351
22	0xbc79fcae	-0.015257997
23	0x3b4fea54	0.0031725364
24	0x393ec03c	0.00018191425
25	0xbbe99042	-0.0071277926
26	0x3c8fe25b	0.01756399
27	0x3c8e79f4	0.017392136
28	0xbd1838fa	-0.037163712
29	0xbbbf6284	-0.0058406014
30	0xbcb9f84f	-0.02270141
31	0xbba2de57	-0.0049703526
