code_agglom_MG/mesh/agglomerate/model_base_voro.pt (torch, 118831 bytes, 18 tensors)

conv1.lin_l.weight f4 [64, 3]
00000000: ed9b 90be 313b 37be 2147 95be 2a2f 693e
00000010: adef 163f 01ba 8e3e eb41 a73e a7fd 0abf
00000020: 1cb7 e8be 0fcf 8dbe 721c bb3e 2f6a bf3e
00000030: 0ebd c9be 8629 be3c 652c ce3d b3cf 123f
00000040: f8f0 113f fbe6 3c3e 3202 1bbe df92 413e
00000050: 408c 59be e13c febe 2fd3 043f f586 c93e
00000060: 30f2 2dbe d37d b1be 25b8 cdbe e7f5 cabe
00000070: b32f 80be a82e 6f3e 88c7 6c3e 4ac7 6fb9
00000080: baea 063e 192f a43e c87e 50be 5a86 13be
00000090: 942f 91be a5ac baba bf8c 9c3d 8fff 4fbe
000000a0: 53d4 e63e 39b2 103e 91f9 c0be 2222 02bf
000000b0: 098e 04bf 12a5 4ebe 776e 13bf c524 543d
000000c0: c3b0 003f 00ba d7be 5526 013f 1a91 85be
000000d0: e124 1abe 141c 10be 95ab 0e3e 6014 86be
000000e0: 2d6a f3be c23f 853e 07bb 9a3e 2489 98be
000000f0: e598 163f f9ed 56be 3a0b 05bf 14f7 a03d
00000100: bfa2 c73d 633a cbbd 769a a73e 9bee 393e
00000110: 3667 d23e ef04 16bf c8d6 a83e 0d5d 89bd
00000120: 3f5a 023e 46e5 aebe ec85 073e 0e4c 063f
00000130: 1f1d 053c 0de8 be3e 844a 093f 8689 4fbe
00000140: a802 4e3b e9b1 5cbc 0ae5 9cbe 3b97 aabe
00000150: 7f05 f73e 3dd8 e8bd 0b78 0ebf 6899 4f3e
00000160: ed62 38be 7423 a83e 7e84 b43e b604 a8bd
00000170: c0b7 9bbe d33c 0e3f 9cb7 ab3e 467c 053f
00000180: 012b 933d e5cc f23e d050 d33e 6fe1 04bf
00000190: 95e9 a63b 0b41 913e 1079 fb3e 0422 c33e
000001a0: f05c df3e 01a3 d43b f446 633e 770c e13c
000001b0: c245 eb3e e430 c63e 97a8 513e aa73 f1bd
000001c0: 44df a1bd 8924 acbe 796a e33d 8e14 44bd
000001d0: 5691 20be b44b cdbe 3417 1c3e 706e acbd
000001e0: 04b1 b73e 4f0d 3dbe 7643 803d 1e2b 11bf
000001f0: d08c 13bf 2add 553e 58fc ed3e 365e 493d
00000200: 5bf3 2f3e 6492 a9be f570 f93d 20dd 133f
00000210: 8d3c 13be 8a5f a3be 1f3a ae3e 8f47 723d
00000220: 22ec 5fbe 93bc 91be 810a 8a3d 3a7a d33e
00000230: c3bc b13e fb9d 383e a4f8 70be a999 633e
00000240: 4525 f03d 206f e63e ceec e83e 7292 663c
00000250: eac6 d23e 7577 e0be 7046 b33e f702 f9be
00000260: f52a e0be ffee 83be 598b 833c a40e 21be
00000270: 6224 ccbe c37f aa3e 9d30 9f3e 1a1f 67bd
00000280: b9dd bbbe 8d5f 1d3e 1e9f b43e 37d7 063f
00000290: 2d77 8c3d bc58 0ebe 917a 073f 66e1 8cbd
000002a0: 0c37 08be e742 45be ff70 61bc aecd 493e
000002b0: 235b 893e 278b 123f 9191 59be 63a3 193e
000002c0: d54a aa3d 772a 873d cde5 6d3e 6d22 c63e
000002d0: d11e 5f3e 723b d4be b4fe d43e 172e 0cbf
000002e0: 73cc 843d 769c fbbc eab7 10bf 01c0 053f
000002f0: f8cb 0cbf c2ad ffbd 9df7 0dbd 8618 46be
-0.28243962 -0.17893673 -0.2915583 0.22771898 0.58959466 0.27876285 0.3266748 -0.5429329
-0.454522 -0.27697036 0.3654514 0.373857 -0.3940205 0.02321316 0.10067061 0.57348174
0.57008314 0.18447487 -0.15137556 0.18903683 -0.21244907 -0.49655822 0.5188474 0.39360777
-0.16986918 -0.3466631 -0.40179554 -0.39640734 -0.25036392 0.23357642 0.2312299 -0.00022867057
0.13175479 0.32067183 -0.20360863 -0.1440672 -0.28356612 -0.0014242126 0.07644033 -0.20312332
0.45083866 0.14130487 -0.37690404 -0.5083333 -0.5177923 -0.20180157 -0.5759043 0.05179288
0.50269717 -0.42134094 0.50449115 -0.26087266 -0.1505313 -0.14073211 0.13932641 -0.2618742
-0.47541943 0.26025206 0.30220816 -0.2979213 0.5882705 -0.20989217 -0.51970255 0.078596264
0.09747838 -0.09923246 0.32735032 0.18157427 0.4109437 -0.5860128 0.32976365 -0.06707201
0.12729739 -0.34159297 0.13234681 0.524598 0.008124619 0.37286416 0.53629327 -0.20267305
0.0031434689 -0.013470151 -0.30643493 -0.33318505 0.4824638 -0.11369369 -0.5565192 0.20273364
-0.18006487 0.3283955 0.35257334 -0.082040235 -0.30413628 0.5556156 0.3353852 0.5214275
0.07185937 0.47421947 0.41272593 -0.51906484 0.005093763 0.28369936 0.491158 0.3811189
0.43625593 0.006489158 0.22195035 0.027471764 0.45951658 0.38709176 0.20474468 -0.11789639
-0.07903913 -0.33621624 0.111042924 -0.047871165 -0.15680441 -0.4009682 0.15243226 -0.08419502
0.3587724 -0.18462108 0.06262867 -0.56706417 -0.5763674 0.20885149 0.46481586 0.049162112
0.17182676 -0.331195 0.12179748 0.57759285 -0.14378567 -0.31908828 0.34028718 0.059150275
-0.21867421 -0.28464183 0.06740285 0.4130419 0.34714326 0.18029015 -0.23532349 0.22226585
0.117258586 0.45006657 0.45493168 0.014073001 0.41167384 -0.43841138 0.35014677 -0.48635074
-0.43782774 -0.25768277 0.016057657 -0.15728241 -0.39871508 0.333006 0.31091776 -0.056426145
-0.36692598 0.15368481 0.35277647 0.5267214 0.068586685 -0.13901037 0.52921396 -0.06878929
-0.13302249 -0.19263802 -0.0137598505 0.19707367 0.26827344 0.5724358 -0.21246935 0.15003733
0.08315054 0.065998964 0.23232193 0.3869814 0.217891 -0.41451603 0.41600573 -0.5475783
0.06484308 -0.030714255 -0.5653063 0.522461 -0.5499873 -0.124843135 -0.03465997 -0.19345292

conv1.lin_l.bias f4 [64]
00000000: 12ab 9cbd f481 07bf 686e bebe bc94 eebe
00000010: 7deb 903e fb8e 033d f809 f5be 7884 073d
00000020: 4664 d1bd 2d56 d1bd a59c 693e b1bd 093f
00000030: a8e8 00bf 6496 073f 135c 3dbe 3d23 e23e
00000040: 88cc 073d 4366 94be 2dbf 143e aa75 c03e
00000050: 8b34 803e 09a0 a23e e8ef bdbe 6269 dbbe
00000060: 6d57 46be 4917 ddbe 4811 a9be d397 cdbe
00000070: 38b4 9ebe 87c8 793e 0304 be3e 29c2 fb3e
00000080: 5abc 14be 606a 0a3f 536c a9bc 0e26 c63d
00000090: a74b 963e eedc 803d f685 503e 32b4 7fbe
000000a0: 333e 9ebe 2355 20bd 8029 a13e 19a4 46bd
000000b0: 7b0a c4bc 571e a8be 0f62 16bf b996 e2be
000000c0: 6bf9 04be 4618 cf3e f180 5a3e f5c1 5e3e
000000d0: 4a44 eabe ff49 dbbe 5838 e33e 5795 0c3f
000000e0: d66c d4be 814f 64be 6227 9dbe afe8 98be
000000f0: f251 0bbf 42f3 86bc b608 74be 6e4f a93e
-0.076498166 -0.5293267 -0.37193608 -0.4659785 0.28304663 0.03211878 -0.47859168 0.033085316
-0.10224204 -0.10221515 0.22813661 0.5380507 -0.50355005 0.5296385 -0.18492155 0.4416751
0.03315404 -0.2898427 0.14526053 0.3758977 0.25040087 0.31762722 -0.37097096 -0.42853838
-0.19369288 -0.43181828 -0.33020997 -0.40154895 -0.3099687 0.24392901 0.37112436 0.4917157
-0.14524975 0.54068565 -0.020681536 0.09675227 0.29354593 0.06292139 0.20363602 -0.24971083
-0.3090683 -0.039143693 0.31476974 -0.04849634 -0.023930779 -0.32835647 -0.58743376 -0.44255617
-0.1298577 0.40448207 0.2133825 0.21753676 -0.45755225 -0.42829892 0.44378924 0.54915375
-0.41489285 -0.22295953 -0.3069411 -0.29865023 -0.54421914 -0.016473416 -0.23831448 0.33068413

conv1.lin_r.weight f4 [64, 3]
00000000: 9e1e c93e 8800 c23d 5bb1 fb3e bd84 8e3e
00000010: d6f6 c43e bda3 c9bd 82f1 52be 7609 c8bd
00000020: dc0e 1d3e 13ef 8e3e a622 273e ec9f be3c
00000030: 9e48 833e 75dc 24be ef9c f33e 178e adbe
00000040: 368f aabe a872 013e bfdb 57be 3585 35be
00000050: 545c fdbd 7a88 c5be 5024 0f3f 22b8 fc3e
00000060: 0677 da3e b4c8 3abe 1f87 f03d 0fc9 8f3d
00000070: 40e6 bfbe a5ad e0be 32f3 0a3f 9312 1f3e
00000080: 86af 00bf 8b05 0ebf d337 8a3d 67dc f13e
00000090: c882 8a3e 22af 90be ed4a af3e e9b8 453e
000000a0: 3481 acbe 1280 e03e 52f2 113f 5170 b23e
000000b0: d1a8 7d3b 3be4 c1be 2955 08bf c961 9c3d
000000c0: 2f07 84be fa01 ac3c 05a8 5a3e 2449 203e
000000d0: 9059 f63e c3e3 cd3e 94cf 0c3f fdb1 e33c
000000e0: dda2 8cbe 1fad f0bd 7de3 e43e d126 713e
000000f0: efaa 80bd 83c8 b7be d1c9 643e 67cd 103f
00000100: 1b3c 35bd b04b 443e d24e fd3e aca7 013d
00000110: 601e e9be b778 1abf ea93 f33d ea10 043f
00000120: d9c3 4c3e 6523 05bf 8517 413e 13f7 abbe
00000130: a2b6 143e 743b cd3d cb8e a83e f2e9 4b3e
00000140: 2e7e 773e 051b c7be c6f0 fc3b 052e a43e
00000150: cdf3 00bf 8194 d0be d9f0 1fbb 9859 19be
00000160: 87ca ec3d 6362 35bd a8ea 97be 705c b0be
00000170: e193 bebe ab91 cdbe 1c66 f93e ad30 15be
00000180: 9a2e 36be 6948 413d 415c 9c3d a73c 813e
00000190: 6600 9fbc a093 6cbe d938 ac3d d673 f0be
000001a0: 18bb c33e 6b75 953e b1a5 f23d f47b bbbb
000001b0: 08cb a1be 88eb 8c3e 25cf debe 6ba7 80be
000001c0: c2a3 053f a695 07bf dd36 1dbf c7c8 8f3e
000001d0: 16dc cdbe 140f 483e ac11 e53e 01ff dc3e
000001e0: ff1f a1be 07c8 84be fde8 603e ef5e 81bd
000001f0: 39ac 5bbd 6697 8ebe 6aac 88be 3fe2 f23e
00000200: 0aaa 893e ddea 9f3e 7fb7 ec3e f401 dabe
00000210: 81d7 263e db44 2b3d 37fb a63e 9e0c 053f
00000220: e4ca cdbe 2b25 bbbe 24db 4fbd e866 8f3d
00000230: b18c a43e 5d64 cdbe f9e3 4c3b 1446 edbd
00000240: 668a 1a3f 2a6a e33d 7cf8 923d 2aa0 003f
00000250: ebcf b43a ac5b 0bbf 5d2a 0c3f 2499 59be
00000260: fa31 fb3e d803 fabd 110e 00bf d81d cf3e
00000270: 1452 a63e 94b0 02bf 735c 53be 2373 0c3d
00000280: 89d8 d03e d218 5c3e b103 f73e 00d0 fd3e
00000290: f51b 61bd 323e fe3c 3b68 243d 9246 ed3e
000002a0: db89 9a3e cdab 43be 07d7 783d 373e 18bf
000002b0: 6954 21bd 070e 7f3e c786 dd3e 47ed c2be
000002c0: 9822 05bf 19c3 0fbf 6937 883e 65c5 1dbe
000002d0: 7331 0f3f e8d9 eabe 001f cbbe 9980 ab3e
000002e0: 280c a4be f75a 123d 5c63 b0be 52fc cbbe
000002f0: 8607 ab3e 9d1f e9be 862b 203e cd25 d93e
0.39281172 0.094727576 0.4915875 0.27835646 0.3846957 -0.09845684 -0.2059994 -0.097674295
0.153377 0.27916774 0.16321811 0.023269616 0.2564134 -0.16099723 0.47580668 -0.33897468
-0.33312386 0.12641394 -0.2107992 -0.17726596 -0.12371126 -0.38580686 0.55914783 0.49359232
0.42668933 -0.18240625 0.11744522 0.07020771 -0.37480354 -0.4388248 0.54277337 0.15534429
-0.5026783 -0.5547721 0.06748929 0.47238466 0.27052903 -0.28258616 0.3423685 0.19308819
-0.33692324 0.4384771 0.57010376 0.34851316 0.0038705359 -0.3786944 -0.53254944 0.076358385
-0.2578673 0.020997036 0.21353157 0.15652901 0.48115206 0.4021283 0.5500424 0.027794832
-0.27468005 -0.1175177 0.4470481 0.23549964 -0.06282603 -0.35895166 0.22342612 0.5656342
-0.044246774 0.19169497 0.49474198 0.031654045 -0.45530987 -0.60340446 0.11893447 0.5158831
0.19996585 -0.5200713 0.18856628 -0.3358694 0.14522794 0.100211054 0.32921442 0.19913462
0.24169227 -0.38887802 0.007719132 0.3206636 -0.5037201 -0.407383 -0.002440503 -0.14975584
0.115620665 -0.044283282 -0.29671216 -0.34445524 -0.37222198 -0.40150198 0.48710716 -0.1456935
-0.17791215 0.047188196 0.076347835 0.25241587 -0.01940937 -0.2310319 0.0840928 -0.46963376
0.3822868 0.29191145 0.118480094 -0.0057215635 -0.31600213 0.27523446 -0.43517414 -0.2512773
0.52203 -0.5296272 -0.6141184 0.28082868 -0.40206975 0.19537002 0.44740045 0.43163303
-0.31469724 -0.2593386 0.21963878 -0.06316935 -0.05363104 -0.27849883 -0.26694041 0.47438237
0.26887542 0.31233874 0.46233746 -0.42579615 0.16293146 0.041813713 0.32613537 0.5197238
-0.40193856 -0.36551794 -0.0507461 0.0700205 0.3213859 -0.40115634 0.0031263812 -0.11585632
0.6036743 0.111042336 0.07176301 0.5024439 0.0013794875 -0.54436755 0.5475214 -0.21249825
0.49061567 -0.122077644 -0.50021464 0.40452456 0.32484496 -0.51050687 -0.20640735 0.03428949
0.40790203 0.21493843 0.48245004 0.49572754 -0.054958303 0.031035516 0.040138464 0.46342903
0.301833 -0.19108506 0.06075194 -0.5946993 -0.03938714 0.24907695 0.4326689 -0.38071653
-0.5200591 -0.5615707 0.26604775 -0.15407331 0.5593483 -0.45869374 -0.3967209 0.3349655
-0.32040524 0.035731282 -0.34450805 -0.39840943 0.33404177 -0.45531932 0.15641603 0.42411652

conv2.lin_l.weight f4 [64, 64]
00000000: 5813 00be 0efd b53d ec99 5d3d 91d2 cbbd
00000010: 43b6 0e3d 8a94 98bd 9768 ed3c 11ea dabd
00000020: 41f9 da3d 10e8 f23d 18aa 563d cfcc c5bd
00000030: 94ec 983d 6568 e03c e023 913c 0981 ee3d
00000040: 6d49 49bc a1fc 8fbb 1201 5a3b c5e7 cbbc
00000050: 6a2d a7bd 561e a6bd 3973 2abd f68e a0bd
00000060: 7532 3d3c 12be be3d 0bf2 aebd f29c 793c
00000070: a38f a03d a9be 1639 6221 ba3d b526 e73c
00000080: cb40 77bd 7157 84bc 439b 2fbd 789b 823d
00000090: 1a0c 0fbd 1bae d9bb 7190 8abc 54ff eebd
000000a0: d7e1 a5bd fe4c 453d b51e 0c3d 7d8f fdbc
000000b0: ccdd b53c 1ff4 93bd 98df 1dbd b03b a93d
000000c0: b838 ba3c fa6c 793d 940f 26bc 3e93 e1bc
000000d0: 8129 9d3c 72c0 0a3c 8602 0abe 5843 2dbd
000000e0: a5e0 75bd 4f46 c03c 8b93 abbd a4fc 24bd
000000f0: 84db 123d 7d39 913b 6d63 323d 60dc c6bd
00000100: 3191 d03d 6bb9 033e 8ac7 bc3d 9af2 bfbc
00000110: 8a91 aabd 5c7d 373d 44c3 653d fcce b0bd
00000120: ce7a eebd ff66 eabc a9cd e63d c166 983d
00000130: d83b 93bb da2c 65bc e29d ae3c a7c4 f4bd
00000140: 0328 f2bd c0d3 40bd c434 b23d d0e4 9cbd
00000150: ff7f 6cbd ddc6 32bd 1d03 c33d 7c88 ddbd
00000160: 27b3 d5bd e40b 1e3d ff2c 083e ed81 b23c
00000170: edf7 f83c 8d23 bb3d d29c 37bd cd9e be39
00000180: 0aba 0bbb d4fe eb3c 9155 11bd 64b1 6e3d
00000190: 24a7 053d da8c b1bd 7e70 cfbd 835c f33d
000001a0: 2e3a 4cbd 08a9 6a3d f66f 24bd 2960 89bd
000001b0: 9783 97bd 57a3 26bd 15eb cdbd c38e 753d
000001c0: b0ad d13b 0137 c6bd 4509 163c da12 a83d
000001d0: 91d1 293d c73b 1d3b 18a1 973d 3f93 dbbd
000001e0: 3bc5 fcbd 0877 993d 3bf2 8b3d 6932 e13c
000001f0: 04cd 25bb 541d d3bd e321 8fbd c1e4 e33d
00000200: cfd1 013e 0d38 de3d 70e5 02be ba87 ccbc
00000210: c329 293d 09cb 47bd e515 b73d 4311 acbd
00000220: 5981 863d c24f 063c 24d3 163e e3a4 b2bd
00000230: 50ce 08be 4cc4 8dbc 0506 d43d be60 24bd
00000240: 7508 f6bd 0bf4 af3c 85d7 bfbd ac3b d93c
00000250: 4e6e 953d 043f a33d 7175 b8bc 24fc 2d3c
00000260: f004 923d f1ca 9cba 5663 fb3c 9f25 5bbc
00000270: 4f26 97bc 61f9 f53d 82fc 11bd 4c09 9c3d
00000280: 3e28 b13d d542 f5bd fad4 f63d 338b 8c3d
00000290: d83e a83d 4499 f33c aed6 2b3d 75f7 f8bd
000002a0: eb15 ccbd 3369 a3bd ff18 13bc 97ad b23d
000002b0: 8278 333b 8a9c 80bd 935e 033e 6f0a c03d
000002c0: 917a 30bd c663 d33d 3a06 8ebd f467 94bd
000002d0: 3ed6 d43c d151 5ebd 39fe 9e3b 583f 943d
000002e0: 8a39 d8bc d32e fbbd 4516 f3bd 3a6f 8ebd
000002f0: 139f e13d 2df0 c53a 3052 763d 822e 81bd
00000300: f8fd 9c3d e74a 193d 8e39 cf3c 3a0e c4bd
00000310: 94e4 9c3d 00ca 363d b007 4f3d f0b1 053d
00000320: e874 e7bc 665b f83d a0af 863d ed4e c23d
00000330: 4c69 eb3d 533d 07bd a023 f5bc 00da 05bb
00000340: df07 8e3c d119 8bbc 89c3 8ebd ca0a 97bd
00000350: d64a a03d 72f9 b0bc 9703 85bc 97ab 153c
00000360: 90f0 903d d59f e43b ba71 b7bd 4c3d dcbd
00000370: 1571 f1bd c0c0 8c3d 2de3 523d 76f3 62bd
00000380: 2a03 9c3d d765 963d c0c8 673d 9251 b2bd
00000390: 40d4 963c 3aaf f7bd 4760 b2bc 4fc5 e3bd
000003a0: c5a7 bfbd a318 abbd a30a c2bd 6bf4 803d
000003b0: 6e6b 78bd 05ca 933d 9f8c b53b 5ba6 973d
000003c0: b071 f1bd 97dd da3c 6a26 823d c638 c9bd
000003d0: 0423 e6bd 8789 e23d e40f cebd 61fe a73a
000003e0: af27 c8bb 99e5 ac3c 4a14 b03c 838e 553d
000003f0: 3f7b d4bd 4c99 aa3d 1246 c6bb f299 a73d
-0.12507379 0.08886157 0.05410187 -0.09952272 0.034841787 -0.074502066 0.028980536 -0.10689176
0.10692073 0.11860669 0.052408308 -0.09658205 0.07466999 0.02739353 0.017717302 0.11645705
-0.0122855725 -0.0043941294 0.0033264798 -0.02489079 -0.08162959 -0.08111255 -0.04161379 -0.07839768
0.011547674 0.09313597 -0.0854226 0.015235173 0.078398965 0.00014376141 0.090883985 0.0282167
-0.060364526 -0.016154977 -0.04287268 0.063773096 -0.03492365 -0.0066430694 -0.016914578 -0.11669794
-0.08099716 0.04816913 0.034208972 -0.03095221 0.022200488 -0.07224297 -0.038543314 0.082633376
0.022732124 0.060894944 -0.01013555 -0.02753603 0.01918483 0.008468734 -0.13477525 -0.042300552
-0.06002869 0.023471026 -0.08377751 -0.04028 0.035853878 0.004431902 0.04355185 -0.09710002
0.10183943 0.128637 0.092177466 -0.023431111 -0.083285406 0.044797286 0.056094423 -0.08633229
-0.11644517 -0.028613565 0.11269695 0.07441474 -0.004493218 -0.013987744 0.021315519 -0.11951571
-0.11824038 -0.04707694 0.087014705 -0.0766083 -0.057739254 -0.043646682 0.09522078 -0.10817048
-0.10434561 0.03858556 0.13298415 0.021790469 0.030391658 0.0913764 -0.04482729 0.0003635794
-0.0021320605 0.028808035 -0.035481993 0.05827464 0.0326301 -0.086694434 -0.10128878 0.118828796
-0.049860172 0.057290107 -0.040145837 -0.06707794 -0.07398146 -0.040683117 -0.10054604 0.0599506
0.006398879 -0.0967846 0.0091574835 0.08206721 0.041459624 0.002399193 0.07403773 -0.10721444
-0.12342306 0.074934065 0.06833311 0.027489858 -0.00252992 -0.10308328 -0.06988885 0.11127616
0.12677692 0.108505346 -0.12782836 -0.024967063 0.041299593 -0.048777614 0.08939723 -0.0840173
0.0656764 0.008197727 0.14728981 -0.08722856 -0.13359952 -0.017305516 0.10352711 -0.040131323
-0.12013332 0.021478673 -0.09367279 0.026517712 0.072964296 0.07971004 -0.022516938 0.010619197
0.07129848 -0.0011962337 0.030687016 -0.013375669 -0.018450884 0.12010456 -0.0356412 0.07618961
0.08650254 -0.11975638 0.12052341 0.06862488 0.082151115 0.029736169 0.04195278 -0.12156574
-0.09965118 -0.079790495 -0.0089781275 0.08724516 0.002738506 -0.062798575 0.12829046 0.0937699
-0.04308564 0.10321765 -0.069347814 -0.0724639 0.025981065 -0.054277245 0.004852083 0.07238644
-0.026394624 -0.122647904 -0.11869482 -0.069548085 0.11016669 0.0015101485 0.060136974 -0.06307699
0.07665628 0.037424948 0.025295999 -0.09573026 0.07660785 0.044626236 0.05054444 0.032640398
-0.028253987 0.12126808 0.065764666 0.0948771 0.11494693 -0.033017468 -0.029924214 -0.0020424128
0.017337738 -0.016980084 -0.06970889 -0.07375105 0.07826774 -0.02160332 -0.016237063 0.0091351485
0.07077134 0.0069770613 -0.089572385 -0.10753879 -0.11789147 0.06872702 0.051486183 -0.055407964
0.07617791 0.07343643 0.056587934 -0.087069646 0.018411756 -0.12093969 -0.021774424 -0.11121618
-0.093581714 -0.083543085 -0.09474685 0.06296619 -0.060649328 0.072162665 0.005540445 0.07404777
-0.11789262 0.02671699 0.06354983 -0.09825282 -0.112371475 0.110613875 -0.10061625 0.00128169
-0.0061082463 0.021105574 0.02149405 0.052137863 -0.1037507 0.0833002 -0.0060508335 0.081836596

conv2.lin_l.bias f4 [64]
00000000: c710 c53d aeb9 a0bd 379e c53d 5dd9 ce3c
00000010: a518 933d 1ccc d3bc c14c 093d 60af 08bd
00000020: 4fa1 fcbb 4146 a5bd 3c9c f63d 8e49 c9bd
00000030: 4396 423c c248 c0bc d4ee 03be dc90 973c
00000040: d21b a03d b5f9 8dbd 897b 1f3d c8fd 553c
00000050: 23d4 4bbc db2c c9bd 95e4 bdbc acce 4bbd
00000060: 625d 75bc cdd5 953d 2074 93bd f93e 1bbc
00000070: 0300 d23d 0178 a73c 00f3 b7bd ff6e d1bd
00000080: c0d7 073e 7e05 8fbc 5e43 e33d ba61 e63a
00000090: c3a4 cf3d b515 24bd 76ba e9bc 3f0e aabd
000000a0: 6dac b1bd 074d f6bc f537 bebb 62e4 4ebd
000000b0: e566 4d3c 125e 94bd d806 6fbd 5b07 eb3c
000000c0: 06e1 df3c df52 ee3d 2ead cc3d 74cc d7bd
000000d0: 3f70 ed3d 5738 3b3d 2646 f23c 2ab8 a1bb
000000e0: 1201 a03d fbb4 c5bd 40a1 12bd dad7 af3d
000000f0: 3f86 e6bd cf19 8abd 9a41 0f3d d91e adbc
0.09622341 -0.078479156 0.09649318 0.025250131 0.07182435 -0.025854163 0.033520464 -0.033370376
-0.007709659 -0.080700405 0.12041518 -0.098284826 0.0118766455 -0.023472194 -0.12884074 0.018501692
0.07817806 -0.069323935 0.03893617 0.013060994 -0.012440714 -0.098230086 -0.023180285 -0.049757645
-0.0149758775 0.0731617 -0.071998835 -0.009475463 0.102539085 0.020442965 -0.089818954 -0.10226249
0.13265896 -0.017458674 0.11096834 0.0017576732 0.10138848 -0.040059764 -0.028531294 -0.083034985
-0.08675466 -0.030066026 -0.0058050104 -0.05051077 0.012536739 -0.07244505 -0.058356136 0.02869003
0.02732898 0.116369 0.09993969 -0.10537043 0.11593675 0.045708027 0.029574465 -0.004935284
0.07812704 -0.0965366 -0.03579831 0.08586092 -0.11256074 -0.06743204 0.034974672 -0.021132873

conv2.lin_r.weight f4 [64, 64]
00000000: 817f d43c 88c1 a7bd 6ed2 d03d 9196 d8bd
00000010: 4d62 cebd 5e28 673c aa84 103d bff7 143d
00000020: 6fdd 97bd 4c34 59bd 94d3 10be 0e54 cfbd
00000030: 9080 6e3d 5639 ec3d 56eb 07be 13b7 f93d
00000040: 9e26 c2bd 7734 07bd 1b11 d4bd 1945 a0bc
00000050: 6090 813d 3e90 b5bd 10bc 4b3d 3e56 103e
00000060: 7e97 54bc 8d85 d4bd 18f4 c2bd baa3 8c3d
00000070: a168 e93d 9719 ee3d eb7e 88bd c283 363c
00000080: f6fb 613d 0db4 cbbd 559a bbbd 24b1 0fbe
00000090: c0ad c1bd 8733 59bd e356 13bd e8a7 873c
000000a0: 2335 ad3c 1022 803d bcf7 ee3d af02 fb3d
000000b0: 343d 83bc 2f64 a33c bf90 4cbc f78d 6cbd
000000c0: 8214 0bbe dfad 05be 3434 233d 94be 8cbd
000000d0: f16b a43c 7cf4 9a3d 2be7 b4bd 0da1 3abd
000000e0: 0bc9 dabd 8467 0e3e d3a6 88bc 2934 f63d
000000f0: 440d 0dbe 5c4e 6d3d b864 7bbc 8dd4 bb3d
00000100: e030 cf3c 0f71 033e da3f a73d 02e1 b43d
00000110: b57a ab3d 479f 0c3e 9098 c23d f6cb ca3c
00000120: f077 c7bc 7bbe 02be 24ec 663d 27e0 1e3d
00000130: 4df1 08be fdb4 003e ed76 7e3c 6861 d93d
00000140: c256 ed3d 1ab4 6bbc cd66 40bd f483 0ebd
00000150: c4a2 71bd 56d9 d6bb 167f 97bd 692b b0bc
00000160: 4d36 8c3d bdcc 013e 63ae 86bc f913 fcbd
00000170: 065b c23d a32d 2fbc 0f8c d1bc d65a 453d
00000180: 2fac 663b ddd6 fb3c 6ca0 7d3d 1a3a 38bc
00000190: 439e 93bd f172 ccbc 76ff 88bd 42b2 8c3c
000001a0: 98b1 83bd 0fb4 b7bc 957b c6bc f0d1 6dbd
000001b0: 8165 70bc ece7 023d 3bb3 923d b0f2 55bd
000001c0: 47d6 8dbd a402 f83d 9b05 083e 0fac 67bd
000001d0: 07d0 edbd 8e03 b53d 23e3 123e 4a36 ddbd
000001e0: 227e bcbd b5a7 6fbd 1ff9 c5bc 57b3 92bd
000001f0: 5dd0 433d 0021 2b3a 6097 9abd 2dce cbbc
00000200: b00c ad3c 16ae 003e a87e c1bd 056e ea3c
00000210: 4871 a1bd f966 7c3c 3e26 81bd a0ec 07bd
00000220: 092b ba3d a100 a53d 596c 1b3d 57c6 a03c
00000230: 3575 263d 7816 d43d d915 a13d 7a37 0dbe
00000240: 873f d73d fe96 c23d ae22 be3c 9981 ff3c
00000250: ae1c 833d 1731 053e 38fb b2bd 203e 503d
00000260: 96ed c2bd 59a5 113d 506c 71bc af98 e9bc
00000270: e9b5 bbbb e253 cbbd a569 8f3c da0e b1bd
00000280: 0ead 503d d9bf 48bc dc6d 40bd d80a b53d
00000290: ce31 86bd 6818 f3bd 1d35 c33d 5de3 92bd
000002a0: 89f0 ac3c 3c45 4abd a4e4 a73d 7538 aabd
000002b0: 7124 823c 4902 1339 07b1 f83d c982 d53d
000002c0: 8955 1b3d 0f8b a33d c349 893d 427a 703d
000002d0: c736 d03d cd23 e03c fb38 aabd 7494 e13b
000002e0: b4db 5e3d 4e19 9f3c cfad fd3d 7615 983d
000002f0: a224 6a3d abbd 80bb d908 eebd 7375 583c
00000300: e292 03bd 23a3 9b3d 05f1 da3d b3c2 973c
00000310: 2b68 bb3c f8ab 01be 31b1 dd3d 0a5b 6b3d
00000320: f57f b23c 27e5 c03d c21f 18be dfa2 263d
00000330: ac1d dc3d 35f5 98bd 32f4 dfbd 7abb 613d
00000340: 9fcc 753d a035 e3bd 591f 83bd 109f 843c
00000350: 9a33 203d 3a70 babd b37a 84bd 9e05 f23d
00000360: 75ba 24bd 9967 b2bd f8e7 b13d aa43 df3c
00000370: 51f3 ae3d 0a56 d23d 72d0 c8bc f8cf d1bd
00000380: 202b a73d 0cd5 0c3e e789 ca3c bdf8 d53d
00000390: b436 e5bd 7574 083c ac14 053d 6e5f ea3d
000003a0: cb6b 1d3d 7373 e53c 09d1 edbd c773 2a3d
000003b0: caa5 d2bd 04b7 d43d f115 eebd 8e83 e9ba
000003c0: 5474 323d a6b3 1cbd a8fc 30bd aa84 7dbd
000003d0: b08b 163d 90a0 573d fc33 023c fbb8 35bb
000003e0: bd4c 5cba 5902 483d 39d1 853d e037 8e3d
000003f0: c06a 6c3d e167 b8bd 2157 163d fb90 f13d
0.025939705 -0.0819121 0.10196386 -0.10575593 -0.10077343 0.014108745 0.03528277 0.03636908
-0.07415282 -0.05302839 -0.1414321 -0.10123454 0.058228076 0.115343735 -0.13273367 0.12193122
-0.09480022 -0.03300902 -0.10354825 -0.019564198 0.063263655 -0.08865403 0.049739897 0.14095399
-0.012975572 -0.10377035 -0.095192134 0.06867166 0.113969095 0.116259746 -0.06664833 0.011139812
0.05517193 -0.09946451 -0.09160296 -0.14032418 -0.09456968 -0.053027656 -0.035971534 0.016559556
0.021143502 0.06256497 0.11668345 0.12256371 -0.016020395 0.019945232 -0.012485682 -0.057752576
-0.13582042 -0.13054608 0.039844707 -0.068722874 0.020071002 0.07566163 -0.08833154 -0.045563746
-0.10682877 0.13906676 -0.01668111 0.120216675 -0.13774592 0.057936057 -0.015343837 0.091714
0.02529186 0.12836097 0.081664756 0.08831979 0.08373014 0.13732634 0.09501755 0.02475546
-0.024349183 -0.12767975 0.056377545 0.038787987 -0.13373299 0.12569042 0.015531284 0.10614282
0.11588813 -0.014386201 -0.04697304 -0.03479381 -0.058993116 -0.00655667 -0.073972866 -0.021505075
0.068462946 0.12675758 -0.016440576 -0.12308497 0.094900176 -0.010692033 -0.02557948 0.04818233
0.0035197844 0.030742103 0.06192057 -0.011244321 -0.072079204 -0.024957152 -0.0668935 0.017174844
-0.06430358 -0.022424726 -0.02422885 -0.05806154 -0.014672638 0.03195946 0.07163092 -0.052233398
-0.06925636 0.12109879 0.13283388 -0.056560572 -0.11611944 0.08838569 0.14344458 -0.108013704
-0.092037454 -0.058509547 -0.024166642 -0.071631126 0.047806133 0.00065280497 -0.07548404 -0.024878586
0.021124214 0.12566409 -0.09447986 0.028616915 -0.07882935 0.01540541 -0.06306122 -0.033184648
0.090902396 0.080567606 0.037945125 0.019625826 0.04063912 0.10355848 0.07865495 -0.13790694
0.10510164 0.09501456 0.023209896 0.031189727 0.064019546 0.13007008 -0.087393224 0.050840497
-0.09517972 0.03555808 -0.014735296 -0.028515188 -0.0057284725 -0.09928109 0.01750643 -0.08645411
0.050946288 -0.012252771 -0.04697977 0.08839959 -0.06552468 -0.118698895 0.09531615 -0.07172272
0.02111079 -0.049382433 0.081979066 -0.083115496 0.015886517 0.00014019864 0.1214314 0.10425336
0.03792337 0.07985508 0.06703522 0.058710344 0.10166698 0.027360821 -0.083116494 0.006884152
0.054408744 0.019421246 0.12386667 0.07425968 0.057163842 -0.00392886 -0.11622781 0.013211596
-0.0321225 0.07599475 0.10690502 0.018525457 0.02287682 -0.12663257 0.10824812 0.05745987
0.02178953 0.09418707 -0.14855865 0.04068267 0.10747847 -0.074686445 -0.109352484 0.055110432
0.060009595 -0.110942125 -0.064024635 0.016189128 0.03911171 -0.09103437 -0.064687155 0.11817478
-0.04021688 -0.08711166 0.08686823 0.027253944 0.08542503 0.10270317 -0.024513457 -0.10244745
0.08162522 0.13753146 0.02472396 0.10447834 -0.111920744 0.008328547 0.032490417 0.11443983
0.038432878 0.028009152 -0.11612136 0.04161432 -0.10285528 0.1038647 -0.11625279 -0.0017815696
0.04356797 -0.038257264 -0.0432097 -0.061894096 0.03675431 0.05264336 0.007946964 -0.0027728665
-0.0008403769 0.048830364 0.06534047 0.06944251 0.057718992 -0.09004188 0.036704186 0.11795231

conv3.lin_l.weight f4 [64, 64]
00000000: aed4 5f3d e6c7 cfbc fd09 f4bb e290 9d3d
00000010: edb5 af3b a752 08bd de50 e53c ae2f ccba
00000020: d79d 973b 4a2e c5bd 1d08 1d3d c005 82bc
00000030: 231d 0fbd 4771 e93d c485 f5bb d117 c53d
00000040: ba5a 46bc be64 453d 86c0 5dbd 0005 bb3d
00000050: 29a8 3f3d d131 c13c 1cd4 9fbd ed2b 17bc
00000060: a8cf 13bd 8e1f 10be 53a9 2dbd 8b6a 883d
00000070: 80ea 89bd 0fc3 d2bc aff7 8e3d 8557 bf3d
00000080: aa99 bfbc 953b f3bd 244b 433d 9f10 953d
00000090: c014 f73c 19d0 d4bc e09b a73d 0086 a8bd
000000a0: 5bab e0bc 50b5 0fbe edad f13c 242d 2e3d
000000b0: a7d1 e33d d5a7 653d 0b81 0e3e 545d d03d
000000c0: e56c 3f3d d7c0 ff3d 5e06 963d 212d e7bc
000000d0: 854e 943d ea77 963d 2166 683d b81b c63d
000000e0: b739 b2bd 9797 a83d bde2 d73d b8fd 8cbd
000000f0: 288d c7bc feb7 863d 5d29 a9bd 0015 c4bd
00000100: 2cc8 48bd aa4d d9bd cd09 10be 9b95 b0bd
00000110: 54f0 393d 199a d23d f01d bc3c 5937 e13d
00000120: aedd c73d 09be c1bd 4494 103e e002 9f3d
00000130: f71e 6ebd 7586 b3bc ce48 b1bd 4126 72bc
00000140: 336f f33c c0b2 0b3e a506 a63d 7914 a53c
00000150: 81d7 963d 1db4 4b3d 965b 8d3d ba77 dfbd
00000160: 20ae c93c b531 b23c 7369 623d cad7 3dbd
00000170: 3b95 32bd 30d8 b0bd 2702 ba3d 4ca3 abbc
00000180: 1e7a 5dbd 89c8 043d 67b1 433d 4fb6 5d3d
00000190: cfeb f1bc 090a 313d 6c56 553d 36c4 c93d
000001a0: d81b 36bd 17c5 b03d 9ee9 a7bd 7136 923d
000001b0: 6f25 d4bc fddc a9bd 8258 ac3d a047 32bd
000001c0: 76b8 f8bc 5349 ce3d 5b84 01be 70ac c03d
000001d0: c295 1c3c d213 3dbd a043 a6bd fd9a cb3d
000001e0: bda5 e8b9 788f ab3d e052 b0bd a526 7ebd
000001f0: 9e81 e8bd 0cd8 ce3b 8081 afbc def7 6ebd
00000200: bd2b 9c3d d73d c33d af7a 0a3e c4ec 25bd
00000210: e9d2 a33a 6819 67bd a81a c5bd d524 943d
00000220: 761e 9dbd a7e3 003e 335a 53bd 1e29 be3d
00000230: 923a d2bd 23c5 a1bc 6570 bcbd cc81 25bc
00000240: 77b7 163d 2403 e8bc 4a8d c3bd 57eb a3bc
00000250: 8035 9a3c c23d 603d 00eb cb3c 1e81 a93d
00000260: 0f0b 83bc 9de7 393d 34e8 d63c ea0c 553d
00000270: cb38 26bd dd28 6c3d 81b2 eebd 1699 c63d
00000280: 9411 6a3d 737f d0bd f37b 8ebc 4387 8dbb
00000290: 06a4 0c3c 3b25 cebd 9cb7 a4bc 00a7 41bd
000002a0: ab36 ecbc 8fae e03d a2cf a63c 8c38 dcbd
000002b0: e0c6 d8bc a50d 2abd 34f6 5bbd 0b4c d2bb
000002c0: e09b a7bc c262 97bd e421 ea3d 94e0 c9bd
000002d0: fc37 61bd 0f7b 133e 5510 873c 3732 b53d
000002e0: eed4 b7bd bf78 fdbd 0511 b7bd e596 e43d
000002f0: 2dfc 26bd 1d34 3dbd 5f8a ebbd 553b 2f3d
00000300: 4169 133e 7def ecbd 61fc 71bd 6af8 103e
00000310: 3966 903c f1a0 9fbd 5a50 f5bd 4437 f13d
00000320: 4caa afbd df1c 95bd 4afe 2c3d 31ee 79bc
00000330: 7b6e b23d 3825 6cbc f57b c33d e5d0 19be
00000340: 485d a33b 8512 333d 5d5a 063e 991a 9f3c
00000350: 1e2e c43c 3155 00be cc6f 90bd 7c10 c1bd
00000360: ca0c dabd 3661 8abc ccab dbbc ca69 15be
00000370: 96c1 58bd 8103 ca3d 6196 f8bc 4a83 143d
00000380: 45b0 da3c 3a3f 9f3d 28b8 adbd c8ba b33d
00000390: 66f1 a83d 1271 17bc 655c 09bd 8f01 843c
000003a0: a107 fe3d 2a5e 0cbe c512 ba3c 1db0 6bbd
000003b0: 1091 32bd bbd4 84bd 2ce0 063e 04d8 80bd
000003c0: 5a44 a93d 5ac3 e63b d981 623d 227e de3c
000003d0: 29ee a1bd 8d35 ef3d 2292 013e 7277 bd3c
000003e0: fe8b 203c e0fe 74bd 4b63 c63c 1936 bcbc
000003f0: e183 90bc 4ed2 a5bc c789 c63d 1541 9abd
0.054646187 -0.025363874 -0.0074474798 0.0769365 0.0053622634 -0.03328195 0.027992662 -0.0015578174
0.0046269703 -0.096279696 0.038337816 -0.015871882 -0.034939896 0.11398559 -0.0074927527 0.09623683
-0.012106592 0.04819178 -0.054138683 0.09131813 0.04679123 0.023583325 -0.078041285 -0.009226781
-0.03608671 -0.14074537 -0.04239781 0.066609465 -0.067341805 -0.025727777 0.06980836 0.09342865
-0.023388702 -0.11876599 0.04767908 0.07278561 0.030161262 -0.025978135 0.08184028 -0.082286835
-0.027425459 -0.14034009 0.02950188 0.04252352 0.111239724 0.05606826 0.13916413 0.10174051
0.04673471 0.12487953 0.07325433 -0.028219761 0.07241539 0.073470905 0.056738023 0.09673256
-0.087024145 0.082320385 0.10541294 -0.068843305 -0.0243593 0.065780625 -0.082598425 -0.09574318
-0.049019024 -0.10610516 -0.14066239 -0.08622285 0.04539521 0.10283298 0.022963494 0.10996885
0.09759079 -0.094600745 0.14119059 0.0776422 -0.058135 -0.0219147 -0.086564645 -0.014779628
0.02971611 0.13642406 0.08106736 0.020151364 0.07365323 0.049732316 0.06902234 -0.10911508
0.024619162 0.021752218 0.055276345 -0.04634837 -0.04359935 -0.086349845 0.09082442 -0.02095189
-0.05407154 0.032417808 0.047776606 0.05412894 -0.029531388 0.04322246 0.05208437 0.098518774
-0.044460148 0.08631342 -0.08198856 0.0713929 -0.025896756 -0.08294103 0.08415319 -0.04352534
-0.030361395 0.10072579 -0.12648146 0.0940789 0.009557189 -0.04616148 -0.08118367 0.09941671
-0.00044373973 0.08376974 -0.08609557 -0.062048573 -0.113528475 0.006312376 -0.021424055 -0.058341853
0.0762553 0.095332794 0.13523363 -0.040509 0.0012498769 -0.056420714 -0.09624225 0.07233588
-0.076718256 0.12586842 -0.051599693 0.09285186 -0.10265078 -0.019747322 -0.09201125 -0.010101747
0.03679606 -0.02832181 -0.09548433 -0.02000968 0.018824339 0.054746397 0.02489233 0.0827658
-0.015996484 0.0453869 0.02623377 0.05201427 -0.040581506 0.057656158 -0.11655141 0.096971676
0.05714567 -0.10180559 -0.017393088 -0.004319103 0.008584028 -0.10065695 -0.020107083 -0.047278404
-0.028834661 0.109707944 0.020362679 -0.10752973 -0.026462018 -0.04151692 -0.053701594 -0.0064177564
-0.02046007 -0.073918834 0.114322454 -0.09857288 -0.05498503 0.14402412 0.01648728 0.08847468
-0.0897616 -0.12376546 -0.08938793 0.11161593 -0.040767837 -0.046192277 -0.115010016 0.042781193
0.1439562 -0.11569116 -0.059078578 0.14157262 0.017626869 -0.07794369 -0.119782165 0.11778119
-0.085774034 -0.07280897 0.042234696 -0.015254543 0.08712479 -0.0144131705 0.09545127 -0.15021093
0.004985485 0.043718833 0.13120408 0.019421862 0.023947772 -0.12532498 -0.070525736 -0.09426972
-0.106469706 -0.016892057 -0.026815318 -0.14591137 -0.052918993 0.098639496 -0.030345144 0.03625802
0.02669538 0.077757314 -0.08482391 0.0877586 0.08249168 -0.009243267 -0.03353538 0.016114024
0.12403799 -0.13707796 0.022714028 -0.057541 -0.043595374 -0.064858876 0.13171452 -0.06291202
0.0826499 0.0070423307 0.055299614 0.027159754 -0.079067536 0.11680136 0.12653401 0.023128245
0.009799002 -0.05981338 0.024217268 -0.022975015 -0.01764101 -0.020241883 0.09694248 -0.07531945

conv3.lin_l.bias f4 [64]
00000000: 7b6c 763d 4f31 8dbd 5aee bb3c 4d24 68bd
00000010: 2c7d 9ebd 1d53 bdbc fc32 b1bd c993 96bd
00000020: 884b 3dbd b828 84bc 1a29 21bc cbdb 2abc
00000030: f622 a9bc 1b5f a13d 61d6 fdbc 88e4 4c3d
00000040: 17bd a53c 1ebc 0a3d b007 d6bd cab2 03be
00000050: 8a98 f43d 6cec 9fbd 829b a3bc a750 bb3d
00000060: dac2 653d 0359 913c 72b5 ff3c 7b7f 983d
00000070: 84a6 bbbd 4269 c0bd 9118 18bd b3a4 70bd
00000080: 21a0 a23d 70a8 dc3d 798b 53bd 6c76 2d3d
00000090: 6eac 743c ccc8 17bd 0a9d 6d3d 9e86 cfbd
000000a0: dc64 713c 353b c13d edb3 b4bd 4b7d 593b
000000b0: d6ed fa3c bcc7 bb3d 5b0d c43d a1c8 cc3d
000000c0: 43ba eabd be1f f33d f54f 863c c11b df3d
000000d0: af08 c13d fc0a 613d 479f 37bd bbfb 07bd
000000e0: 2d60 b4bd 5a1a 0f3d edfd 7d3c f22e 6abd
000000f0: 6fc6 acbd fe0b 673d cd44 053e 851a 8ebb
0.06016205 -0.068941705 0.022940803 -0.056675244 -0.077387184 -0.02311092 -0.086523026 -0.073524065
-0.04621461 -0.016132697 -0.0098364595 -0.010428379 -0.020646553 0.07879468 -0.030986013 0.050022632
0.020231767 0.03387081 -0.10450685 -0.12861171 0.11943157 -0.07808766 -0.019971613 0.091462426
0.056094028 0.01774264 0.03121445 0.0744619 -0.0916262 -0.09395076 -0.037132803 -0.05875082
0.079406984 0.107743144 -0.051646683 0.042349264 0.014933689 -0.03705673 0.058011092 -0.10133098
0.014733519 0.09435121 -0.088233806 0.0033186253 0.030630987 0.09168956 0.0957286 0.099992044
-0.11461308 0.11871289 0.016395548 0.108939655 0.094254844 0.054942116 -0.044829633 -0.033199053
-0.088074066 0.03493724 0.015502435 -0.057173677 -0.08436286 0.05640792 0.13014527 -0.0043366575

conv3.lin_r.weight f4 [64, 64]
00000000: e6a1 3dbd 6263 9dbc 9d94 f53b a959 0c3e
00000010: ff2e 15bc 2845 cebd e900 dc3a c9c0 bc3c
00000020: 8fd8 193d bd20 91bd 00c9 5f3d b3fc db3d
00000030: c67f 2f3d 38af a6bd 5285 8bbd b34d 303c
00000040: 2719 f1bd cb43 853d 3284 133e 18a4 71bb
00000050: e5e1 523b 941b 0abe e6dc e6ba 2864 b6bd
00000060: 6819 fb3d 19cb 0cbe d88a f9bd 3bd8 953d
00000070: e598 603d 8806 bebd f909 d1bc 97ba a23d
00000080: 311a 283d 729a 01be 5645 943d 773c 0c3c
00000090: d294 81bd 4fd6 b83d 6acd adbd 520d 2abd
000000a0: dfe7 7dbd 8d7d a3bd 64a3 c23d 952d e438
000000b0: 888d b2bd dc32 bb3d eb32 0fbc 9a91 aa3d
000000c0: cf41 14be 95af a73c 33ac ecba 2b35 c73d
000000d0: 2d79 bebd b145 0d3d d9e1 8e3c 456c c53d
000000e0: 383c cc3d 9047 b33d a6ae b8bc 0881 923d
000000f0: a3b6 1dbd ffc4 143b e7cb e53d fcbf d33d
00000100: 6d8f fb3d cc95 cabd d87b 91bd 62bf 813c
00000110: a6f6 f8bc 3d84 88bd 6408 933d 69e9 983c
00000120: 9c5d 633d 38a7 093d 8702 24bd 6c52 9a3d
00000130: 05e3 163d 4a64 a6bd e14e b13d 2ed3 f8bd
00000140: c8b9 b2bd 211f 383d f15c fd3a 9647 093e
00000150: 2bd6 4e3d 3e05 7abd f56d b03d 6fb4 0abe
00000160: 21e8 0a3c 6c07 e9bc d8d3 a63d 9c12 e83c
00000170: 4b21 babc cb95 813d fb13 95bd af9a 9b3c
00000180: 366e fc3d 59bc 853d 2bd7 bd3d 6f43 3ebd
00000190: c4cf f83c edd6 4abd 764c 2ebc 2c86 b0bd
000001a0: da9b 45bd 59f1 d13d d497 7a3c db59 55bd
000001b0: ba9d 8d3d 7e29 f7bc 218c b93c 3bae 853d
000001c0: 2652 20bb 0443 f43d 78c5 41bd c755 6bbd
000001d0: cc47 f33c 8a02 9b3d 14c2 6abb 2109 a6bd
000001e0: 87c6 d3bd e2f4 d33d 0d23 43bd 3ca9 163c
000001f0: 3692 743b bb22 873d aaaf a23d f7ee ec3d
00000200: 442b 143d 9a76 0a3e 2fcb a13d 441c dc3c
00000210: ed29 8ebd 7f3f ce3d 62ec ad3d c811 13bd
00000220: 2ef5 debd ffa0 053e c707 babd 7223 a13d
00000230: 104a 4e3c f8ca 85bc 332b 6c3c 5b21 dd3d
00000240: 3402 9c3d 399f 0abe f079 11be e47f 053d
00000250: 79fc d43d 7a79 743d c985 883d 0cb4 e33d
00000260: 0a14 06be bdad 913d 5c0e e33d bb82 383d
00000270: ed7c 913b a830 d0bd 67b9 9f3d 14b5 bebd
00000280: 475e b83d a318 fa3c eefa 373c 2d37 c93d
00000290: ab03 c1bd 6cc3 a6bd a0f5 94bd ceee f6bd
000002a0: 8735 99bc 72c0 77bc e40c 91bc 1502 b7bc
000002b0: dce4 edbd 1763 d7bd 2c68 933d 3dde 20bd
000002c0: 1e92 82bd 26ff 803d c710 6e3d 10bd aa3d
000002d0: 9281 50bc 77b3 d2bd a6e0 993a d3ac 293d
000002e0: 8db6 ac3d f27b 6bbd e763 963d 447d fb3c
000002f0: b425 0fbc 82cb 843d bba8 753d 9f0b e83d
00000300: 5a16 babd 978e b6bc 031d a63d 1c10 e93d
00000310: d1f3 433d 2dd1 a53c 6332 203d 84c6 033d
00000320: b55b 94bd 7ac3 32bc dd7b 0c3e d856 8b3d
00000330: f462 d53d f35e 113e 0c1a 4ebc 744e 8c3d
00000340: 00c3 df3b cec6 043e 2359 963d 375f abbd
00000350: 177f a13d d72b b8bd dd3a c3bd 425d 14be
00000360: 54d5 063c 1c0a febd 03a8 6bbd f9e8 abbb
00000370: 5297 6cbc bfcc 8ebd e60c 033e a5f4 1e3d
00000380: b4ec b43d 8681 01bd d3e1 8b3d ff25 a83d
00000390: fc2c f13c 48f0 253d ec09 acbd 1749 81bd
000003a0: c692 3bbd fece 32bd 558b 13bd e4e9 7dbd
000003b0: b956 3e3b f670 cbbc 222a a33d 3a78 8c3d
000003c0: ec1e 82bd d9d6 fb3d 93e0 18be 7dad 5bbd
000003d0: cf5d 0c3e 32db 0cba c83a 7b3d 014a a53d
000003e0: 25af 0c3b f60e 19bd a8d9 a33d 9a58 43bd
000003f0: cb69 d53d 34a9 8c3c 983d 13be 3a91 dd3c
-0.046296977 -0.019212428 0.0074945227 0.13706078 -0.009105443 -0.10071784 0.0016784939 0.023041146
0.037560042 -0.070863225 0.054635048 0.10741558 0.042846464 -0.08138889 -0.06812538 0.010760712
-0.117723756 0.06507071 0.14405897 -0.003687149 0.00321781 -0.13487083 -0.001761344 -0.08905822
0.12260705 -0.1374935 -0.121846855 0.07316633 0.05483331 -0.092785895 -0.02551745 0.079457454
0.041040603 -0.12656572 0.07239787 0.008559338 -0.06327213 0.09025251 -0.08486445 -0.04151661
-0.061988708 -0.07982931 0.095038205 0.000108803775 -0.08718401 0.0914056 -0.008740167 0.083285525
-0.14478229 0.020469466 -0.001805669 0.09726938 -0.09300456 0.03449029 0.017441677 0.096397914
0.09972423 0.08753884 -0.022544216 0.07153517 -0.038504254 0.0022700427 0.11220532 0.103393525
0.12283216 -0.09891853 -0.071036994 0.015838329 -0.030391049 -0.066658475 0.07179335 0.018665986
0.055509195 0.033606738 -0.040041473 0.07535252 0.036837596 -0.08124597 0.08657623 -0.12149654
-0.08726841 0.04495156 0.0019330067 0.13406214 0.050497215 -0.061040156 0.08614723 -0.13545392
0.008478195 -0.028445922 0.08145875 0.028329186 -0.022720953 0.06327399 -0.072792016 0.018994657
0.123257086 0.06530065 0.09269556 -0.04645103 0.030372508 -0.049521375 -0.010638347 -0.08619341
-0.048244335 0.102511115 0.015294988 -0.052087646 0.069148496 -0.030171152 0.022649826 0.065273724
-0.0024463027 0.11926845 -0.04730746 -0.05745485 0.029697321 0.07568844 -0.0035821246 -0.0810721
-0.103406005 0.10349442 -0.04764085 0.009195622 0.0037318594 0.06598421 0.079436615 0.115690164
0.036174074 0.13521805 0.07900082 0.026868947 -0.069415905 0.10070705 0.08492352 -0.03590563
-0.10886608 0.13049696 -0.09083515 0.07868089 0.0125909 -0.016332135 0.014414596 0.10797378
0.07617608 -0.13537301 -0.14206672 0.03259267 0.10399718 0.05968616 0.066661425 0.111183256
-0.13093582 0.07113216 0.11086723 0.04504655 0.004439941 -0.101655304 0.077990346 -0.09311882
0.09002357 0.030529326 0.01122926 0.09824977 -0.09424528 -0.081427425 -0.07273412 -0.12057267
-0.018702282 -0.015121566 -0.017706342 -0.02233986 -0.11615917 -0.10516947 0.071976036 -0.039274443
-0.06375526 0.06298666 0.05812147 0.08336842 -0.0127262045 -0.102881365 0.0011739924 0.041424584
0.08433256 -0.05749125 0.073432736 0.03069938 -0.0087370165 0.064841285 0.059975367 0.113303415
-0.090862945 -0.022284789 0.08111002 0.11380026 0.047839943 0.020241344 0.039110553 0.03217174
-0.07244054 -0.010910863 0.13719125 0.068036735 0.104192644 0.14196377 -0.012579452 0.06850901
0.0068286657 0.12966463 0.0734122 -0.0836777 0.078855686 -0.08992737 -0.09532712 -0.144887
0.008229572 -0.12404272 -0.057533275 -0.0052462784 -0.014440374 -0.06972646 0.12797889 0.03880753
0.0883421 -0.031617664 0.06830182 0.08210372 0.029440396 0.040512353 -0.0840033 -0.06312769
-0.04579427 -0.043654434 -0.03602155 -0.061990634 0.002904339 -0.024834137 0.079670206 0.06858869
-0.06353554 0.12296838 -0.14929418 -0.05363225 0.1370766 -0.0005373239 0.061335355 0.08070756
0.00214667 -0.037367783 0.08000499 -0.04769192 0.10420569 0.017170526 -0.14378965 0.027046788

conv4.lin_l.weight f4 [64, 64]
00000000: 0d56 713d a9c4 953d c956 cf3d 279e 19be
00000010: d6c7 a63c bbca 063e 4353 75bd daba 19be
00000020: 0c09 8dbd 8c07 643d 6557 a33c 93a6 053e
00000030: 6569 12bd 676a 81bd 55f7 d8bd 8846 113e
00000040: 6f20 d6bb 4b78 a5bc a61d 56bd a748 cabc
00000050: 0a86 e1bd 4c7a cb3d 2fc2 5a3d 427f 9cbd
00000060: 5e00 1f3d 76c2 fbbd 6179 4bbd 4582 113c
00000070: 0d81 843d 0965 f03d 06d1 94bd b762 a8bd
00000080: f631 90bd 5c0c c8bc a00b 323d 0af2 153d
00000090: d6bb ce3d e179 33bc 8752 2cbd 1baa cfbd
000000a0: e370 0abe 8db7 c2bb e3da f8bd e4ee a33d
000000b0: c885 58bd 3103 f53c 8a02 973c f8b5 133e
000000c0: 0151 a1bc 4123 7abd c517 08bd cf4d 533d
000000d0: b6ab 113e 9d40 4abd 6566 a13d 9c47 e93d
000000e0: 1b84 d6ba ef3c 1abd cfba debd 8fb5 5c3d
000000f0: c7a4 f83d e94b 64bd 8cb6 0c3d 3e22 a93d
00000100: 3906 c0bd 1fe5 05bd 3ede 9f3c 7778 ab3d
00000110: f23b 893c cb67 103e 795a ff3a 7a48 30bd
00000120: 98b4 74bc 1647 5abd bf28 15bd c1e3 2f3b
00000130: c78e a03c 2593 ae3d acd7 ddbc dd9c 86bd
00000140: 2afd 223d d8cc bc3d 0b9c d43d 3b87 b2bd
00000150: 4d1f 19bd 1733 1e3e ba89 08bd d347 053e
00000160: d3db f23d d331 ad3d 8455 abbd 9762 95bd
00000170: 046e 713b 504b ac39 baec 08be 91c9 0bbe
00000180: 5cd7 b53c edb5 25ba d218 19be 8355 1cbe
00000190: 3832 eebc b1e9 1b3d 1ca2 193e 343f cfbd
000001a0: 0eeb 04be 7e63 de3d 3357 073d 0727 013e
000001b0: 86e9 1abd 345d a5bd 86f2 39bd 6931 e73d
000001c0: dca2 8cbd 3ce4 923d 80d4 ad3d b1bb 32bd
000001d0: 09ec 0a3e ae10 173d a145 0dbd 903a 963d
000001e0: a156 03be 1aa4 85bd 25da a3bd b86f e73c
000001f0: f1b7 c93d e758 183e 08fc d1bd cdb7 b9bd
00000200: 17ba 24be dcf9 8d3d 43da 99bc 977f 01be
00000210: 565f 03bd 2d71 45bc 9a80 66bb e89b 84bd
00000220: 88bc 13be 10af eebd 6810 1ebe fcca c93c
00000230: 9adc a3bd 6038 c03d e482 21be 8d7a 99bd
00000240: f48a 93bd 16f1 3ebd 6e28 9bbc 8545 183d
00000250: 469f 8d3d d931 863d c562 8b3d 18b2 0f3e
00000260: cfd1 253e 912f 0c3d eef5 743d fb8e 643c
00000270: 7ede ff3c 059a 2c3d 9feb 663d 0877 d3bd
00000280: 0013 55bd 5de4 203e 6483 923d 8abd 79bd
00000290: 8fd9 003e a96f 58bd fbab 763d f9b5 9d3d
000002a0: a652 19be 03b4 90bc bd2a f8bd ae1e 443c
000002b0: 1f68 26be f1f0 923d 8496 33bd c8bb 213d
000002c0: b486 f13c 3b7f 083d 604d a03d 236d dbbd
000002d0: 4232 223d 626b 8d3d 6035 c1bd a178 00bd
000002e0: 24a3 dfbd 90ed 3d3b 6f10 993d c41c 813d
000002f0: 0c50 5b3d 3c85 cb3b 5f3c fcbc aa1f bdbc
00000300: 250e 31bd 16e1 af3d 96dd f7bd 99f7 cb3c
00000310: 9224 18be dfdd 9b3b 631b 0e3d b054 33bc
00000320: 3bfb 92bd 6e71 ed3d db1a ce3d f97f a53d
00000330: 020e 213c 38cd cebd 6271 383d 3b1e 28bd
00000340: 33a3 c9bd c2bc c83d 71c7 9a3d 1ed9 7c3c
00000350: bfcf 0e3e 4093 f8bd 4999 013e 9ad7 bebd
00000360: 25f9 573d e428 153e 9572 613c dbe9 0dbe
00000370: 3f1b 123e 8d14 febd 3633 3abd 00f7 b6bd
00000380: f939 f33d d411 813d 7089 de3c 79ef b5bd
00000390: 5a10 04bd 8ecd d2bc c59a 0fbd 24f5 5a3d
000003a0: 6efb 89bd ae9a 253c 6b71 09bd e927 9a39
000003b0: 3f7c 363d b696 173e 9c79 a93d 5e02 74bd
000003c0: 784c 8a3d 16dd 8cbd 4064 653d 3523 e43d
000003d0: ef06 57bd 39c5 c13d 4d92 14be 5593 253d
000003e0: 6523 ff3d a9be abbc b78c 2d3d e3e3 3abd
000003f0: 9ac8 bcbd e8bb c13d ea4f 873d fe47 e4bd
0.058919955 0.073129006 0.10123975 -0.15001737 0.020358961 0.13163273 -0.059893858 -0.15012684
-0.06886491 0.05567126 0.019939134 0.13051824 -0.035745043 -0.06319123 -0.1059405 0.14187062
-0.006534628 -0.020198962 -0.05227437 -0.024692846 -0.11011894 0.09935436 0.053407844 -0.0764146
0.03881871 -0.1229295 -0.049676303 0.008881156 0.06469927 0.11738021 -0.072664306 -0.08221953
-0.07040779 -0.024419956 0.043468118 0.03660778 0.100944206 -0.010954351 -0.04207089 -0.10139867
-0.13519625 -0.005942291 -0.12151124 0.08004549 -0.05286196 0.029908748 0.018433828 0.14424884
-0.019691946 -0.061068777 -0.033225793 0.051587876 0.14225659 -0.049378026 0.07880858 0.113906115
-0.0016366275 -0.037655767 -0.10875475 0.053884085 0.12140804 -0.055736456 0.034353778 0.08258484
-0.09376187 -0.03268921 0.019515153 0.08372586 0.016752217 0.14102094 0.0019481919 -0.04303787
-0.014935635 -0.05329045 -0.03641581 0.0026838633 0.019599332 0.08524159 -0.02708038 -0.06572888
0.039792217 0.09218758 0.10381325 -0.087171994 -0.037383366 0.15449177 -0.03333447 0.1301568
0.118583344 0.08456769 -0.0836592 -0.07294195 0.0036839256 0.0003286251 -0.13371554 -0.1365111
0.022197418 -0.00063213595 -0.14950874 -0.15266995 -0.02907668 0.038064662 0.15003246 -0.10119477
-0.12980291 0.108588204 0.033042144 0.12612544 -0.03782036 -0.08074418 -0.045397304 0.11288721
-0.068670005 0.071724385 0.08487797 -0.043636028 0.13566603 0.03688114 -0.03449023 0.07335389
-0.12826015 -0.065254405 -0.08000592 0.028251514 0.09849537 0.14877664 -0.10253149 -0.0906826
-0.16086613 0.069324225 -0.018780833 -0.12646328 -0.03207334 -0.012050909 -0.0035171867 -0.06475049
-0.14427388 -0.11654484 -0.15435946 0.024632923 -0.08001061 0.09385753 -0.15772587 -0.07494078
-0.072042376 -0.046616636 -0.018940177 0.037175674 0.069151446 0.065524764 0.06805948 0.14032781
0.16193317 0.03422505 0.05980485 0.013950105 0.031234022 0.042139072 0.05637705 -0.10325438
-0.052020073 0.15712114 0.07153967 -0.060971774 0.12582992 -0.052840862 0.060222607 0.07700724
-0.14972934 -0.017663961 -0.12117527 0.011970205 -0.16250657 0.07174862 -0.043844715 0.039485723
0.029483177 0.03332446 0.07827258 -0.107141756 0.03959871 0.06905247 -0.094340086 -0.03136504
-0.109197885 0.002898071 0.074738376 0.06304315 0.053543136 0.006210951 -0.030790506 -0.023086388
-0.04322638 0.085878536 -0.12102811 0.024898337 -0.148577 0.0047566737 0.034694087 -0.010945484
-0.07176825 0.115939006 0.10063716 0.080810495 0.00983 -0.10097736 0.045030005 -0.041044455
-0.09845581 0.09801628 0.07557572 0.015432624 0.13946436 -0.12137461 0.1265613 -0.093184665
0.052727837 0.1456638 0.013760229 -0.1385874 0.14268206 -0.124062635 -0.045458995 -0.0893383
0.11876292 0.063022286 0.027165145 -0.088835664 -0.032242157 -0.025732782 -0.03505971 0.05345644
-0.067374095 0.010107679 -0.03355543 0.00029402904 0.044552084 0.14803585 0.08275148 -0.05957257
0.067528665 -0.06878106 0.05600381 0.11139528 -0.052496847 0.09461445 -0.14508934 0.04042371
0.12457923 -0.020964937 0.042370524 -0.045627486 -0.09217949 0.094596684 0.06607039 -0.11146544

conv4.lin_l.bias f4 [64]
00000000: a38c e03c a50f 72bd c5e8 9b3d d308 8bbb
00000010: c2cb a13d 4986 f7bc 87bf dd3d 6abd 14bc
00000020: f698 febc 9028 6fbd ca77 43bd 8c1b 803d
00000030: c93e b7bd e3f9 d03d 0e8f 293d 5ec1 acbd
00000040: c829 fa3c 8320 af3c 4350 8e3c 9acd 00bd
00000050: 9f4e 573d ca6e b2bd f84b d4bd dc2a a9b9
00000060: ff12 92bd ab88 793d c249 1dbc 406b 97bd
00000070: 7a21 24bd d656 e2bc a811 abbd dc50 3e3d
00000080: bf7a cdbd 75ef b03b 4e8b bfbd 2c1a e6bd
00000090: 340d d13d 6e3b ce3d eab0 cd3d e4f3 9cbd
000000a0: 12f6 fe3d 8c2b 273d d307 32bd 5cec 91bc
000000b0: 7adc 483d 1065 e73d 61b8 4cbd 69d3 543d
000000c0: 7e3c 62bd ea5c acbd ce87 a8bd d4f1 d23d
000000d0: affa 83bd 7cdc ca3c 8b12 3fbd e0d5 df3d
000000e0: ebeb b43c 6389 0cbd 0530 25bd f2ac dd3c
000000f0: 65e0 b0ba 842a cd3d 0470 2ebd 85a7 a73d
0.02741081 -0.05909695 0.07612757 -0.0042429953 0.07900192 -0.0302154 0.108275466 -0.009078363
-0.031078797 -0.058388293 -0.04772166 0.06255254 -0.08947522 0.10203912 0.041396193 -0.08435319
0.030537501 0.021377807 0.017372256 -0.031446077 0.052565213 -0.087125376 -0.103660524 -0.00032266125
-0.071325295 0.060921352 -0.009600105 -0.07393503 -0.04007099 -0.027629297 -0.08352977 0.046463832
-0.100331776 0.0053996393 -0.09352742 -0.11235461 0.102075964 0.10069929 0.10043509 -0.07663706
0.12449278 0.040813014 -0.043464493 -0.0178129 0.049038388 0.11298573 -0.049980525 0.05195943
-0.05523347 -0.084161595 -0.08229028 0.10300031 -0.064442985 0.024763338 -0.046648543 0.10929465
0.02208515 -0.03431071 -0.040328998 0.027060006 -0.0013494609 0.10017875 -0.042587295 0.08186249
