code_agglom_MG/mesh/agglomerate/model_base.pt (torch, 114037 bytes, 16 tensors)

conv1.lin_l.weight f4 [64, 3]
000000 c5 dc 1c 3f c5 4a 00 bf 67 cf a9 be 9d 40 71 bd
       0.6127437 -0.5011409 -0.33166048 -0.05889951
000010 7f c8 7c 3b 73 26 fe be 6d 80 00 bf 6e af 91 be
       0.0038571653 -0.4963871 -0.5019596 -0.28454155
000020 bf ab 3b be 61 81 9c bd a6 84 8f be 55 91 a6 3d
       -0.18327235 -0.076418646 -0.2803089 0.08133189
000030 54 f7 66 3e 0c cb e0 3e 91 c3 1a 3e e2 2c a3 3e
       0.22555286 0.43904912 0.15113665 0.3187018
000040 8e ec 55 3e bb f9 36 be d3 ad 1a 3f ca 6b db be
       0.2089102 -0.17868702 0.60421485 -0.42855674
000050 62 79 3d 3e 5f 25 eb 3d fc f5 c3 be 5f 1f 9a be
       0.18503335 0.11481737 -0.3827361 -0.3010206
000060 6d a5 2e 3e 8b 3b 0d bf 16 97 bb be a6 87 1f 3e
       0.17055292 -0.5516898 -0.36638707 0.1557909
000070 d6 b0 4e 3e c6 86 05 3e 28 5b e1 be 3e 31 9a 3e
       0.20184645 0.13039693 -0.4401486 0.30115694
000080 4b d3 8c 3e 03 22 44 3b cc 9a 92 3c 6d 7d 9c be
       0.27504954 0.00299275 0.017896079 -0.30564442
000090 23 0b 22 3f d3 3b 0c bf 90 64 4f 3e 81 f4 bb 3d
       0.63298243 -0.54778785 0.20253205 0.09177495
0000a0 4b 9b ac bd a0 11 95 3e 5d 4c 12 3f 7d 74 b6 3d
       -0.08428057 0.2911501 0.5714777 0.08908937
0000b0 dd a1 35 3d b1 20 a6 3e 39 48 03 3f 32 0a b8 3d
       0.044343818 0.32446817 0.5128208 0.089863196
0000c0 c1 d9 1f 3e c6 e9 08 bf c6 f3 5f bd aa 4a c1 be
       0.1561041 -0.5348171 -0.05467584 -0.37752277
0000d0 8f 31 48 be ff f0 e0 3d cc b2 43 3e 44 4d bb 3e
       -0.19550155 0.10983466 0.19111174 0.36582386
0000e0 03 3d fe be f3 ca 6c 3e a7 28 e0 be 75 ef 11 3f
       -0.49655923 0.23124294 -0.43781015 0.5700601
0000f0 9e 36 83 be aa 4b e8 3e 98 59 80 be 08 7e 19 bf
       -0.25627607 0.45370227 -0.25068355 -0.59957933
000100 d0 2c 9f 3d 55 56 2d 3d d4 28 3c 3e 3f ff 10 3f
       0.07772219 0.04231866 0.1837495 0.56639475
000110 bb fb aa 3e 47 c7 a2 bd ca 30 b6 be e7 5d a6 3e
       0.3339518 -0.079481654 -0.35584098 0.32493517
000120 b6 b3 b0 be 93 cf 8e 3e d2 97 d8 bd 73 37 92 be
       -0.3451211 0.27892742 -0.105758324 -0.2855793
000130 7f 16 45 be ef 12 de be 5a 69 d2 3e 18 5b 18 be
       -0.19246863 -0.4337382 0.41096002 -0.148785
000140 71 45 f0 be 96 05 0b bf 8f 86 b8 bd db 2f b3 3e
       -0.4692798 -0.543054 -0.0901004 0.34997448
000150 0f 31 07 3e db 7f 4f bd ae 8e 65 be 4f 12 07 3f
       0.13202308 -0.05065904 -0.22417709 0.5276231
000160 d2 64 45 be 00 09 d5 3e 6b 06 b6 be 75 90 e4 bd
       -0.19276741 0.4160843 -0.35551772 -0.111603655
000170 57 09 53 3b 2c 17 05 3f 0c 8d 83 be e5 be 2a be
       0.0032201612 0.5198848 -0.25693548 -0.16674383
000180 83 4f b6 3e e6 25 3b 3e ea 3a 01 bf 1a ef ba 3e
       0.35607538 0.18276176 -0.5048052 0.36510545
000190 e5 96 b2 3e 59 57 dd be a0 28 e1 3e 49 c4 e7 3e
       0.34880748 -0.43230703 0.43976307 0.4526694
0001a0 16 7e ea 3e a1 14 1b 3f 9f 3f a9 3d 67 b6 14 bd
       0.4579932 0.6057835 0.08264088 -0.036306765
0001b0 9c b2 d6 be 97 f9 52 3e e4 3d c3 3e c1 f0 05 3f
       -0.41933143 0.20603023 0.38133156 0.52320486
0001c0 9b 3b a6 3e f5 a6 68 bd 72 0b 3f 3e ef 99 fb 3e
       0.3246735 -0.056799848 0.1865671 0.4914088
0001d0 08 67 ee 3d 74 e1 8f 3e 20 87 e9 be f9 f0 d2 bd
       0.116407454 0.28101695 -0.45610905 -0.10299868
0001e0 28 0e 11 bf 1e 8e cd 3e 3e 48 88 bd 39 c0 13 bf
       -0.56662226 0.4014749 -0.06654404 -0.57715183
0001f0 5c 05 e6 be e1 3a 77 be 59 2c f7 3e 7d 2e 4a 3e
       -0.44925964 -0.24143554 0.48276022 0.19744296
000200 05 45 10 3e 2f f7 ff be 49 c1 9c be cb de 9a be
       0.14088829 -0.49993274 -0.30616215 -0.30248103
000210 b0 9a e9 be a4 c5 97 be a2 29 a2 3e 9f 58 24 3f
       -0.4562583 -0.29642975 0.31672388 0.64197725
000220 95 2a 0d be a9 a8 bc 3e 23 5e bc 3e 6a cb 17 be
       -0.13785775 0.36847427 0.3679057 -0.1482369
000230 43 2e 09 3f c5 f4 ee be 97 89 de 3e 17 14 06 3f
       0.53586215 -0.4667112 0.43464348 0.52374405
000240 15 1e 06 be d0 40 59 bb 96 a9 c4 be 90 a3 08 3f
       -0.13097413 -0.0033150204 -0.38410634 0.53374577
000250 a2 45 76 3e 68 0f 14 bd e0 0b 1b 3f 38 d1 57 be
       0.2405 -0.036147505 0.60564995 -0.21075904
000260 9f 91 c0 3e 9a a7 62 3e 71 5a c7 be f7 63 f8 3e
       0.376111 0.22134247 -0.3893619 0.48513767
000270 cf ad b1 be b0 ae 06 bd 60 94 55 be 7d c4 86 be
       -0.34702918 -0.03288144 -0.20857382 -0.26321784
000280 2f 87 01 3f be 2a 47 3b f1 c0 2d 3d 1f c2 5b be
       0.505969 0.0030390467 0.04242033 -0.2146077
000290 96 fe 01 bf 34 3c ca 3e 86 4e eb 3e da 72 91 3d
       -0.5077909 0.39499056 0.45958346 0.07101984
0002a0 9c 30 20 bf 67 e8 89 be 37 27 d4 3d 90 d8 15 bf
       -0.6257417 -0.2693512 0.10359042 -0.58533573
0002b0 f3 9f ea 3e b5 d8 ba 3e cb d2 40 3e 73 70 aa 3e
       0.45825157 0.3649346 0.18830411 0.33288917
0002c0 d9 55 df 3e ee a5 e4 be ec 1d c6 be 58 a7 7f be
       0.43620184 -0.44657844 -0.38694704 -0.2496618
0002d0 f9 0b 60 be 5d f8 d1 be 4a 23 e3 be 4a e1 9f be
       -0.21879567 -0.410098 -0.4436286 -0.3122657
0002e0 ca ef de 3c cf 41 03 3f a1 ba a9 bd e6 fa 9e be
       0.02721395 0.5127229 -0.0828755 -0.31050795
0002f0 fa 7f 0b be b7 05 4a bd a1 5a 9c be 30 87 a7 bd
       -0.13623038 -0.049321856 -0.30537894 -0.08180082

conv1.lin_l.bias f4 [64]
000000 33 76 0b be 30 e5 95 bc ba 6e c2 3e 23 74 0f be
       -0.13619308 -0.018297762 0.37975103 -0.14009146
000010 59 d4 81 be 68 9c 1a 3e 27 68 ef be 3d 94 1f 39
       -0.2535732 0.15098727 -0.4675915 0.00015218645
000020 b4 78 06 3f c1 5a c6 3b c0 f6 0a 3e 75 a6 d8 be
       0.5252793 0.006053299 0.1357069 -0.42314497
000030 84 3e 93 3e e7 a1 36 3e 0a 76 e6 be 55 42 70 3e
       0.28758633 0.17835198 -0.45011932 0.23462804
000040 ba e4 c9 3e 19 e7 99 3d 70 2d f5 3e c5 cb e8 be
       0.39432317 0.075147815 0.4788623 -0.45467964
000050 46 8d bb bc d0 7f 92 be a3 0d a4 be 70 c0 bf 3e
       -0.022894513 -0.28613138 -0.32041654 0.37451506
000060 63 dc ee 3e 81 9d ae 3e d2 cd e3 3e 6f 4a cf 3e
       0.46652517 0.3410454 0.44492966 0.40486476
000070 a8 df dc be b0 31 00 3d 77 cb 94 3e d2 00 bf 3e
       -0.43139386 0.031297386 0.2906148 0.37305313
000080 f2 2a d1 3e c9 f7 f2 3e 9e 1a da 3b 74 52 cf be
       0.40853077 0.4745467 0.006656005 -0.40492594
000090 e1 6a 88 be a8 b1 99 be 4c 38 f4 3e 80 c5 49 3e
       -0.26644042 -0.30018353 0.476992 0.19704247
0000a0 df 59 d8 3e 0f 02 cd 3e 08 a9 95 bc 97 27 0c 3f
       0.42256066 0.40040633 -0.018269077 0.5474791
0000b0 ec 1b fa 3e 20 56 33 bd 48 c0 07 3f 4a a6 94 3e
       0.48849428 -0.043783307 0.5302777 0.29033118
0000c0 91 ac 79 3e f1 b5 da 3e e5 b8 e6 3d 8f 2e 85 bd
       0.24382235 0.42716935 0.112657346 -0.06503021
0000d0 51 ba e9 be 57 69 b1 be 0e 92 99 3d 78 88 cf bd
       -0.4564996 -0.3465068 0.07498561 -0.10133451
0000e0 15 3b 84 3e 01 c0 b9 3e 57 2d d2 bd 7a d1 a2 3e
       0.25826326 0.362793 -0.10262554 0.31800443
0000f0 81 1d be 3e b6 17 bf bd 0e f4 2c 3d c8 86 0c be
       0.37131885 -0.093306944 0.042224936 -0.1372329

conv1.lin_r.weight f4 [64, 3]
000000 40 a5 dd 3e f7 cc 01 bf 69 c9 ba 3e 34 ef 6f be
       0.43290138 -0.50703377 0.3648179 -0.23431093
000010 62 05 c4 3e be 4b 8b be d8 7d e0 bd 6a 1b 08 be
       0.38285357 -0.27206224 -0.10961503 -0.13291708
000020 7f b5 ff 3c 16 47 f3 3e cf 7e bc be f6 10 dc 3d
       0.031214474 0.47515172 -0.36815497 0.107454225
000030 8c 81 a0 3e b9 e4 7a bc 29 ed b1 3e 46 53 dc 3d
       0.31348836 -0.015313321 0.3475125 0.10758071
000040 fd cf bf 3e ce a8 e1 be d3 b2 c0 3e d5 81 bb 3e
       0.3746337 -0.440741 0.37636432 0.3662249
000050 ae 32 4c be e9 a3 f4 be d9 4f ca 3d bb 1d 7f be
       -0.19941208 -0.47781304 0.09878511 -0.24913685
000060 df 32 18 bf cd 96 b8 3d 91 07 f7 be 0c a8 8d be
       -0.59452623 0.09013138 -0.4824796 -0.27667272
000070 d3 29 19 3e 1d 37 b6 be 67 04 08 bf b6 81 ea be
       0.14957361 -0.35588923 -0.5313172 -0.45802087
000080 87 ca b8 be 45 10 df 3e 9c 2a 03 3f d7 31 ed 3e
       -0.36092016 0.435671 0.5123689 0.46327087
000090 3e 99 8c 3e 99 7c fa 3e 5a 8e 9c 3d ed 5c 1b 3f
       0.27460665 0.48923185 0.07644339 0.6068867
0000a0 58 cc 82 bd 35 49 14 bf 57 6c a5 be 3a c8 b0 bd
       -0.06386632 -0.57924205 -0.3230922 -0.0863194
0000b0 ee c1 09 3e 51 dc 0d 3e 78 0c c6 be c7 0c 85 bd
       0.13452885 0.13853575 -0.38681388 -0.06496578
0000c0 76 c8 e2 3e 09 07 1f 3e 76 ed d8 3d 57 a9 5d be
       0.44293565 0.15530027 0.10592167 -0.2164663
0000d0 02 f2 67 bd fc bd 78 3c 69 ae b1 3e 36 7e 3b be
       -0.05662728 0.015182015 0.34703377 -0.18309864
0000e0 ab b8 2e bd ee ca f5 3e 5b e1 fc be 28 08 f6 be
       -0.04265658 0.48006386 -0.49390683 -0.48053098
0000f0 e4 0d 91 be 19 2c 9f 3d ee 3d bf be 4c c5 25 be
       -0.2833091 0.07772083 -0.37351936 -0.16188544
000100 4b 5f 03 bf 1f 86 6c 3e b9 85 19 bf bc 5d f0 be
       -0.5131728 0.23098038 -0.5996967 -0.46946514
000110 6e 5b 85 be 14 51 1a 3f 93 30 2f 3d be d0 87 3e
       -0.26046318 0.60279965 0.042770933 0.26526445
000120 09 08 2e 3e 3b 1d f5 3e c3 04 fc be 3f ce 03 bf
       0.16995253 0.47873864 -0.49222383 -0.5148658
000130 1b 5c bf bd 0c eb da bd 54 f5 0e 3f c6 2e 92 be
       -0.093437396 -0.10689363 0.5584309 -0.2855131
000140 2a 80 55 be 79 eb 12 be 52 d3 c2 3e a2 db 02 bf
       -0.20849672 -0.14347638 0.3805185 -0.51116383
000150 24 b4 42 be 96 03 d6 bd 12 df 4f bc c2 a6 02 3f
       -0.1901403 -0.10449903 -0.012687461 0.510357
000160 8c 0c 02 bf 19 4d 97 3e bd 7b 2f 3c 01 da 56 3e
       -0.50800395 0.29551008 0.010710654 0.209816
000170 8d f1 01 3f e8 0c 60 be c1 5c f4 be 60 13 79 3d
       0.507592 -0.21879923 -0.47727016 0.060809493
000180 4f 5e 87 3e 0f 33 ae 3d 31 a1 cc 3e 4a fc 91 3e
       0.2643914 0.085058324 0.3996673 0.28512794
000190 22 dd f2 be f9 ff b9 be a1 b5 2a 3d f2 90 ee be
       -0.47434336 -0.36328104 0.04167712 -0.4659496
0001a0 da 1f e7 3d c6 d9 02 3f 65 f8 68 3e 02 57 21 be
       0.11285372 0.51113546 0.22751005 -0.15755847
0001b0 24 c9 0c 3e c3 16 a9 be 21 4d 4e be 2c 28 49 be
       0.13748604 -0.33025178 -0.2014661 -0.1964423
0001c0 99 80 b8 be bd ac a2 bd 90 8f cd 3e 91 4c 95 3d
       -0.36035612 -0.079431035 0.40148592 0.072899945
0001d0 a3 8f 05 bf fc ec ce be 2e 90 3a 3e c4 ba 19 3f
       -0.521723 -0.4041518 0.18219063 0.60050607
0001e0 f9 52 75 3e 20 08 d6 bd 51 73 87 be 98 47 90 be
       0.23957433 -0.104507685 -0.26455167 -0.28179622
0001f0 b1 2b 7a 3e e4 00 8d 3e 27 01 90 3d 4c cd bf be
       0.2443073 0.27539742 0.0703147 -0.37461317
000200 8c 20 ad 3e d2 10 1a 3f d0 5f 13 3f 5c 83 1b be
       0.33813894 0.60181916 0.57568073 -0.15186828
000210 00 fb 13 3a 0f 0c 86 bd df c1 dd 3e 8f fa 46 3d
       0.0005645007 -0.06545269 0.43311974 0.048578795
000220 dc 03 fb be cf 66 c6 be b0 38 03 bf be 62 de be
       -0.49026382 -0.38750312 -0.51258373 -0.4343471
000230 8b 78 c9 3e 7b 88 9d 3e 6f b7 ea 3d e6 31 96 be
       0.3934978 0.3076819 0.114607684 -0.29334944
000240 2e aa d7 be 2d 91 49 be 53 b2 cc 3e 24 10 b6 be
       -0.42122024 -0.19684286 0.399798 -0.3555919
000250 98 02 db be 96 ce 00 bf fc 4e 5e 3d 37 ee 67 3e
       -0.42775416 -0.50315225 0.054274544 0.22649466
000260 f7 34 db 3e 3e c1 d0 3e 46 2a 39 3d 53 87 de 3e
       0.42813846 0.40772432 0.04520633 0.4346262
000270 52 37 30 be 8a c6 53 3c 92 c7 83 3e 44 cf 06 bf
       -0.17208603 0.012925753 0.25738198 -0.5266001
000280 c9 8e 67 bd ff 6f fd 3e 3a 92 8b be 40 d9 bc 3e
       -0.056532655 0.4949951 -0.2726 0.368845
000290 f0 5c fa bc 37 e2 6f 3e ce e7 fb 3e 7d 27 d6 3e
       -0.030561894 0.23426138 0.4920029 0.41827002
0002a0 1e 65 ce ba 59 e8 14 be 26 9d 8c 3e f5 f8 61 bc
       -0.0015746688 -0.14541759 0.27463645 -0.013792266
0002b0 d7 6c 01 bf 7b 65 ad bc 82 20 1e 3f 4d 09 83 3e
       -0.505567 -0.021166554 0.61768353 0.25593033
0002c0 80 bf 9d be 74 7e e7 3d 13 b4 04 3f e2 fa 5a be
       -0.30810165 0.11303416 0.5183727 -0.21384767
0002d0 57 72 45 bc c8 1d 26 be 83 c8 15 3f 97 74 08 bf
       -0.0120511865 -0.16222298 0.5850908 -0.533029
0002e0 35 58 cc be f2 7b ca be 79 46 08 bf 19 2f 08 bf
       -0.39911047 -0.39547688 -0.5323253 -0.53196865
0002f0 0a 24 f4 3e 20 97 1b bf 24 00 06 3e 22 2f 51 be
       0.47683746 -0.60777473 0.13085991 -0.20428136

conv2.lin_l.weight f4 [64, 64]
000000 07 fc f0 3b 43 5f 8f bd 16 43 c4 3d 39 1d 1e be
       0.0073542628 -0.070005916 0.09583108 -0.15440835
000010 82 2e e1 bc 84 f6 6c 3b dc cb 1d bd 58 ff 44 3d
       -0.027487997 0.0036157677 -0.038524494 0.048095077
000020 20 fa a0 3d f0 d6 a9 bd a0 cd 1c 3e 1e 76 2c be
       0.078602076 -0.08292949 0.15312815 -0.16841933
000030 39 85 74 3d d5 8c d1 bd 5a c9 b8 3c f5 2b d0 bd
       0.059697364 -0.1023194 0.02255695 -0.10164634
000040 69 59 22 be 49 b6 82 3c 6c 57 f4 bd d1 07 ca bd
       -0.1585442 0.015956061 -0.11930737 -0.09864772
000050 04 3d 84 3d 02 0e 0c 3e 0d f8 03 bd 1e 83 fe bd
       0.0645695 0.13677219 -0.03221898 -0.12427352
000060 c8 f1 d9 bd af e9 7d 3d 99 31 18 be aa ec 96 3c
       -0.10641819 0.061990436 -0.1486267 0.018423397
000070 cb 01 3c 3d d4 3c c4 3c 76 e6 2e bc a7 0d 78 bc
       0.045900147 0.023954786 -0.010675063 -0.015139974
000080 81 3b 9c bc 30 95 1a be ec d8 c2 bd d4 e6 22 bc
       -0.019071342 -0.15095973 -0.09514031 -0.009942729
000090 66 aa 35 bd a0 fd d4 bd ab bb 24 be bf 17 57 bd
       -0.044351958 -0.10399938 -0.16087215 -0.05251288
0000a0 da 44 bd 3d de 8f 18 3e e0 9f cc 3c 2f 38 2c 3d
       0.09241648 0.14898631 0.024978578 0.04204577
0000b0 04 63 c5 3d 61 c9 22 be 3b 6e 65 bd 16 ba c0 bd
       0.09638026 -0.15897132 -0.056013327 -0.09410493
0000c0 9f f8 18 3e a3 58 2a 3c a3 18 50 bd dc 7a 8b bd
       0.14938591 0.010397109 -0.050804745 -0.06810543
0000d0 33 54 03 bc 21 8e 19 3e 08 b5 0e 3e 79 81 5b bd
       -0.00801568 0.14995624 0.13936245 -0.05359027
0000e0 81 a3 04 3e 8c 11 a6 3d 14 8f 8a bd e3 41 10 bc
       0.12952997 0.081088156 -0.06765571 -0.008804771
0000f0 17 1b 83 bd b3 4f bf 3d d0 38 f6 bc 1b 86 13 3e
       -0.06401651 0.09341373 -0.030056387 0.14406626
000100 53 75 32 bd df d3 8b bd 05 47 f2 bd 2c 99 af 3c
       -0.04356892 -0.068275206 -0.11829952 0.021435343
000110 71 d7 0e 3d 5e 9d a3 3d 52 96 9f bd 59 a8 04 bc
       0.03487343 0.07989 -0.07792343 -0.008096778
000120 32 2b 84 3d 21 bf a6 bd 14 10 00 be d1 f6 56 bb
       0.06453551 -0.08141924 -0.12506133 -0.0032800923
000130 90 8f 45 bd 42 b0 a5 bd b5 91 8d bb 18 44 b2 3d
       -0.048232615 -0.08090259 -0.004320348 0.08704394
000140 fe 74 f5 3d ab 4e 7e 3d 46 96 b2 3d 2b ad 32 3d
       0.11985205 0.062086742 0.08720069 0.043622177
000150 95 28 d3 bd a5 fa ad 3c af 8e 08 bd ca 39 c4 3d
       -0.10310475 0.02123768 -0.0333392 0.09581335
000160 35 7e d2 3d 9f 95 07 be 81 a3 a1 bc 3b 40 7e 3d
       0.10277978 -0.1324067 -0.019731285 0.062072974
000170 6c 4f cd bd b3 38 b1 3d a9 01 07 be c4 9b 32 3d
       -0.10024914 0.08653393 -0.13184227 0.04360558
000180 4a be 1b 3e ce 95 5a 3d 89 fe fa 3c 81 97 28 3e
       0.15209308 0.05336552 0.03063895 0.16464044
000190 bb 7b c1 bd 40 84 93 bc f7 1c 45 bb a0 16 9f bd
       -0.09447428 -0.018007398 -0.003007708 -0.07767987
0001a0 9b 77 82 3d 33 60 01 be 25 da c4 3d 68 81 88 bc
       0.06370469 -0.12634353 0.0961192 -0.016663268
0001b0 54 16 ae bd 39 38 81 3c 7b 9a 38 3d fd 74 10 be
       -0.085003525 0.01577388 0.0450692 -0.14107127
0001c0 01 4c 15 3c 35 9b 0e bd 7b 98 f7 bc 4e 6f d5 3d
       0.009112359 -0.034815986 -0.030224076 0.1042162
0001d0 6d a3 14 be c8 23 83 3d bb 75 38 bd 75 e1 b3 bc
       -0.14515467 0.06403309 -0.04503415 -0.021958092
0001e0 3e f2 a8 3d ad 66 90 bc 93 56 4f bc d2 d6 87 bd
       0.08249329 -0.017627085 -0.012654918 -0.066327706
0001f0 7b cc 97 bc 3d cf 43 bb 9e 6c f3 bd 82 b7 18 3d
       -0.018530121 -0.0029878162 -0.118859515 0.03728438
000200 f3 f8 4f bd fa 50 b8 bd cb f3 51 bd b3 3e 4a 3c
       -0.050774526 -0.0899982 -0.05125789 0.01234405
000210 a6 62 31 bd a7 7c bc 3c 52 73 ce 3d 7b 4b 1f be
       -0.04330697 0.023008658 0.10080589 -0.15556137
000220 d6 63 46 bd 31 4d 80 bd bf 6f 13 be 42 d7 1b bd
       -0.048435055 -0.06264723 -0.14398097 -0.038047083
000230 cb c3 16 3e 8c dd 2f 3e 3d 95 88 bd 41 93 ba 3d
       0.14723127 0.17174357 -0.0666909 0.09110118
000240 e0 ee ab 3d 90 0d e8 bd 8a e9 e4 3b 4d 2b a7 ba
       0.08395171 -0.11330712 0.006985848 -0.0012753994
000250 2e bc 2f bd 73 18 99 bc 78 95 d9 bc 6d 47 11 bd
       -0.04290407 -0.018688416 -0.02656053 -0.035468508
000260 0a 02 ba bd 77 b4 41 3d d0 c4 0a bd ee 25 4c bd
       -0.0908242 0.047291245 -0.0338791 -0.04984086
000270 c9 c4 aa bb df 30 ad 3d b6 aa 1a be ea 00 83 3d
       -0.005211447 0.08456587 -0.15104184 0.06396659
000280 ac 97 04 3e bf 03 d4 3d 06 5a 57 bc f8 c8 2d bd
       0.12948483 0.10352277 -0.013144022 -0.042427987
000290 6d 66 94 3c 48 e1 2a 3e 25 df a9 3b 41 06 c6 bd
       0.018115247 0.166875 0.0051840716 -0.096691616
0002a0 11 91 0a be 97 1f f6 bd 52 e8 d5 3d a7 33 05 3e
       -0.13531901 -0.12017744 0.10444702 0.13007985
0002b0 b4 ee 76 bb e2 d5 7e bd 0e ab b3 bc c1 75 b3 3d
       -0.00376789 -0.062215693 -0.021932151 0.08762694
0002c0 b8 28 1d be 7f fa 09 3e 1b 4b 28 bd ac 12 cd 3d
       -0.15347564 0.13474463 -0.04108725 0.10013327
0002d0 b6 dc 3b bd 0d fe 02 be 29 a8 70 3d b8 64 71 bc
       -0.045864783 -0.12792225 0.05875412 -0.014733486
0002e0 6e f8 fd bd cb 4f be bd 67 a1 15 3e 75 10 aa 3d
       -0.124009 -0.09292563 0.14612351 0.0830392
0002f0 1a 58 f8 bd 24 40 10 be 31 64 fa bb 1b f6 8e 3d
       -0.12126179 -0.14086968 -0.0076413383 0.06980535
000300 13 56 d0 3d bf 86 ca bc 21 d6 83 bd 2b ba 06 3e
       0.10172667 -0.024722455 -0.06437326 0.13156955
000310 64 e2 23 3e ff 3b c9 3d b8 3e b5 3d 4a 93 f2 bc
       0.1600433 0.098258965 0.08849853 -0.029611249
000320 6f 34 0f be 18 e3 55 bd 3d 61 2b be e7 61 ec 3d
       -0.13984846 -0.052218527 -0.16736312 0.11542111
000330 0c 78 30 bd 28 5a 07 3e c3 66 90 3d 0d 61 0a 3c
       -0.043083236 0.13217986 0.0705085 0.00844599
000340 5f 9c b8 3d 6d 51 30 be 92 65 08 bd 72 1c 05 3d
       0.090142004 -0.17218561 -0.03329999 0.03249783
000350 31 cd 87 bd e1 64 0f be 4c c6 62 3c 22 9e cf 3d
       -0.06630934 -0.14003326 0.013841223 0.10137583
000360 89 7f 79 bc 68 42 1d bd 40 e1 81 3d 95 7f 26 be
       -0.015228161 -0.038393408 0.06341791 -0.16259606
000370 a3 3c b2 3d ea 6e 44 3d a5 58 23 bd 0f 90 d3 bc
       0.08702972 0.04795734 -0.03987946 -0.025825528
000380 69 64 02 3d 19 d7 5b 3d 59 73 1b 3e fc 41 27 3d
       0.03183404 0.05367193 0.1518072 0.040834412
000390 35 ee 12 bc 56 4e a4 3d 7d 57 3d bd e1 5b 3d bb
       -0.008967926 0.08022754 -0.046226013 -0.0028893875
0003a0 f9 e3 63 3d f2 26 18 be a8 dd b1 3d 55 22 e6 3d
       0.055637334 -0.14858606 0.08684856 0.11237017
0003b0 fc 34 de bd 12 94 22 bc 71 d2 e9 3d 97 55 da bd
       -0.1084995 -0.009922998 0.11417092 -0.10660856
0003c0 ef 00 90 3d c3 f4 32 3e 38 ca f5 3c a2 4a 21 3e
       0.07031428 0.17476182 0.030003652 0.15751126
0003d0 30 8a d1 bd 05 25 61 3d 61 4e c5 bd c9 26 c5 bc
       -0.10231435 0.054966945 -0.0963409 -0.024066346
0003e0 a8 ee cb bd b1 45 26 bd 67 0c 12 3d d2 77 14 be
       -0.099576294 -0.040593807 0.03565636 -0.14498833
0003f0 b9 26 06 3d 9a 16 7d bd 21 56 ed 3c f4 54 17 be
       0.032751773 -0.061789133 0.028971734 -0.14778501

conv2.lin_l.bias f4 [64]
000000 eb 0f fe 3d 0a 1e e0 bd e7 01 06 3e 73 45 65 bc
       0.1240538 -0.109432295 0.13086663 -0.013993609
000010 8a ee 09 bd 15 ed 42 3d 37 46 e2 3d fb 6f 39 3c
       -0.033674754 0.04758938 0.11048549 0.011318202
000020 37 98 9d bb ae a6 a4 3d 7f af cc 3d 38 41 8d bd
       -0.004809405 0.08039604 0.09994411 -0.06897205
000030 ab a6 f1 3d 16 05 1f bd 16 3a 06 3d 71 e3 14 3e
       0.117993675 -0.03882321 0.03277024 0.14539887
000040 ed e6 8d 3d 34 c7 bd bc 1c e0 aa 3d 49 69 93 3d
       0.06928811 -0.023166277 0.08343527 0.07197816
000050 9e cc ce 3c 9c 1c cb 3d 93 3c e1 3d 02 8e ff bc
       0.025244053 0.09917566 0.10997882 -0.031195644
000060 02 f3 bc 3c 71 8f 3d bc 43 2c 77 3c 9c 5b c3 bd
       0.023065094 -0.011569844 0.015086236 -0.095389575
000070 85 58 6d bd c9 5e ce bd 00 45 e6 3c 61 dc 52 bd
       -0.057945747 -0.100766726 0.028109074 -0.0514797
000080 ff eb 76 bd b6 d1 1d 3e f5 08 b7 3c d0 69 ae bd
       -0.060283657 0.1541203 0.022343138 -0.08516276
000090 34 bd 88 3c 19 07 4e 3d 10 00 e4 bc e1 51 18 be
       0.016691782 0.050299738 -0.027832061 -0.14874984
0000a0 49 ce c5 3d 27 9f 1d 3d 91 80 6f bc 5a 63 09 be
       0.096584864 0.038481858 -0.014618055 -0.13416806
0000b0 88 b4 a4 bd d4 32 c6 3c 4f 69 80 bd 53 84 7c 3d
       -0.08042246 0.024194159 -0.06270086 0.06164963
0000c0 65 99 8b 3c 43 08 0e 3b 46 34 00 3e 03 7e c6 3d
       0.017040918 0.0021672405 0.1251994 0.096920036
0000d0 98 18 04 3e 9e 76 f9 3b 79 11 01 bd 1f 7b c6 bc
       0.12900007 0.007613017 -0.031510804 -0.02422863
0000e0 bb 60 d1 bd 7b c8 58 3d c9 5c cc bd d5 84 2b 3c
       -0.10223528 0.052925568 -0.09978635 0.010468681
0000f0 7b 32 50 bd e2 82 d3 3d 38 e4 13 3d 32 2d fe 3d
       -0.050829392 0.10327698 0.03610632 0.12410964

conv2.lin_r.weight f4 [64, 64]
000000 c3 e8 2d be 9d f8 f2 bc b9 04 e5 3d 78 20 44 3c
       -0.16983323 -0.029659564 0.111825414 0.011970632
000010 03 e1 56 bd 3c 72 7d bd 56 08 4b bd 7f 7e bd 3d
       -0.05246068 -0.06187652 -0.049568497 0.09252643
000020 d6 ed 83 bd 08 38 03 3e 9a 68 13 3c 2e 74 88 3d
       -0.06441848 0.12814343 0.008997107 0.066627845
000030 c9 dd e8 3c 11 3d 05 be 9e 6a fc 3c fc 53 38 bc
       0.028426068 -0.13011576 0.030812558 -0.011250492
000040 a1 9f 0f 3c d9 9b 7f bd 3a 4c 15 bd 63 b6 df bc
       0.008766086 -0.062404487 -0.03644965 -0.027308648
000050 32 ba 95 bb 36 f8 25 3e 31 e9 3c 3d d4 46 19 be
       -0.0045693154 0.16207966 0.046120826 -0.14968425
000060 a8 e4 c2 3d 46 d4 05 3e 87 46 b5 bd 2d bb 6b 3d
       0.09516269 0.13069257 -0.08851343 0.05755155
000070 7e 51 e2 bb 5b 4c 8f bd b5 c8 43 3c 51 f3 2c 3d
       -0.0069066873 -0.069969855 0.011949708 0.042224232
000080 2c a6 0e bd f6 6c 1c bd 1d 56 0d be bf f2 92 3d
       -0.034826443 -0.03818985 -0.13802381 0.071752064
000090 dd cb 0c 3d 99 ca fe bd a4 d2 6e bd c8 0c a6 3d
       0.034374107 -0.12440986 -0.05830635 0.081079066
0000a0 25 e2 8d bd 5a da b5 3d f3 03 06 3d 44 b2 1a b9
       -0.06927899 0.08879538 0.03271861 -0.00014752994
0000b0 0f d2 b6 3d db eb 6d bd 6e dd c4 bd f0 a4 08 3e
       0.08926784 -0.058086257 -0.09612547 0.13344169
0000c0 79 36 2e bd ab 40 c9 bd 14 cc dd bd 10 5c c1 bd
       -0.042532418 -0.098267876 -0.108299404 -0.09441388
0000d0 39 4c b6 3d 69 1a cb 3d 24 72 dc 3d ce 83 8e 3c
       0.08901257 0.09917147 0.10763958 0.017396834
0000e0 73 c6 be 3d ba c6 70 3c bf ae 22 be 44 3d 53 3c
       0.09315195 0.014695818 -0.15886973 0.012893025
0000f0 07 d9 b2 3d 20 cb a7 bc fc 80 f6 3c 5d 81 cf bc
       0.08732801 -0.0204826 0.030090801 -0.02533024
000100 7a fd b4 bc bb 63 8a 3d 4f 9b da bd fb 14 b5 3d
       -0.022093523 0.06757303 -0.10674154 0.08841892
000110 2d f5 b7 3d 28 41 a8 3d 9d 1e 01 3d e3 a8 e1 bc
       0.089823104 0.082155526 0.031523336 -0.027546352
000120 32 99 b7 bd 29 02 4c 3b d8 37 45 3c 51 cf 03 3e
       -0.089647666 0.0031129217 0.01203724 0.12872054
000130 6e a4 4f bc a4 7d 3f bd a7 e5 96 bd de d6 a0 3d
       -0.01267348 -0.04675068 -0.073680215 0.07853483
000140 0e bc 55 bd 8f d0 8f 3d 2a d5 24 3e d3 41 1a 3c
       -0.052181296 0.07022201 0.1609694 0.009415108
000150 7e 62 79 bd aa b3 95 bd db e4 f5 bd 7f f4 a5 3c
       -0.060884945 -0.07309659 -0.12006541 0.020258186
000160 7d 79 d1 bd 96 48 89 3c 97 73 44 3d 29 fd 26 be
       -0.1022825 0.016758244 0.047961798 -0.1630751
000170 10 9e eb bd d7 00 a5 3d 7a f5 b3 3d 45 ba 8c 3d
       -0.115047574 0.08056801 0.08787055 0.068714656
000180 bb 21 ae 3c 43 d3 24 3e 1a 2d 44 bd 54 0c 54 bd
       0.021256318 0.16096215 -0.047894575 -0.05176957
000190 2f 73 8c bd 79 ac 02 3e ae 10 6a bc 16 a8 b6 3c
       -0.06857907 0.12761106 -0.014286203 0.022296946
0001a0 72 bb 02 3d fc e8 36 bd ac 61 a0 bd 5a 43 4e bd
       0.031917043 -0.044655785 -0.078311294 -0.0503572
0001b0 c0 33 65 bd 23 7d 22 bd dc 56 b0 3d 6a 34 36 bd
       -0.055957556 -0.03967012 0.08610317 -0.04448358
0001c0 e6 83 62 bd 6a 1f 9d bd 76 1f 96 bd 07 f9 9d 3d
       -0.05530157 -0.076720074 -0.073302194 0.07713514
0001d0 d4 78 a3 bc 34 67 01 be 78 45 ac ba ef 19 8e 3d
       -0.019955076 -0.12637025 -0.0013143262 0.0693854
0001e0 ee bc 98 bd 49 95 8d bc 51 46 04 bd 61 21 42 3d
       -0.074579105 -0.017283099 -0.03229362 0.047395114
0001f0 a7 0c 55 3d ba c0 f6 3b 14 89 61 3d e5 2b 85 bc
       0.05201402 0.007530299 0.05506237 -0.016256282
000200 14 f3 b2 3d 51 5b 13 be 9f bb 0d be b0 b6 08 bd
       0.0873777 -0.14390303 -0.13841103 -0.03337735
000210 35 ca d7 3c 97 6f 59 bd 26 7b 25 3e 7c d2 d0 bd
       0.026341537 -0.053084936 0.16160259 -0.10196397
000220 d0 56 30 3c 68 e5 df 3c 85 16 c2 bd e8 1a d8 39
       0.010762885 0.02733107 -0.094769515 0.00041218777
000230 1d d2 bc 3c a2 91 4b bd bc 2f f0 3d 65 ac 0a 3e
       0.023049409 -0.049699433 0.117278546 0.13542326
000240 93 af 8b 3d 7a 3b 56 bd 3a d6 da 3d 75 59 07 3e
       0.068205975 -0.052302815 0.10685392 0.13217719
000250 31 20 56 3b 87 03 10 bd 50 ca 9c bd 24 8e e4 39
       0.0032672996 -0.035159614 -0.076557755 0.00043593452
000260 32 89 11 be 48 cc d3 bd 75 c7 0b 3d a9 95 c1 bc
       -0.14212492 -0.10341698 0.034125764 -0.023630934
000270 7d b7 b6 3d 3e 23 e5 3d d9 a2 0e be e0 b4 f7 3d
       0.08921716 0.111883625 -0.13929309 0.12095046
000280 a6 b5 30 3e 6c 49 0d 3e 54 1f 88 bd 23 a9 ff 3d
       0.17256793 0.1379754 -0.066466 0.12483432
000290 ed e6 73 bd e4 17 fa 39 96 4c 07 3d ec d2 f2 bd
       -0.0595464 0.00047701516 0.033032022 -0.118566364
0002a0 a6 1f f7 3c 09 02 c6 bd ae e9 e0 3d 8a d2 90 3d
       0.030166458 -0.09668357 0.10982071 0.07071407
0002b0 69 a8 92 3d 11 eb ab 3d 81 9c 72 bd 53 f6 6c 3d
       0.07161028 0.08394445 -0.059231285 0.0578521
0002c0 aa 6d 4d bc e5 74 00 3e 76 18 23 3e fc 08 9b 3d
       -0.012538353 0.12544592 0.159273 0.07570073
0002d0 a1 f1 1d be 56 da 9d bd 31 02 75 bd 26 fe cb 3d
       -0.15424205 -0.0770766 -0.059816543 0.09960584
0002e0 42 ca 88 3d af 17 21 be c7 4e 23 3e b1 82 1f bd
       0.066792026 -0.15731691 0.1594802 -0.038942996
0002f0 c0 a9 9a bd 76 cd fe bd d9 20 11 be f8 2b 2e 3d
       -0.075519085 -0.12441532 -0.14172687 0.0425224
000300 7d e2 82 3d d5 4c 2c 3d fd 07 12 3d 89 5f b3 3d
       0.063908555 0.04206546 0.03565215 0.08758456
000310 65 d6 2e 3c 8e 67 84 bd 05 9a 0b bd 21 c3 a1 bd
       0.010671233 -0.06465064 -0.03408243 -0.07898546
000320 75 2e 07 3c eb d2 eb bd c9 e8 f6 bd dd ab 1b 3e
       0.008250822 -0.11514839 -0.12056119 0.1520228
000330 6d 77 a5 3c 07 17 31 3e 68 4b 11 3e 79 ea 38 3d
       0.020198548 0.1729394 0.14188921 0.045145486
000340 6b 47 7c bd 0d 06 25 3d 1d 19 0c 3d 64 03 f0 3d
       -0.061591547 0.040288974 0.034203637 0.11719397
000350 e6 37 06 be 4a e7 f3 bd af 26 f8 3c 95 3f 02 bc
       -0.13107261 -0.11909349 0.030291883 -0.007949729
000360 20 9b d9 3d fa b0 d9 bd fa 76 eb bb 98 eb 91 3d
       0.10625291 -0.10629459 -0.007185814 0.07125014
000370 5f a5 f9 bd 23 58 21 3e 6a 0e ce bd 88 e3 f6 3d
       -0.12189745 0.15756278 -0.10061343 0.12055117
000380 2c 60 4e bd 5b a0 3a bd 88 fd 77 bd 68 98 36 3e
       -0.050384685 -0.045563083 -0.06054452 0.17831576
000390 24 ed 0b be 64 8a e6 3d f3 92 89 bd c5 e4 86 bd
       -0.1366468 0.11256865 -0.067174815 -0.06586603
0003a0 34 02 ad 3d 53 16 2a bd 08 3e e6 3d 94 70 1c 3e
       0.08447686 -0.041525196 0.112423 0.1527732
0003b0 49 57 c3 bd 52 79 e3 3c 48 59 55 bd 08 36 01 be
       -0.09538133 0.027767811 -0.0520871 -0.12618268
0003c0 ef d5 92 bd 5f 75 6b 3d cf 17 95 3d bb 3d e4 bb
       -0.07169711 0.05748498 0.07279932 -0.0069653667
0003d0 d1 52 02 be 0c 3c 7b bd 6d 76 e1 bc 1d ee 1b 3d
       -0.12726904 -0.061336562 -0.02752229 0.03806888
0003e0 d5 87 04 be f7 e6 1a 3d a9 78 6a 3d 3d 50 17 3d
       -0.12942441 0.03781792 0.057243977 0.036941756
0003f0 0e 35 a1 3d e8 38 14 be 4f 15 10 be 1e 45 10 be
       0.078714475 -0.14474833 -0.14070629 -0.14088866

conv3.lin_l.weight f4 [64, 64]
000000 56 8e 95 3d da ae b2 bd a2 8d b9 3d 08 92 2e bd
       0.07302539 -0.087247565 0.090602174 -0.042619735
000010 e4 f5 01 3d e0 d4 4d bc 40 e9 0a bb fe 1a af 3d
       0.03172864 -0.01256296 -0.0021196157 0.0855007
000020 7e c2 b9 bd a0 c1 ec bd de dd 81 bd ac 13 3d 3d
       -0.090702996 -0.115603685 -0.06341146 0.04616134
000030 b0 fc 93 3c ce b1 ef bd cc 11 6d bd 94 7e c2 3d
       0.018064827 -0.117038354 -0.0578783 0.09496799
000040 80 3b 84 3b b4 e0 a7 bd 6e 96 e9 3d 54 b5 22 3d
       0.0040354133 -0.081971556 0.11405645 0.03972371
000050 40 2e 0b 3d 10 aa 9e bd a8 48 89 bc 38 31 ef bd
       0.033979654 -0.077472806 -0.016758278 -0.116793096
000060 d0 15 59 bd b0 14 37 3d 60 be e1 bd f0 99 c8 3c
       -0.052999318 0.044697464 -0.11022639 0.024487466
000070 6c 1e 9d 3d ac c5 ea bd f0 e4 0f 3c b0 e8 45 bd
       0.07671818 -0.11463484 0.00878261 -0.04831761
000080 32 cc f1 bd 20 a4 c1 bb 4e 7f f8 bd 6c b1 3b bd
       -0.11806525 -0.005909458 -0.121336564 -0.0458235
000090 c2 96 91 bd 00 a0 d3 bb 54 56 92 3d 10 2c 5b 3c
       -0.07108833 -0.0064582825 0.07145372 0.013377205
0000a0 60 5f e8 3c c4 06 60 bd b8 fd b4 3c 6c 69 7b 3d
       0.02836579 -0.054693952 0.022093639 0.061379835
0000b0 40 06 47 3d 74 a2 c1 3d 4a 62 8b 3d 30 20 9a bd
       0.048589945 0.094548136 0.068058565 -0.075256705
0000c0 80 89 cb 3a cc f3 15 bd 58 02 bc 3d 06 bd da 3d
       0.0015528649 -0.036609456 0.091801345 0.106805846
0000d0 20 9a 3e bd 5a 9f b9 3d d8 20 bd 3c a4 ee a7 bd
       -0.046533704 0.09063597 0.02308695 -0.08199814
0000e0 88 c1 7d 3d 4c af b9 3d 60 e4 b1 3b a8 79 aa 3d
       0.061952144 0.09066638 0.0054288357 0.08323985
0000f0 7c 5e ee bd c4 a5 af 3d f8 74 d2 bd 38 89 32 3d
       -0.11639115 0.08576539 -0.10276216 0.043587893
000100 66 0d 8f bd a6 02 e3 3d 94 e5 6d 3d 5e 07 f4 3d
       -0.069849774 0.110844895 0.05808027 0.11915468
000110 c0 e7 e2 bb 4e 00 b0 3d 78 dd d0 3d ea 41 cb bd
       -0.0069245994 0.08593808 0.10198492 -0.099246815
000120 7e bf 98 bd 30 77 a7 bc 50 1c 13 bd 58 ef 44 bd
       -0.07458399 -0.020442575 -0.035915673 -0.04807982
000130 66 a6 f6 bd 84 e4 39 bd d8 fd 24 3d 8c d3 99 3d
       -0.12043457 -0.045383945 0.040281147 0.075110525
000140 6c d1 47 bd e4 6d c8 3d d0 cc 6f 3c d8 d9 d9 3c
       -0.048783705 0.09786585 0.014636233 0.026593134
000150 80 0a 5d bb a0 a4 ed bb 18 1e 6e bd 22 59 d7 3d
       -0.0033728182 -0.007252291 -0.05813417 0.105150476
000160 10 58 df bc 26 e1 f2 3d b2 d0 fe 3d 52 65 f2 bd
       -0.027263671 0.1185935 0.12442149 -0.118357316
000170 38 e4 dc 3d 08 3c 9c bc c8 cd 8c 3d 8a 35 96 bd
       0.10785717 -0.019071594 0.06875187 -0.073344305
000180 8a c2 ae bd 00 6b 3a 3c f8 36 f0 bc 28 ed 4d 3d
       -0.08533199 0.01137805 -0.029323086 0.050274998
000190 1c 8d ea 3d 14 f3 de bd f0 eb e3 bc 10 46 fc 3c
       0.11452696 -0.10886207 -0.027822465 0.030795127
0001a0 08 39 0b bd 38 ab 44 bd 28 db c6 bd 3c 42 aa 3d
       -0.033989936 -0.04801485 -0.097097695 0.083134145
0001b0 18 bc c0 bd e8 22 c3 3d 96 8e fc 3d 24 44 1c bd
       -0.09410876 0.09528142 0.123318836 -0.03815092
0001c0 40 f0 b4 3d 5c 14 51 3d 44 66 f7 bd f0 77 bc 3d
       0.088348866 0.051044807 -0.120800525 0.09202564
0001d0 d8 57 2c bd 64 1a 8d 3d 30 ea 35 3d d4 f8 d4 bd
       -0.04207596 0.06889799 0.04441279 -0.10399023
0001e0 12 e1 c6 3d 8c 37 d3 bd 60 2e 9b bd be 6e a6 3d
       0.097108975 -0.10313329 -0.07577205 0.08126591
0001f0 44 dd 7d 3d e2 0f 8a 3d ec d5 2d bd 6e 2e af bd
       0.061978593 0.06741311 -0.04244034 -0.08553778
000200 b6 d5 f3 3d 48 f1 a7 3c 9a b9 bb bd 70 c5 17 bc
       0.119059965 0.020500794 -0.0916626 -0.009263381
000210 20 33 82 bd 88 33 c1 bd 10 e3 df bd 9c 43 95 bd
       -0.063574076 -0.09433657 -0.109319806 -0.07288286
000220 52 08 a1 bd c6 58 e0 3d 92 5d 92 3d 00 bb 6f bb
       -0.07862915 0.10954432 0.07146753 -0.0036579967
000230 80 9d a1 3a 48 37 c8 3c 78 ca 8b bd a0 89 c8 3b
       0.0012330264 0.024440423 -0.06825727 0.006119922
000240 d2 07 cb 3d f2 76 cf bd 00 b1 42 3a 00 d6 85 3c
       0.09913601 -0.10130109 0.0007426888 0.016337395
000250 80 eb b1 bb 98 31 29 3d fe b0 83 bd 5c af 94 3d
       -0.005429685 0.041307062 -0.06430243 0.0726001
000260 c2 d7 b6 bd ae b1 e0 3d 26 40 f2 bd 7a ef fb bd
       -0.08927871 0.1097139 -0.118286416 -0.12301536
000270 50 2d f6 3c 80 67 74 bc e0 99 95 bc 80 3e 73 3b
       0.030050904 -0.014917254 -0.01826185 0.003711611
000280 00 90 d9 bb 92 48 82 3d c0 4f 05 3b 88 a0 55 bd
       -0.0066394806 0.06361498 0.0020341724 -0.052155048
000290 f0 67 75 bd f4 a1 68 bd a8 fd 7f bd 9e d4 b9 bd
       -0.059913576 -0.056795076 -0.062497765 -0.09073757
0002a0 e4 d2 e4 3d 24 1e 44 bd 1c 65 94 3d a4 cd 08 bd
       0.11173037 -0.047880307 0.072458476 -0.03339924
0002b0 d8 29 90 bc 14 34 4f bd 3a c8 9d bd fc 4f f7 3d
       -0.017598078 -0.050586775 -0.07704206 0.12075803
0002c0 5c 30 8b 3d d0 50 3d 3d 10 ab 65 bd 44 d6 55 bd
       0.06796333 0.046219647 -0.05607134 -0.052206293
0002d0 a8 ab 45 3d 50 cc 26 bd 90 c9 63 bd b0 e8 fa bd
       0.048259407 -0.04072219 -0.055612147 -0.12251413
0002e0 d6 24 dc 3d f4 71 d6 3d 80 69 f1 3a 0c 61 ca bd
       0.107492134 0.104709536 0.0018418282 -0.098817915
0002f0 64 68 91 3d f0 66 f2 bc 9c 56 5f 3d d4 07 9a 3d
       0.07099989 -0.0295901 0.054525957 0.07521024
000300 28 46 d0 3c 80 03 bf bd 0a 8d 90 bd b4 a9 1a 3d
       0.025424078 -0.093268394 -0.07058151 0.037759498
000310 f0 84 b1 bc 1e e8 91 bd 80 b7 12 3b a0 b5 e3 3c
       -0.021669835 -0.07124351 0.0022387207 0.027796566
000320 80 ff 98 bc 2c a0 fb 3d aa f5 c3 bd fc b4 02 bd
       -0.01867652 0.1228641 -0.09568341 -0.03191088
000330 2a 7d cb bd 36 58 8e bd b8 4d 82 bd 64 38 e9 bd
       -0.099359825 -0.06950419 -0.0636248 -0.11387709
000340 18 60 1b bd 1e 3a b8 3d 18 b5 e4 bc 50 e0 3d 3c
       -0.03793344 0.0899546 -0.027918383 0.011589125
000350 d0 ea 0a 3d b6 57 ea bd 98 9e 12 3d a8 f6 b8 bd
       0.03391534 -0.11442511 0.035795778 -0.09031421
000360 54 c3 90 3d 8e 55 e7 3d dc bf 9a 3d 38 8e 46 3d
       0.07068506 0.11295615 0.075561255 0.048475474
000370 70 4e 56 bd c0 d1 75 bc 28 41 44 3d 80 1a c7 3c
       -0.052320898 -0.015003622 0.0479137 0.024304628
000380 42 e0 d3 bd b4 50 eb 3d 94 e5 a5 bd b0 0b f2 bc
       -0.10345508 0.11490002 -0.08100429 -0.029546589
000390 b0 80 b7 bc ec a6 90 bd 58 24 8e bd 2a 29 f7 bd
       -0.02240023 -0.07063088 -0.06940526 -0.12068398
0003a0 a4 d6 e9 3d da 54 eb 3d b6 71 fa 3d f8 77 ae bd
       0.114178926 0.114907935 0.1222872 -0.08518976
0003b0 38 78 bc 3d d8 0e e3 3c 98 23 ca bc 50 e6 8b bd
       0.092026174 0.027717039 -0.024675176 -0.06831038
0003c0 90 a6 98 bc e8 c7 8b 3d 78 23 32 bd 2a 34 b6 bd
       -0.01863411 0.068252385 -0.043490857 -0.08896668
0003d0 02 f0 e4 3d a2 96 eb bd d0 1b 60 3d b0 36 74 3c
       0.1117859 -0.1150334 0.054714024 0.014905617
0003e0 be f7 cc bd 0c 02 90 bd de d3 88 3d b8 74 4f bd
       -0.100081906 -0.070316404 0.066810355 -0.05064842
0003f0 a0 af 0a 3d ea f5 ba bd 50 75 b4 bd b8 a2 a1 bd
       0.033858895 -0.09128936 -0.08811438 -0.07892364

conv3.lin_l.bias f4 [64]
000000 c0 c6 b3 3d f0 58 77 bc 7c e3 97 bd 0e 57 bb 3d
       0.08778143 -0.015096888 -0.07416436 0.09147464
000010 82 f2 be bd 68 4a 40 3d 46 ce d6 bd 16 04 8a bd
       -0.093235984 0.04694596 -0.10488562 -0.067390606
000020 1e 91 d9 3d e0 83 cf 3c 68 14 a2 3c e0 49 8d bd
       0.10623382 0.025331438 0.019785121 -0.06898856
000030 30 6b 0c bd 70 ea 5d 3c 60 1b a1 3b 68 07 fb bc
       -0.03428191 0.013544664 0.0049165934 -0.03064318
000040 00 a2 07 ba e0 2f 8a bd 9e fb fa 3d 40 5c 2b 3c
       -0.0005173981 -0.06747413 0.122550234 0.010459006
000050 80 4a bd 3d 4c a7 eb bd 6a 40 bc 3d 9c 3e 50 bd
       0.09242725 -0.11506519 0.091919735 -0.05084096
000060 48 4d ae 3c 08 fb ad 3c f4 ca 59 3d b0 a5 ae bc
       0.021277085 0.021237865 0.053172067 -0.02131924
000070 f8 8e 02 3d 84 03 2a bd c6 33 b2 bd 38 ac b3 bd
       0.031874627 -0.04150726 -0.08701281 -0.087730825
000080 40 b7 3b bb 2c d9 68 bd f0 7d 08 3c 90 8c d2 bd
       -0.002864316 -0.056847736 0.008330807 -0.102807164
000090 80 67 d2 ba c4 43 7a bd e6 19 d3 bd 78 82 8f bd
       -0.0016052574 -0.061099783 -0.10307674 -0.07007307
0000a0 be 46 c1 3d 28 5a 9b bd 2e d4 9d 3d 48 3a 2a 3d
       0.09437321 -0.07585555 0.07706486 0.041559488
0000b0 74 32 a2 bd e2 ed d6 bd dc f3 70 bd f4 7e fe 3d
       -0.079197794 -0.10494591 -0.058826312 0.12426558
0000c0 b0 bb 8b 3d 60 ca 14 3c 18 2d 78 bd f4 01 d0 bd
       0.06822908 0.009081453 -0.06058988 -0.101566225
0000d0 20 47 8b bb b0 47 ba 3c d4 ee 69 3d 54 d1 bb bd
       -0.004250422 0.022739261 0.05711253 -0.091707855
0000e0 9e 6f bf bd 48 d7 e4 bc b0 85 4f bd b0 41 9c bd
       -0.09347461 -0.027934685 -0.050664604 -0.076297164
0000f0 1a 01 b2 bd a4 06 b6 bd 30 9b 6c 3c 58 fc 7a 3d
       -0.08691616 -0.08887985 0.014441296 0.06127581

conv3.lin_r.weight f4 [64, 64]
000000 d8 df d6 bc 64 9a 0e 3d 68 40 f7 3c d0 4c 70 bc
       -0.026229784 0.034815207 0.030182078 -0.014666751
000010 70 50 73 bc 20 d7 ad 3c ec d5 52 3d 50 ce 21 3c
       -0.014850721 0.021220744 0.051473543 0.009875849
000020 04 81 fd 3d c4 e1 d8 3d 60 90 9b 3c 24 de 09 bd
       0.123781234 0.105899364 0.018989742 -0.033659115
000030 60 f5 a4 3b b2 28 b8 3d b8 48 c7 bd 3a 0a d1 3d
       0.005034134 0.08992137 -0.09730667 0.10207029
000040 e0 0a df bc 1c 8a 31 bd 18 49 e2 3d c0 eb 0d 3d
       -0.027226865 -0.043344602 0.11049098 0.034648657
000050 e8 5f 30 bd 94 fb c9 3d 6c 15 60 3d d0 3a 41 bc
       -0.043060213 0.09862438 0.05470793 -0.011793807
000060 fc 7e ee bd f0 5f 2f 3d f8 59 b1 bc 60 6d eb bb
       -0.11645314 0.042816103 -0.021649346 -0.0071846694
000070 90 c1 91 3d 88 7b 96 bd b0 0c f3 3d 54 c7 af bd
       0.07116997 -0.073477805 0.11867654 -0.08582941
000080 1e 73 86 3d b8 16 fd bc c0 ab a4 3c 70 c6 c6 3d
       0.065649256 -0.030894622 0.020101428 0.09705818
000090 52 6b f7 3d 18 12 d4 3d cc d9 2c 3d b2 7f 85 3d
       0.120810166 0.103550136 0.042199895 0.065184966
0000a0 84 1c 0e bd 8e 81 bb bd c4 2b 30 bd da 4c dd 3d
       -0.034695163 -0.0915557 -0.04301049 0.10805674
0000b0 b4 77 d2 bd a8 b9 25 bd 76 8e d3 3d 90 11 58 3d
       -0.10276738 -0.04046026 0.10329907 0.052751124
0000c0 08 54 08 bd 20 fa 54 bc 46 52 86 bd 0c ed 1e bd
       -0.033283263 -0.012999088 -0.06558661 -0.038800284
0000d0 06 60 86 bd 8e 95 da 3d fe 4c a2 3d f0 b8 7f bd
       -0.06561284 0.106730565 0.07924841 -0.06243223
0000e0 5c d4 f2 bd 70 6c 3c 3c 56 c2 b2 bd 70 47 c0 bd
       -0.118569106 0.011500463 -0.08728473 -0.093886256
0000f0 46 d9 ff 3d be 76 f4 bd 2c 48 81 bd 40 4c 1a bc
       0.124926135 -0.11936711 -0.06312594 -0.0094175935
000100 70 75 8f 3d 60 7e 22 3c 78 9b f9 3d 38 0e e5 bc
       0.07004821 0.009917825 0.121878564 -0.027960882
000110 62 83 d3 bd 20 56 46 bc a0 b2 8b 3c 38 16 60 3d
       -0.10327794 -0.012105495 0.017052948 0.05470869
000120 68 1d 04 bd 20 f6 06 bc ac 15 02 3d 58 9b b7 bd
       -0.032254606 -0.008237392 0.03175895 -0.08965176
000130 a0 bf 90 3b 4c a0 8d bd ac f5 25 bd 92 6a 89 3d
       0.0044173747 -0.0691534 -0.040517494 0.0670978
000140 40 53 8d bc 94 be 20 3d 50 07 c1 bd 9e 3f b1 bd
       -0.01725161 0.03924425 -0.09425223 -0.08654712
000150 4e d4 86 bd 20 92 a8 bd 00 3d 24 bc 1c 5d 22 3d
       -0.06583463 -0.08230996 -0.010024309 0.039639577
000160 44 0b 22 3d c0 6d 02 3b 14 40 0b 3d e6 e6 84 bd
       0.039561525 0.0019901842 0.033996657 -0.06489353
000170 78 5f 2a bd 90 4d 28 3d 3c 3f df 3d 78 5a a6 bd
       -0.041594952 0.041089594 0.10900733 -0.08122724
000180 70 c3 07 bc bc a4 cc bd e0 2a bb bb 48 c8 88 bc
       -0.008286342 -0.09992358 -0.005711898 -0.016697064
000190 f0 14 de 3c ec eb 27 3d 4a 1a cf bd 8c 44 b8 3d
       0.027109593 0.040996477 -0.10112436 0.08997449
0001a0 38 b6 28 3d 5c 3d a0 bd 72 4e d0 3d 84 6f 83 bd
       0.041189402 -0.07824203 0.10171212 -0.06417754
0001b0 4e 5c db bd b2 4e 8c bd a4 75 24 bd e8 f1 9f 3c
       -0.10710965 -0.068509474 -0.040151253 0.01952453
0001c0 88 e4 ff bc 38 7d 7d bd 70 83 a5 bd e4 a8 8d bd
       -0.031236902 -0.061886996 -0.0808171 -0.06916979
0001d0 e0 70 13 3c a0 5c b0 bc c0 58 98 bc 1c 30 0a 3d
       0.0089990795 -0.021528542 -0.018597007 0.033737287
0001e0 dc a1 a1 bd a0 fb 5e 3c c4 26 91 bd 0a 89 91 bd
       -0.078922 0.013609797 -0.07087472 -0.07106216
0001f0 0a 78 b5 3d 50 c6 ee 3c 00 7c d1 3c 40 4f 9a 3d
       0.08860786 0.029147297 0.025571823 0.07534647
000200 58 57 18 bd 00 25 84 3d 0c 63 ff bd 20 ea cd bc
       -0.037192672 0.0645237 -0.124700636 -0.025136054
000210 bc e4 86 3d a4 80 33 3d a4 a4 8d bd 9e 86 ba 3d
       0.06586596 0.043823853 -0.06916168 0.091077074
000220 e8 7f 29 3d f8 95 6b bd c0 01 2c 3c b2 10 fd bd
       0.041381747 -0.05751607 0.010498464 -0.123567
000230 5c 68 4a 3d ac d6 59 3d dc d1 c8 3d ee c3 b5 3d
       0.04941593 0.053183243 0.098056525 0.08875261
000240 d2 24 d7 3d 50 cb 77 bd e4 ab 40 3d 88 f2 d8 3c
       0.1050507 -0.06049663 0.047038928 0.026482835
000250 2c 27 cf bd 86 b2 cc bd 78 55 f6 3c 58 fa 53 bd
       -0.10114893 -0.09994988 0.030070052 -0.05175242
000260 9e b4 f9 3d 00 a1 fd bc 9c a2 d7 bd 28 c9 39 3d
       0.12192653 -0.03096056 -0.10529062 0.045357853
000270 b0 05 bb 3d ce 90 80 3d 2c 57 39 bd 60 ea 0b bc
       0.09131944 0.06277619 -0.04524915 -0.008539766
000280 b8 00 c4 3c ec 46 e6 3d c8 99 e8 bd 46 66 83 bd
       0.023926124 0.11243996 -0.113574564 -0.064159915
000290 00 f0 ab 39 4e 43 c8 bd b8 4f c9 bd 0e 77 f5 bd
       0.00032794476 -0.09778462 -0.09829658 -0.119855985
0002a0 2a 60 97 bd 56 12 9e bd 06 fd 9c bd 38 ad 40 bd
       -0.07391389 -0.07718341 -0.07665448 -0.047040194
0002b0 30 30 0f bc 40 2a 1a 3d 9a 62 80 3d 00 d4 88 b9
       -0.008739516 0.03763795 0.06268807 -0.00026097894
0002c0 7c 93 da bd a0 74 cf bc e6 84 84 bd 00 4e c9 3c
       -0.10672662 -0.025324166 -0.06470661 0.024573326
0002d0 b8 14 c0 bc 70 ec d4 3d 78 8c d5 3c 9a ae a1 3d
       -0.02344738 0.103966594 0.026067957 0.07894631
0002e0 5a 7a ec 3d fa d8 a9 3d 00 72 41 bc a4 93 1c bd
       0.11546774 0.08293338 -0.011806965 -0.03822674
0002f0 74 ff ad 3d 1c cf fa bd 90 d7 3c 3c 80 23 00 bd
       0.084959894 -0.12246534 0.0115260035 -0.031283855
000300 d4 23 97 3d d0 a9 d0 3d aa fd c3 3d 78 f2 df bd
       0.073798805 0.10188639 0.09569867 -0.10934919
000310 60 fd dc bb 84 5c ec 3d cc a1 8c bd f0 95 0e bd
       -0.006744072 0.115410835 -0.06866798 -0.03481096
000320 ca 39 c4 bd b2 45 8f 3d e8 38 fd bd 96 fb 8d bd
       -0.09581335 0.06995715 -0.1236437 -0.06932752
000330 9a cc aa bd 80 90 56 3b 8e e0 bc bd b0 5c 99 3c
       -0.08339806 0.0032739937 -0.09222518 0.018720955
000340 20 95 82 bb 04 65 52 3d 98 7f 8b 3c 30 c2 c8 3d
       -0.0039850622 0.051365867 0.017028615 0.09802663
000350 0c 38 b9 bd 8c 70 cf bd 86 5f f7 3d de 3d bd bd
       -0.09043893 -0.101288885 0.120787665 -0.09240316
000360 00 04 39 3b 3a 2c 84 3d 44 cf e6 bd 34 51 59 bd
       0.0028231144 0.06453748 -0.112700015 -0.053055957
000370 a0 e7 b0 3b 78 36 4c 3d 18 6e f1 bc 72 de d4 3d
       0.0053987056 0.049856633 -0.029471442 0.103939906
000380 00 b0 5a 39 e0 4b a9 bd a8 8b 0c 3d 64 75 fd bd
       0.00020855665 -0.08266425 0.034312874 -0.12375906
000390 a8 ba f5 3d 5c 31 f0 3d 68 a2 25 3d 28 d7 f2 bd
       0.119984925 0.117281646 0.040438086 -0.11857444
0003a0 c0 85 75 3d 20 78 61 3c 30 8b 3c bd fc 4b 10 bd
       0.059942007 0.01376155 -0.046031177 -0.035228714
0003b0 b0 f2 7b 3d 4e 0e f8 bd 44 98 31 bd 40 93 6b 3b
       0.06151074 -0.121121034 -0.043358102 0.0035945922
0003c0 7e 9b ac 3d 30 d0 4d bc 14 7c f1 bd 60 15 c0 bb
       0.08428095 -0.012561843 -0.11791244 -0.005861923
0003d0 00 24 99 bc a2 0b fd bd 40 50 9d bb 7a 6c b1 bd
       -0.018693924 -0.123557344 -0.0048008263 -0.086632684
0003e0 30 b6 fa bc fc 81 7f 3d 30 c9 24 bd b0 fa 61 bc
       -0.030604452 0.062379822 -0.04023093 -0.013792679
0003f0 44 2d 38 bd 22 b8 c0 bd 18 71 8d 3d 58 5a ca bd
       -0.044965044 -0.094101205 0.069063365 -0.09880513
