code_agglom_MG/mesh/agglomerate/model_res_voro.pt (torch, 55124 bytes, 27 tensors)

conv1.lin_l.weight f4 [8, 3]
0.16186075 0.45710462 0.3061534 0.12490191 0.37131044 0.5037026 -0.1826829 -0.09964348
0.51841277 -0.29282552 0.25069323 -0.30739427 -0.26791814 -0.19584745 -0.3688364 -0.34268954
-0.12973003 0.29601467 -0.58031636 0.16796264 -0.019280558 -0.09943979 0.40845627 0.104828864
00000000: d3be 253e 9e09 ea3e 23c0 9c3e 93cc ff3d
00000010: 671c be3e a7f2 003f 3a11 3bbe e111 ccbd
00000020: b3b6 043f 3aed 95be dd5a 803e c862 9dbe
00000030: 912c 89be 3c8c 48be 20d8 bcbe 0175 afbe
00000040: f3d7 04be 3c8f 973e 9d8f 14bf 66fe 2b3e
00000050: 43f2 9dbc 17a7 cbbd 2e21 d13e 84b0 d63d

conv1.lin_l.bias f4 [8]
-0.21109271 -0.07567209 -0.40076575 -0.17564498 0.36634198 0.3049946 0.1935418 0.45326665
00000000: b028 58be f8f9 9abd 2b31 cdbe 47dc 33be
00000010: 2d91 bb3e 4128 9c3e d22f 463e 9112 e83e

conv1.lin_r.weight f4 [8, 3]
-0.03181709 0.19186448 -0.29757679 0.38307753 0.5143637 -0.50637007 -0.23665608 -0.5433293
0.32092664 -0.53689736 -0.590173 -0.4748897 -0.6058466 0.1398203 -0.11548598 0.41626218
0.38652852 -0.59367085 -0.15404032 0.18639354 -0.08223236 0.5311436 0.11930833 -0.14842057
00000000: a352 02bd 1f78 443e fc5b 98be bd22 c43e
00000010: 57ad 033f 78a1 01bf f955 72be a117 0bbf
00000020: 7f50 a43e 1b72 09bf 9415 17bf be24 f3be
00000030: c318 1bbf 0d2d 0f3e ea83 ecbd 5120 d53e
00000040: 11e7 c53e d0fa 17bf bfbc 1dbe f3dd 3e3e
00000050: 7169 a8bd 07f9 073f ed57 f43d 90fb 17be

conv2.lin_l.weight f4 [16, 8]
-0.090421975 -0.17775656 0.3520491 0.12010849 0.37798902 0.03201317 -0.02088983 0.18132837
-0.21992391 0.2012272 -0.14921805 0.012352064 -0.1965421 0.21274701 0.24331798 0.3670285
0.29830965 0.1753084 0.22186573 -0.2214527 0.3730062 0.33053637 -0.043753073 -0.31700796
-0.23584439 -0.054086 0.29399168 -0.17631266 -0.24125132 0.21729699 -0.16570106 -0.08219756
-0.19490483 -0.059595834 0.28636926 -0.032852218 -0.03317225 -0.20119333 -0.21417527 0.0033654973
0.25058097 0.29787087 -0.32944542 0.27672067 -0.34831828 -0.027839402 -0.20373374 0.28975835
0.093696296 -0.06479939 -0.29266635 0.19456661 -0.098931566 -0.21454091 -0.2833762 0.34749818
0.07919659 -0.3330425 -0.22842543 0.032007717 0.16441326 0.1148369 0.2525145 0.30532178
-0.14576161 -0.223333 0.3240331 -0.27188796 0.358673 -0.10567935 0.25253835 -0.18832697
0.083912976 -0.07731328 0.15406303 -0.32616174 -0.14142092 0.12106455 -0.09456311 0.16087848
0.06783492 -0.121394545 -0.13349415 0.17261633 -0.23492154 0.2846345 -0.3585229 -0.09832119
0.26332983 0.33743736 -0.030896273 0.25253907 0.27299652 0.29871026 0.026882403 0.18200539
0.27770394 0.11927439 -0.009341219 0.025104927 -0.19459593 0.21332611 -0.016510142 -0.35460055
-0.27563405 0.054075755 -0.1664029 -0.26282614 -0.25150168 0.22463715 -0.22094293 -0.15343215
0.07101077 0.08669428 -0.13809814 0.38233078 0.33887553 -0.1648316 0.2213667 -0.10891283
0.35875934 -0.3121808 0.07297087 -0.24588001 0.08089628 0.3469967 0.12350647 0.34041363
00000000: 282f b9bd d105 36be c83f b43e 71fb f53d
00000010: c787 c13e 3e20 033d 2621 abbc 25ae 393e
00000020: bc33 61be 810e 4e3e 9ecc 18be 5060 4a3c
00000030: 5542 49be 5ada 593e 5928 793e 29eb bb3e
00000040: 0bbc 983e 0c84 333e c530 633e 7fc4 62be
00000050: abfa be3e 103c a93e 6c36 33bd de4e a2be
00000060: 3181 71be 4889 5dbd 1486 963e 4e8b 34be
00000070: 960a 77be 1a83 5e3e 8aad 29be 3257 a8bd
00000080: 2295 47be c31a 74bd fe9e 923e 0c90 06bd
00000090: a0df 07bd a005 4ebe c350 5bbe ad8f 5c3b
000000a0: 264c 803e 8882 983e 12ad a8be 55ae 8d3e
000000b0: c656 b2be 750f e4bc 949f 50be 355b 943e
000000c0: d8e3 bf3d 8bb5 84bd 5dd8 95be 783c 473e
000000d0: a29c cabd 9db0 5bbe af16 91be 48eb b13e
000000e0: d231 a23d 8c84 aabe 5be8 69be 861a 033d
000000f0: f35b 283e 9c2f eb3d 9549 813e 2353 9c3e
00000100: 8842 15be 68b1 64be abe7 a53e e634 8bbe
00000110: fda3 b73e 6a6e d8bd b54c 813e c9d8 40be
00000120: 91da ab3d 6d56 9ebd b3c2 1d3e acfe a6be
00000130: a5d0 10be b1f0 f73d 4eaa c1bd 54bd 243e
00000140: 09ed 8a3d b49d f8bd b1b2 08be 56c2 303e
00000150: 468f 70be 9dbb 913e 5090 b7be 9f5c c9bd
00000160: 2bd3 863e 97c4 ac3e 2e1a fdbc cd4c 813e
00000170: 33c6 8b3e 8df0 983e 7c38 dc3c 9f5f 3a3e
00000180: 362f 8e3e 2246 f43d ea0b 19bc d9a8 cd3c
00000190: 2844 47be 2972 5a3e 4740 87bc 348e b5be
000001a0: e81f 8dbe 8a7e 5d3d 8665 2abe 2691 86be
000001b0: d4c4 80be 4807 663e dd3e 62be 511d 1dbe
000001c0: 186e 913d c58c b13d 9969 0dbe dcc0 c33e
000001d0: 1881 ad3e 9dc9 28be f4ad 623e b10d dfbd
000001e0: 4eaf b73e 29d6 9fbe c071 953d f8c7 7bbe
000001f0: f3ac a53d 8da9 b13e f6f0 fc3d b24a ae3e

conv2.lin_l.bias f4 [16]
-0.3436059 -0.06947001 -0.12256595 -0.17964628 -0.18851951 -0.12888785 -0.23995274 -0.3460216
0.053194616 -0.16227746 0.015552019 -0.2560917 0.30817014 -0.005847717 0.2630352 -0.16119866
00000000: 1ded afbe 4b46 8ebd db03 fbbd 32f5 37be
00000010: 420b 41be 2dfb 03be 2cb6 75be be29 b1be
00000020: 99e2 593d 102c 26be e5cd 7e3c 741e 83be
00000030: 7ac8 9d3e 359e bfbb 8dac 863e 4311 25be

conv2.lin_r.weight f4 [16, 8]
-0.08610834 -0.3724441 0.3670389 0.073840566 0.075961865 -0.2903578 -0.0049666874 0.3170908
-0.16949007 -0.0263593 0.16594502 -0.13951941 -0.24907997 -0.32774326 0.21871234 0.028839905
-0.2995729 -0.11959363 0.0043772007 0.050327998 -0.27798426 -0.33751965 -0.23020127 -0.3693779
-0.27537793 -0.22930038 -0.04256282 0.16841389 0.029754877 -0.113504305 -0.030059196 0.05758475
0.35860765 0.2455321 0.2986999 -0.28069958 -0.27812302 0.2762998 -0.012956469 0.050836354
-0.17932042 -0.20284009 0.16034861 -0.18248738 0.010000574 0.085409656 0.24344376 0.06441723
-0.07320427 0.16677754 0.2762627 -0.006361934 -0.21266517 -0.15558583 0.1774664 0.14184122
-0.17989922 -0.070144154 -0.18722108 0.21977478 -0.228019 0.13208853 0.33185786 -0.33236277
-0.010791043 -0.27661636 0.25186276 -0.14747381 0.25476813 0.26682 0.13723364 -0.32497248
0.013597643 0.07584276 -0.32994354 0.17305127 0.23878962 -0.14419091 0.24694966 -0.08255169
0.29924202 0.31915787 0.030434452 0.17093742 0.08896585 -0.06671833 -0.23745498 0.3215858
0.34955463 0.1056876 -0.030695373 -0.084701754 -0.17575112 -0.14428398 -0.10238312 0.055316597
0.03409957 -0.3576916 0.23413765 -0.018816018 0.33911988 0.059171166 -0.03784621 -0.06344731
0.21852909 0.28577515 0.14941093 -0.17542852 -0.200641 0.16507334 0.059419643 -0.111412756
-0.27298006 0.26238403 0.021969613 0.11298694 0.05651389 -0.20927188 0.25358203 0.15812849
-0.17632613 0.32711196 0.093181975 0.011108158 0.10161217 -0.014689211 0.20306982 0.344275
00000000: 9259 b0bd feb0 bebe 86ec bb3e b939 973d
00000010: e591 9b3d c7a9 94be 98bf a2bb ba59 a23e
00000020: ce8e 2dbe 75ef d7bc 7eed 293e 2dde 0ebe
00000030: d20e 7fbe f7cd a7be 21f6 5f3e aa41 ec3c
00000040: 9f61 99be 81ed f4bd 9f6e 8f3b bb24 4e3d
00000050: f453 8ebe 60cf acbe e2b9 6bbe 1a1f bdbe
00000060: 56fe 8cbe b8cd 6abe 5a56 2ebd b174 2c3e
00000070: 80c0 f33c f274 e8bd b43e f6bc fddd 6b3d
00000080: 6c9b b73e c46c 7b3e 31ef 983e dbb7 8fbe
00000090: 2466 8ebe 2b77 8d3e 5f47 54bc c839 503d
000000a0: c69f 37be 50b5 4fbe 6d32 243e f9dd 3abe
000000b0: 73d9 233c 42eb ae3d 5249 793e 2eed 833d
000000c0: 1fec 95bd bbc7 2a3e 4e72 8d3e c577 d0bb
000000d0: e6c4 59be e451 1fbe c1b9 353e d33e 113e
000000e0: 8037 38be bda7 8fbd e2b6 3fbe a40c 613e
000000f0: d07d 69be 3742 073e 46e9 a93e 742b aabe
00000100: eacc 30bc a9a0 8dbe 28f4 803e 6003 17be
00000110: f870 823e a29c 883e fa86 0c3e cb62 a6be
00000120: a6c8 5e3c 7353 9b3d 5cee a8be 5a34 313e
00000130: 4485 743e c8a6 13be 5fe0 7c3e dc10 a9bd
00000140: 4036 993e a968 a33e ac51 f93c 380a 2f3e
00000150: ba33 b63d 9fa3 88bd 6627 73be e5a6 a43e
00000160: d3f8 b23e be72 d83d dd74 fbbc 1d78 adbd
00000170: 1af8 33be 2ebf 13be 3eae d1bd a893 623d
00000180: feab 0b3d 5a23 b7be c8c1 6f3e 0d24 9abc
00000190: 1fa1 ad3e 775d 723d a104 1bbd aaf0 81bd
000001a0: 17c6 5f3e 1f51 923e 2eff 183e 89a3 33be
000001b0: d674 4dbe fc08 293e 0362 733d 5f2c e4bd
000001c0: 0bc4 8bbe 3357 863e 9ef9 b33c b265 e73d
000001d0: 1c7b 673d 5e4b 56be 81d5 813e 6fec 213e
000001e0: d68e 34be 387b a73e 31d6 be3d fefe 353c
000001f0: 0b1a d03d 04ab 70bc 89f1 4f3e d044 b03e

conv3.lin_l.weight f4 [32, 16]
-0.0875643 0.097148106 0.244123 0.123251006 0.15419367 0.16717584 -0.23982498 -0.015364246
0.05892051 0.111466214 0.040530145 -0.24151193 0.19375609 -0.2372648 -0.13032614 0.12296161
-0.14006694 0.05522238 0.17919756 -0.11805156 0.13290721 -0.23651312 0.10822227 0.13283803
-0.14704964 -0.2045806 -0.2599558 0.173528 -0.19363447 -0.019662816 0.2549944 0.09878518
-0.1397227 -0.0019128034 -0.11830156 0.1564757 -0.20130919 -0.037314355 0.23113002 -0.01156233
-0.22657186 -0.14338087 0.0005914604 0.21029983 -0.22844239 0.17384818 -0.20809303 0.21630083
0.1313614 -0.17305773 -0.0041335616 -0.22465743 -0.026708318 0.011290828 0.092414536 0.067800514
0.1804616 -0.06952262 0.040043004 -0.05965028 -0.017995434 -0.056308918 -0.21521576 -0.20424108
-0.2029437 -0.12990934 0.14529127 -0.060903624 -0.079050384 0.09854424 0.12024495 0.09952046
0.04556541 -0.11127382 0.07551016 0.17301859 0.07467261 0.18203594 0.0875605 0.081577905
0.12304263 -0.21048102 -0.1603098 -0.24982545 0.06553759 0.24874371 0.16479139 0.00860783
-0.049277578 0.0027767958 0.07753588 -0.204093 -0.2512817 -0.0833763 -0.07242573 0.23459533
0.15490378 0.16491057 0.19929613 0.12724134 0.1331509 -0.16398416 -0.08633526 -0.07852109
0.24479291 0.08771846 -0.19129263 -0.049248703 0.115073785 -0.25131992 0.22616747 0.15659526
-0.21437067 -0.21638994 -0.18970583 0.17803307 0.061127447 0.015126527 -0.18761384 0.22490214
0.08444058 0.06254282 -0.1887618 0.0494776 -0.25376952 0.119835176 0.018951138 0.015123621
-0.2072986 -0.21697539 0.10760516 -0.07406015 -0.26792252 0.06899499 -0.033418335 0.2712148
0.107688226 0.11890002 -0.18398955 0.18984011 0.15519361 -0.044591833 0.11456492 -0.004190946
0.0536653 0.1276277 -0.050124902 0.1549388 -0.11497321 -0.14140838 0.22744817 -0.13024157
0.122315384 -0.16952781 0.045712244 -0.14431505 0.27488837 0.18493767 0.078566276 0.15444796
-0.18600379 0.2601196 -0.17623751 -0.24424401 0.043326028 -0.09462139 -0.022365017 0.15085329
-0.19232331 0.01666154 -0.15594858 -0.027782375 -0.016430419 0.2434503 -0.10883852 -0.0029657318
0.13613364 0.22043271 0.089443475 -0.04880979 -0.10538785 0.12822716 0.14052665 0.08044532
0.041290395 -0.1298039 -0.084004 0.004843051 -0.20344438 -0.049187783 -0.15825744 -0.10612155
-0.13137035 0.17186292 0.038226936 0.07483517 0.19603255 0.115863696 0.1929831 0.16451561
-0.18536729 -0.019801795 -0.20917805 0.049417067 0.0040082196 -0.16838272 0.20075963 -0.16146713
-0.112193875 0.06617426 -0.19686815 -0.19988951 0.15912876 0.12273435 -0.09591404 -0.20432527
0.0663656 -0.097104914 -0.23118208 -0.13061686 0.04530992 0.19529405 0.22627136 -0.21888137
-0.020929217 0.23275618 -0.098461136 0.0063886507 0.24176022 0.10372205 0.16338076 0.19555865
-0.0818819 0.041126907 -0.10595509 0.021290418 0.17800198 -0.02917922 0.0223978 -0.14218633
0.19152406 -0.15153958 0.20561518 -0.18746084 -0.05432729 0.014587094 -0.11167358 0.049712416
-0.02272298 -0.15139008 0.18942069 -0.11439328 0.23053774 0.065927185 -0.16977292 -0.12128604
00000000: e954 b3bd 96f5 c63d 61fb 793e 066b fc3d
00000010: f2e4 1d3e 2530 2b3e ae94 75be 52ba 7bbc
00000020: a256 713d 6648 e43d f002 263d e74e 77be
00000030: ff67 463e 8bf5 72be 3774 05be 4cd3 fb3d
00000040: b56d 0fbe dd30 623d 917f 373e 04c5 f1bd
00000050: d418 083e 7f30 72be a3a3 dd3d b106 083e
00000060: 2e94 16be 947d 51be ed18 85be 53b1 313e
00000070: 1d48 46be ea13 a1bc a08e 823e e24f ca3d
00000080: 7813 0fbe 08b7 faba 1748 f2bd 2a3b 203e
00000090: ff23 4ebe f0d6 18bd 59ad 6c3e ed6f 3dbc
000000a0: 7402 68be 6fd2 12be 3c0c 1b3a d758 573e
000000b0: cdec 69be 4205 323e 5716 55be f77d 5d3e
000000c0: 9a83 063e 0c36 31be d472 87bb 990c 66be
000000d0: 67cb dabc 2afd 383c d543 bd3d ffda 8a3d
000000e0: edca 383e e061 8ebd 2204 243d da53 74bd
000000f0: 296b 93bc 2ea4 66bd 8561 5cbe 9324 51be
00000100: 79d0 4fbe f406 05be 3cc7 143e 1476 79bd
00000110: 2be5 a1bd 90d1 c93d fc42 f63d 62d1 cb3d
00000120: cca2 3a3d 87e3 e3bd 12a5 9a3d c92b 313e
00000130: f4ed 983d a167 3a3e eb52 b33d 5112 a73d
00000140: c6fd fb3d 5688 57be 4128 24be 3ed2 7fbe
00000150: 9238 863d acb6 7e3e 13bf 283e db07 0d3c
00000160: 49d7 49bd e7fa 353b 22cb 9e3d c1fd 50be
00000170: ffa7 80be 32c1 aabd f153 94bd c239 703e
00000180: 199f 1e3e 51de 283e 4914 4c3e 8e4b 023e
00000190: b658 083e 77eb 27be 8ad0 b0bd aacf a0bd
000001a0: feaa 7a3e bca5 b33d 37e2 43be 02b9 49bd
000001b0: ceab eb3d 01ad 80be 7298 673e 825a 203e
000001c0: fc83 5bbe 5395 5dbe 3f42 42be 4d4e 363e
000001d0: c660 7a3d 41d5 773c d81d 40be bf4c 663e
000001e0: 2fef ac3d 7316 803d c64a 41be 06a9 4a3d
000001f0: 14ee 81be 256c f53d 6b3f 9b3c 10c9 773c
00000200: 1646 54be cc2e 5ebe 1860 dc3d d9ac 97bd
00000210: 242d 89be 3f4d 8d3d aae1 08bd abdc 8a3e
00000220: a58b dc3d db81 f33d c267 3cbe 7265 423e
00000230: 13eb 1e3e eda5 36bd 03a1 ea3d 3454 89bb
00000240: 25d0 5b3d d6b0 023e c54f 4dbd 47a8 1e3e
00000250: 1377 ebbd 5ccd 10be 2ce8 683e 0c5e 05be
00000260: 7d80 fa3d b398 2dbe c33c 3b3d 53c7 13be
00000270: 2bbe 8c3e 4d60 3d3e 5be7 a03d 9b27 1e3e
00000280: c777 3ebe 652e 853e 9b77 34be 1a1b 7abe
00000290: a276 313d dcc8 c1bd d736 b7bc 4979 1a3e
000002a0: 67f0 44be c87d 883c fcb0 1fbe dd97 e3bc
000002b0: 1699 86bc 094b 793e bbe6 debd b95c 42bb
000002c0: 9e66 0b3e 1db9 613e 242e b73d c6ec 47bd
000002d0: 96d5 d7bd fb4d 033e 38e6 0f3e 84c0 a43d
000002e0: 1e20 293d 50eb 04be 4a0a acbd 75b2 9e3b
000002f0: b953 50be 2179 49bd 3d0e 22be 4156 d9bd
00000300: f385 06be d5fc 2f3e d993 1c3d 2e43 993d
00000310: c2bc 483e f249 ed3d 5d9d 453e c876 283e
00000320: ecd0 3dbe 6037 a2bc c532 56be 8d69 4a3d
00000330: 6257 833b 856c 2cbe ef93 4d3e a457 25be
00000340: e7c5 e5bd 5f86 873d ce97 49be d6af 4cbe
00000350: a6f2 223e 265c fb3d 956e c4bd a53a 51be
00000360: b0ea 873d f1de c6bd ffba 6cbe 6dc0 05be
00000370: e596 393d 2afb 473e aeb3 673e 7022 60be
00000380: c073 abbc a357 6e3e fea5 c9bd e357 d13b
00000390: fe8f 773e 3a6c d43d 494d 273e 8740 483e
000003a0: b3b1 a7bd b074 283d fbfe d8bd 3e69 ae3c
000003b0: 2746 363e 4209 efbc 977b b73c 4b99 11be
000003c0: e21e 443e 312d 1bbe c98c 523e bcf5 3fbe
000003d0: 4b86 5ebd b5fe 6e3c 1eb5 e4bd 3f9f 4b3d
000003e0: 8b25 babc 0006 1bbe 7ff7 413e 0647 eabd
000003f0: 1612 6c3e d504 873d f4d8 2dbe d164 f8bd

conv3.lin_l.bias f4 [32]
-0.06531047 -0.1893211 -0.008308574 0.03984973 -0.08226453 0.019420404 0.2251249 -0.08624622
-0.17624405 -0.08653941 -0.21921629 -0.1791172 0.03353179 0.027696507 -0.10835992 0.21126473
0.10138342 -0.15596732 -0.033163957 0.069341175 0.18961336 -0.052736368 0.10889681 -0.22139652
-0.12228876 -0.13366228 0.14619485 0.04336652 -0.20516571 0.15784426 -0.04213476 0.02669576
00000000: 7fc1 85bd 64dd 41be af20 08bc 7839 233d
00000010: 4e7a a8bd 8a17 9f3c 2487 663e dca1 b0bd
00000020: 5279 34be 933b b1bd 3c7a 60be 806a 37be
00000030: a158 093d c9e3 e23c ceeb ddbd c855 583e
00000040: 1ca2 cf3d e6b5 1fbe eed6 07bd bf02 8e3d
00000050: 012a 423e 1702 58bd 4a05 df3d c5b5 62be
00000060: 8872 fabd c4de 08be 1ab4 153e 18a1 313d
00000070: f616 52be eda1 213e 8095 2cbd 11b1 da3c

conv3.lin_r.weight f4 [32, 16]
-0.06775481 0.13900211 0.22334793 0.19591251 -0.18020873 -0.21279186 -0.22570333 0.20310704
0.095595226 -0.051764704 -0.1480068 -0.10446427 0.052554414 -0.21983911 0.10313931 -0.080390096
0.13421938 0.054095007 0.13905896 0.16914648 -0.03680989 -0.23986983 0.12216024 0.05910702
0.028797384 -0.096480355 0.10266595 0.21290596 -0.13586922 -0.18580425 0.19844967 0.04708261
-0.24209198 0.25807035 -0.24349925 -0.19208732 -0.0042087734 -0.16750196 -0.050386697 0.1484929
-0.05976061 -0.009476817 0.058344543 0.08502235 -0.2566114 -0.13479133 0.020230519 0.17579404
-0.09312396 -0.2552635 0.14188701 0.02961407 0.1486593 0.096126445 -0.25505224 0.21764398
-0.15288313 0.007844994 -0.109769404 -0.24754775 -0.053053364 -0.1478357 0.03739201 0.034524795
-0.2719656 -0.04309601 0.18969646 -0.028911028 0.13560118 0.24104168 -0.22880049 -0.109220326
-0.22497168 -0.23099273 0.26327088 -0.029062297 0.09651087 -0.049882147 -0.09195241 0.1792723
-0.25727937 -0.0604305 0.017881371 0.15197305 0.16867943 0.09557736 -0.014028771 0.14722823
-0.056528747 -0.1544747 0.1196996 -0.12071937 -0.0728208 0.18058597 0.104818515 -0.06769173
0.039343037 -0.09819469 0.041334495 0.2216117 0.19930148 -0.08408017 -0.017270634 0.07347718
-0.013385569 0.032804064 -0.06673321 -0.21185674 -0.20430446 0.07311085 -0.20095971 -0.071691625
0.21824463 -0.0137525685 0.09127803 -0.2595691 0.119466536 -0.13799873 -0.13191201 0.0077282414
-0.18737577 0.06371262 0.049950007 0.07949878 -0.24768563 0.13218988 -0.08725505 0.105762295
0.24300861 -0.26485687 0.00948822 -0.19759336 0.13843694 -0.072907686 0.05089432 -0.025218057
0.0421766 0.12468579 0.05049184 -0.12039224 -0.030986503 0.0658122 -0.009016543 -0.15084925
0.2463785 -0.160265 0.049181618 -0.18288869 0.01783031 -0.15868858 -0.10249199 0.23570529
0.15739088 -0.023644838 -0.25708598 0.21426103 -0.103302926 -0.09702235 0.04650539 -0.109474465
-0.045512147 0.21655954 -0.100253284 0.16561191 0.06283351 -0.0484157 0.14050919 0.05773938
-0.07026339 -0.05241368 -0.15602641 0.21801266 -0.19165383 0.09512746 -0.23161118 -0.09833503
0.26464054 0.13027267 -0.008560302 0.04501543 0.15241385 0.14520891 -0.017682884 -0.11800663
0.18589652 0.15872972 0.10326074 -0.22726952 0.08657538 0.1578304 -0.04450578 0.23366827
-0.08606959 -0.17215936 -0.25644013 -0.0084536495 0.13691397 0.16092804 -0.13929099 -0.10518869
-0.25737226 0.045879263 0.16892894 0.18545264 0.16761583 0.006728427 -0.028112065 0.001939721
0.2671287 0.08039643 0.10863553 0.061643284 -0.08085795 -0.024654835 -0.08123696 -0.10971248
0.05054161 0.031235803 0.15611438 -0.02119185 -0.1828221 0.123482026 0.051328387 -0.024375046
0.17458713 0.24591312 -0.2341015 -0.114610754 0.23745143 0.11335196 -0.23578247 0.1929395
-0.2454363 0.025930794 -0.04110411 0.031283367 -0.13459894 0.24895251 -0.06406611 0.2097337
0.28350702 -0.22455929 -0.15244296 0.02373119 -0.20646308 0.038415805 0.21472949 -0.06413433
0.23221852 0.18167901 -0.07790829 -0.19982119 0.13088648 -0.11664171 0.16678376 0.058258977
00000000: 09c3 8abd 9256 0e3e 52b5 643e 4a9d 483e
00000010: a388 38be 1ce6 59be c61e 67be 4bfb 4f3e
00000020: 6ec7 c33d 3a07 54bd 188f 17be 5df1 d5bd
00000030: 4c43 573d 811d 61be b43a d33d 90a3 a4bd
00000040: ce70 093e ba92 5d3d 7965 0e3e bc34 2d3e
00000050: f8c5 16bd 70a0 75be 262f fa3d 341a 723d
00000060: 7ee8 eb3c 7e97 c5bd 8742 d23d 0504 5a3e
00000070: 4d21 0bbe 7843 3ebe 6436 4b3e b2d9 403d
00000080: f6e6 77be cc21 843e de57 79be 8ab2 44be
00000090: c0e9 89bb a285 2bbe 4862 4ebd 860e 183e
000000a0: 8bc7 74bd a744 1bbc b0fa 6e3d 3320 ae3d
000000b0: 9262 83be bd06 0abe 79ba a53c 5a03 343e
000000c0: c6b7 bebd e6b1 82be d44a 113e 3599 f23c
000000d0: 253a 183e f1dd c43d 3596 82be 10de 5e3e
000000e0: 658d 1cbe 4a88 003c c8ce e0bd 287d 7dbe
000000f0: 7c4e 59bd 3e62 17be 5d28 193d df69 0d3d
00000100: 133f 8bbe 7185 30bd ca3f 423e d2d6 ecbc
00000110: 09db 0a3e a1d3 763e ad4a 6abe e8ae dfbd
00000120: fa5e 66be 5c89 6cbe 71cb 863e 0e14 eebc
00000130: 7ea7 c53d 3951 4cbd 8c51 bcbd 2893 373e
00000140: 1fba 83be f985 77bd f47b 923c d39e 1b3e
00000150: 4dba 2c3e 10be c33d eed8 65bc ffc2 163e
00000160: b08a 67bd 9e2e 1ebe 1025 f53d b83b f7bd
00000170: 1223 95bd 87eb 383e 17ab d63d f6a1 8abd
00000180: 2a26 213d 4c1a c9bd 5c4e 293d 2dee 623e
00000190: b015 4c3e 3932 acbd 257b 8dbc 347b 963d
000001a0: 254f 5bbc 8e5d 063d 6cab 88bd f9f0 58be
000001b0: 3035 51be 24bb 953d 62c8 4dbe 0fd3 92bd
000001c0: 857b 5f3e 7452 61bc faef ba3d 3ee6 84be
000001d0: dfaa f43d 8a4f 0dbe f113 07be 303d fd3b
000001e0: 6fdf 3fbe c37b 823d 6198 4c3d 42d0 a23d
000001f0: 4da1 7dbe c95c 073e c7b2 b2bd e799 d83d
00000200: 40d7 783e 529b 87be 7b74 1b3c ea55 4abe
00000210: 6ac2 0d3e a050 95bd 9076 503d 1996 cebc
00000220: 5fc1 2c3d 435b ff3d 88d0 4e3d 3590 f6bd
00000230: 68d7 fdbc 8cc8 863d 1fba 13bc 3a78 1abe
00000240: a54a 7c3e 821c 24be aa72 493d 2c47 3bbe
00000250: df10 923c 427f 22be 52e7 d1bd ba5c 713e
00000260: 132b 213e d2b2 c1bc c6a0 83be 3e67 5b3e
00000270: 7c90 d3bd a7b3 c6bd 707c 3e3d 2634 e0bd
00000280: f26a 3abd c9c1 5d3e 9851 cdbd 2b96 293e
00000290: dbae 803d 8b4f 46bd a4e1 0f3e 2180 6c3d
000002a0: 41e6 8fbd baaf 56bd 63c5 1fbe b63e 5f3e
000002b0: e740 44be 30d2 c23d 7b2b 6dbe e063 c9bd
000002c0: f77e 873e 3366 053e 8240 0cbc 1962 383d
000002d0: 6012 1c3e a5b1 143e b2db 90bc 76ad f1bd
000002e0: a85b 3e3e 0b8a 223e 5e7a d33d 57b9 68be
000002f0: 6f4e b13d 4b9e 213e b14b 36bd bc46 6f3e
00000300: 4145 b0bd 8b4a 30be 1f4c 83be 2d81 0abc
00000310: 2d33 0c3e 52ca 243e 4ca2 0ebe 2b6d d7bd
00000320: 4cc6 83be e5eb 3b3d b5fb 2c3e 4ce7 3d3e
00000330: 7ca3 2b3e 237a dc3b 464b e6bc 3d3e fe3a
00000340: 18c5 883e e2a6 a43d 4e7c de3d ab7d 7c3d
00000350: da98 a5bd f0f8 c9bc 905f a6bd f0b0 e0bd
00000360: b804 4f3d 3ae2 ff3c 73dc 1f3e 889a adbc
00000370: b735 3bbe 25e4 fc3d b73d 523d 2dae c7bc
00000380: f8c6 323e a6d0 7b3e 4eb8 6fbe 0bb9 eabd
00000390: 7826 733e 1325 e83d f670 71be ef91 453e
000003a0: a753 7bbe d16c d43c c95c 28bd fd22 003d
000003b0: 4ed4 09be 68ed 7e3e 1835 83bd 6ec4 563e
000003c0: d527 913e dff2 65be 021a 1cbe ea67 c23c
000003d0: 0f6b 53be e459 1d3d 0ce2 5b3e dc58 83bd
000003e0: b1ca 6d3e 100a 3a3e 628e 9fbd ed9d 4cbe
000003f0: 1b07 063e d9e1 eebd 5dc9 2a3e f7a0 6e3d

conv4.lin_l.weight f4 [64, 32]
0.1513602 0.10120642 0.031654816 0.09315171 0.10842078 -0.15124582 0.054686777 -0.17838508
-0.018677507 0.19697358 -0.15951757 -0.019697133 -0.05777193 0.06147607 0.084133275 -0.10840611
0.021976775 -0.044905987 0.0118505 0.14954948 0.09860095 -0.13166958 0.011640954 0.09701825
0.17578271 -0.158986 -0.048520584 0.17369379 -0.12546407 0.13122843 -0.13340764 0.16542973
-0.20260161 0.102296904 -0.11632836 0.11407688 -0.12027361 0.039527178 0.10920336 -0.10018994
-0.16753863 -0.15295689 -0.059987877 -0.0023877255 -0.12041314 -0.08445661 0.20817427 -0.17261875
0.15677536 -0.086557336 -0.014797461 -0.078348674 -0.056511246 -0.049850415 0.1799086 -0.008627744
0.08454008 0.04819283 -0.1861585 -0.00500688 0.011182854 -0.037927896 -0.18331063 -0.058481652
-0.028728062 -0.15294838 0.20627965 -0.0323953 0.1357903 -0.067318425 0.08918164 -0.16275996
0.12839466 0.015575527 0.16942056 -0.16651236 -0.10824659 -0.14518797 0.12230178 -0.020579755
0.034784343 -0.088442944 -0.12084341 -0.17885676 -0.056770265 0.027203668 0.08192057 0.06139299
-0.003446025 -0.15921655 0.04441444 0.00573572 0.14132641 -0.011351112 -0.18455732 -0.14377423
-0.11803075 0.06872362 -0.20304091 0.19839077 0.031031372 -0.18355706 -0.037932117 0.12763505
0.072315946 0.21355084 -0.20495845 -0.061379354 -0.15664734 0.006916588 -0.0927798 -0.051042378
-0.15977627 0.10265661 -0.18057686 -0.061782323 0.09066108 0.047511507 -0.08105412 0.003793635
0.08290915 -0.101321906 0.03920676 0.060473524 -0.022984521 0.010701956 -0.10433037 0.0010456562
0.16139425 0.04311118 0.045727123 0.11597024 -0.20263049 -0.052627105 -0.13542004 -0.019445643
-0.09617519 0.14474985 -0.20311978 0.10130929 -0.025851656 0.13447098 -0.100748315 0.04043019
-0.16569632 0.026306657 -0.0069332873 0.024187397 0.11063924 0.1088341 0.13720386 -0.15380007
0.12526175 0.0764933 -0.12812215 0.057783578 -0.117315754 0.1096866 0.05780549 -0.030951431
-0.07692488 0.0076953564 0.14108486 0.06957645 0.07701628 -0.11085153 0.12585163 0.11848524
0.05752717 0.04968005 0.0043599517 0.102437384 0.12689358 -0.10006427 0.14890201 0.09242407
-0.10741448 -0.034283567 -0.13131519 -0.1689681 0.044392195 -0.2072944 0.123753436 0.084354006
-0.06952272 -0.07789587 0.0033384194 0.087577365 0.07857673 -0.015667845 0.050898887 0.057035763
0.14522354 -0.15822905 -0.0015956002 0.09167401 0.10774628 -0.108199775 0.060021132 -0.08776727
0.11133827 0.16526167 -0.07039612 0.09117489 -0.037578247 -0.08596106 0.01601881 -0.09345142
-0.04038595 -0.113417156 -0.09805405 0.032620363 -0.050041247 -0.11661259 -0.10532149 0.011408883
0.15570328 -0.0002847469 0.10256938 0.15001267 -0.12667236 -0.062210094 0.06763477 -0.011220573
-0.01880497 0.085528195 0.072723225 -0.18157884 0.18342152 -0.0033537839 0.089744486 -0.08317433
-0.02874645 0.005825713 0.1803542 0.06607033 -0.11524844 -0.12605827 -0.11764576 -0.13215517
0.15620762 -0.10173039 0.0003838096 -0.068857275 -0.17244063 -0.16333899 0.01817894 -0.1647434
-0.15365371 0.18981399 -0.10594061 -0.107573666 -0.045332696 0.17164752 -0.11258633 -0.1490842
00000000: 2bfe 1a3e 5045 cf3d 7ba8 013d 53c6 be3d
00000010: b70b de3d 2fe0 1abe 3eff 5f3d 94aa 36be
00000020: 9201 99bc 71b3 493e 9358 23be e25b a1bc
00000030: 42a2 6cbd 55ce 7b3d 114e ac3d 0604 debd
00000040: a308 b43c 57ef 37bd 9928 423c 8023 193e
00000050: 4bef c93d 64d4 06be b3b9 3e3c 81b1 c63d
00000060: 6200 343e 3acd 22be 85bd 46bd c9dc 313e
00000070: a779 00be bf60 063e 039c 08be 6966 293e
00000080: cc76 4fbe 0a81 d13d 903d eebd 24a1 e93d
00000090: 0352 f6bd 40e7 213d 03a6 df3d 6230 cdbd
000000a0: 3f8f 2bbe bba0 1cbe d9b5 75bd 637b 1cbb
000000b0: 2a9b f6bd 96f7 acbd a32b 553e f8c2 30be
000000c0: b889 203e f944 b1bd 0d71 72bc 4575 a0bd
000000d0: 5678 67bd f32f 4cbd f639 383e 625b 0dbc
000000e0: 5923 ad3d d865 453d 55a0 3ebe c110 a4bb
000000f0: 4a38 373c 485a 1bbd c8b5 3bbe 758a 6fbd
00000100: 1d57 ebbc 809e 1cbe f93a 533e efb0 04bd
00000110: 9d0c 0b3e 3ede 89bd dda4 b63d 8caa 26be
00000120: e479 033e 7f30 7f3c 957c 2d3e 3782 2abe
00000130: 63b0 ddbd 28ac 14be 5b79 fa3d e096 a8bc
00000140: 077a 0e3d 9321 b5bd c07c f7bd 3a26 37be
00000150: f087 68bd 3ada de3c f9c5 a73d 3777 7b3d
00000160: b5d6 61bb aa09 23be eaeb 353d b5f2 bb3b
00000170: dfb7 103e 04fa 39bc 98fc 3cbe 8d39 13be
00000180: 1bba f1bd f8be 8c3d f5e9 4fbe f326 4b3e
00000190: 8135 fe3c 62f6 3bbe b55e 1bbd c3b2 023e
000001a0: 621a 943d 12ad 5a3e a1e0 51be eb68 7bbd
000001b0: 2968 20be 8ca4 e23b 5603 bebd d011 51bd
000001c0: 649c 23be a13d d23d 24e9 38be 760f 7dbd
000001d0: 84ac b93d 6d9b 423d b4ff a5bd a29e 783b
000001e0: 46cc a93d dc81 cfbd 4497 203d 16b3 773d
000001f0: 094a bcbc 4257 2f3c 29ab d5bd 660e 893a
00000200: 8944 253e 5995 303d 5d4c 3b3d ce81 ed3d
00000210: 5e7e 4fbe 858f 57bd 8dab 0abe 784c 9fbc
00000220: 7ff7 c4bd 4e39 143e a2fe 4fbe 3f7b cf3d
00000230: dac6 d3bc c3b2 093e 2255 cebd 209a 253d
00000240: 4cac 29be 0f81 d73c a130 e3bb a624 c63c
00000250: d396 e23d 6ae4 de3d 2b7f 0c3e c47d 1dbe
00000260: 9e44 003e 85a8 9c3d 7432 03be 79ae 6c3d
00000270: 3e43 f0bd 5ea3 e03d 73c5 6c3d db8d fdbc
00000280: cb8a 9dbd 5429 fc3b 8d78 103e 197e 8e3d
00000290: b6ba 9d3d 2106 e3bd 40df 003e 64a8 f23d
000002a0: 9ca1 6b3d 4f7d 4b3d eddd 8e3b b1ca d13d
000002b0: 64f0 013e 7fee ccbd c579 183e d548 bd3d
000002c0: 1ffc dbbd ed6c 0cbd 7d77 06be f905 2dbe
000002d0: 97d4 353d fc44 54be 7172 fd3d cbc1 ac3d
000002e0: ee61 8ebd df87 9fbd 62c9 5a3b c35b b33d
000002f0: d6ec a03d da59 80bc 5a7b 503d 559e 693d
00000300: 7bb5 143e cc06 22be 7523 d1ba 95bf bb3d
00000310: 15aa dc3d d897 ddbd b8d8 753d 54bf b3bd
00000320: 5205 e43d 5b3a 293e d72b 90bd e7b9 ba3d
00000330: a6eb 19bd 5a0c b0bd e139 833c 7563 bfbd
00000340: bd6b 25bd 4147 e8bd 90d0 c8bd ee9c 053d
00000350: 0df8 4cbd 95d2 eebd cbb2 d7bd 53ec 3a3c
00000360: ae70 1f3e 154a 95b9 e50f d23d ec9c 193e
00000370: 66b6 01be 03d0 7ebd 1984 8a3d 7fd6 37bc
00000380: e10c 9abc 6829 af3d eaef 943d ceef 39be
00000390: dad2 3b3e 28cb 5bbb f5cb b73d 4e57 aabd
000003a0: ad7d ebbc 9fe5 be3b c5ae 383e e24f 873d
000003b0: 6007 ecbd 6b15 01be 43f0 f0bd af53 07be
000003c0: e4f4 1f3e 0658 d0bd 0d3a c939 0b05 8dbd
000003d0: 4794 30be 5642 27be 00ec 943c 7eb2 28be
000003e0: 6657 1dbe 995e 423e 64f7 d8bd 954f dcbd
000003f0: c7ae 39bd 5ec4 2f3e a993 e6bd 87a9 18be

conv4.lin_l.bias f4 [64]
0.014922022 0.099965945 -0.060545407 0.13502201 -0.11305817 -0.03258049 0.0631927 -0.110929586
-0.12410865 0.14852697 0.021825312 0.14979959 -0.055640753 -0.09254456 -0.06826297 0.05248073
-0.1324257 -0.17600614 0.12543939 0.1670406 0.08844208 -0.055484824 -0.12930138 0.038420387
0.10020402 -0.1392478 0.08739068 0.09048708 -0.1058466 0.093655236 -0.026302319 -0.12453977
0.093978114 -0.0036846793 -0.12891684 9.550556e-05 0.10978512 0.007830001 0.16371268 0.14884908
-0.07297938 -0.0772111 -0.12032351 0.14791778 -0.14410785 0.1677048 -0.015510566 0.14941971
0.0333165 0.04656791 -0.035645675 0.14095068 -0.007376996 -0.04914696 -0.1030141 0.16434385
-0.06948431 -0.008300288 -0.094773896 0.1600305 0.011352264 0.028838485 -0.015665423 0.0686499
00000000: 7f7b 743c f2ba cc3d 76fe 77bd 3643 0a3e
00000010: 0b8b e7bd 1f73 05bd 2d6b 813d 0d2f e3bd
00000020: ad2c febd 7417 183e ffca b23c 1065 193e
00000030: 8fe7 63bd 0188 bdbd 75cd 8bbd 09f6 563d
00000040: 9a9a 07be f43a 34be 2f73 003e b10c 2b3e
00000050: 1f21 b53d 0e44 63bd 9567 04be b25e 1d3d
00000060: c437 cd3d fa96 0ebe e3f9 b23d 4a51 b93d
00000070: 1ac6 d8bd 51ce bf3d f677 d7bc b50e ffbd
00000080: 9977 c03d a97a 71bb c702 04be 284a c838
00000090: 05d7 e03d 6849 003c 4ca4 273e e56b 183e
000000a0: 3776 95bd da20 9ebd 2c6c f6bd c277 173e
000000b0: 0291 13be cfba 2b3e 0720 7ebc 7b01 193e
000000c0: e276 083d febd 3e3d 3301 12bd 6055 103e
000000d0: baba f1bb 534e 49bd 0ef9 d2bd c149 283e
000000e0: ca4d 8ebd eefd 07bc d118 c2bd 09df 233e
000000f0: d9fe 393c b03e ec3c c654 80bc 5298 8c3d

conv4.lin_r.weight f4 [64, 32]
-0.007252108 0.03861092 -0.18456206 0.07470856 0.13742906 -0.13072394 -0.0755246 -0.14288907
0.18908635 0.19202365 -0.042827185 -0.0064414386 0.025529483 -0.02880497 0.0426124 -0.018983357
-0.032732315 0.20204706 -0.02052268 0.12362299 0.067521945 0.006597294 0.069357805 0.09596147
0.033467535 -0.16619384 0.021741044 -0.08152257 0.043896094 -0.09930489 -0.06021074 -0.11389272
0.004164962 -0.054150403 0.19792783 -0.13672663 0.18221216 0.164185 0.10758639 0.17925112
0.05596931 -0.1982105 -0.049555376 0.08115018 -0.01619873 0.033349484 0.06440708 0.021355288
-0.107799865 0.14232467 -0.13366067 0.076393135 -0.00083154935 -0.14087243 -0.038667135 -0.01066216
-0.15248936 -0.01052186 -0.09252569 -0.17551668 -0.0051410496 0.1155824 -0.14544046 0.09678966
0.13223453 0.102205254 0.07051791 -0.19556814 -0.100905515 -0.13104315 -0.119654134 -0.014367256
0.037966434 0.047711253 -0.14656767 -0.074590564 -0.0861852 -0.059984148 -0.03231027 -0.0016546496
0.059075218 0.13269491 0.07624608 -0.1284713 0.027243223 0.01884989 0.09702743 -0.05896778
0.14793612 0.14838208 0.047416516 0.15112445 0.16134728 0.028713442 -0.004134452 0.1761575
0.118165866 0.048772715 -0.0808195 -0.016006079 -0.16876662 0.10157474 -0.047517024 0.06988144
-0.074846566 0.14881466 0.114154525 -0.033737615 -0.13261026 0.026619209 0.08366917 0.015685914
-0.128348 0.18532442 -0.16499254 0.010649335 -0.13462125 -0.060512252 0.071675725 -0.027725402
0.029458383 0.038235098 -0.054774232 -0.1220663 -0.14571546 0.09894736 0.09821858 -0.016173622
-0.05678276 0.04152195 0.10006054 -0.0591623 -0.15854727 -0.21285097 0.06404441 0.060348455
-0.0033626629 0.13860077 -0.082232654 0.12758738 -0.01570167 -0.16441898 -0.12774625 0.038992196
-0.032861743 0.060537577 0.08187323 -0.022354519 0.0037752271 0.18342927 0.07225335 0.044380024
0.17954437 -0.16848435 0.025605684 -0.027363887 -0.17866845 0.1405748 0.010427995 -0.0030374036
0.0009694122 -0.18247047 0.1806019 -0.03069441 0.00046775708 0.06976666 -0.19016974 0.114795186
0.013274841 -0.2020363 0.13967504 -0.11763412 -0.10603234 0.08400585 0.1936946 -0.14079997
-0.028537799 0.04147172 -0.11524596 -0.02192381 -0.18611829 0.07703973 0.1889847 -0.03154552
-0.1791929 -0.016198304 0.033620138 0.16760701 0.058480106 0.07228814 -0.15833466 -0.14357436
-0.044998243 0.15066177 -0.15005697 0.062092092 0.070631355 0.047236547 -0.08077468 -0.06032727
0.1901818 -0.075398356 -0.042830054 0.15299733 -0.15271778 0.05943181 0.060646422 -0.06153513
-0.028524823 -0.018111805 -0.09619754 0.17031372 -0.1527631 0.06250855 0.0031291486 -0.11698614
0.02917676 -0.1146701 0.0035882795 -0.04227318 -0.20355555 0.018189592 0.1953342 0.06746474
-0.076785 -0.17276283 -0.10361809 0.04713692 -0.063946486 0.18419959 -0.096210435 -0.1525047
-0.17777345 -0.15041906 -0.11196026 0.08730284 0.004675836 -0.08365677 0.08276311 0.1397724
-0.09106171 0.07055763 -0.13558766 0.041948058 -0.15267782 -0.20410055 0.14477229 -0.021324238
-0.1759431 0.013875777 -0.17319621 0.0010378266 0.112858266 0.06954354 -0.055631526 -0.016061062
00000000: 17a3 edbb 7c26 1e3d d6fd 3cbe cd00 993d
00000010: 34ba 0c3e 7fdc 05be a4ac 9abd 8351 12be
00000020: da9f 413e d9a1 443e 8f6b 2fbd b412 d3bb
00000030: 3523 d13c 67f8 ebbc 578a 2e3d fc82 9bbc
00000040: 5212 06bd 6de5 4e3e 2e1f a8bc 0d2e fd3d
00000050: f248 8a3d 1d2e d83b 770b 8e3d 7287 c43d
00000060: 4115 093d b82e 2abe 461a b23c 4ef5 a6bd
00000070: 64cc 333d 5d60 cbbd 899f 76bd 9640 e9bd
00000080: 3c7a 883b d0cc 5dbd 98ad 4a3e 1102 0cbe
00000090: d395 3a3e 1d20 283e 4156 dc3d 9b8d 373e
000000a0: 1340 653d b1f7 4abe 94fa 4abd 1132 a63d
000000b0: 33b3 84bc 7899 083d dce7 833d 49f1 ae3c
000000c0: 2dc6 dcbd 8fbd 113e 58de 08be 0174 9c3d
000000d0: 55fc 59ba dd40 10be 6e61 1ebd 57b0 2ebc
000000e0: 2c26 1cbe e163 2cbc 1c7e bdbd a5ba 33be
000000f0: 4076 a8bb 77b6 ec3d 58ee 14be a839 c63d
00000100: 7d68 073e fd50 d13d b26b 903d 0443 48be
00000110: 8da7 cebd 2d30 06be 3a0d f5bd a464 6bbc
00000120: b182 1b3d e06c 433d d615 16be f0c2 98bd
00000130: de81 b0bd f0b1 75bd c657 04bd d4e0 d8ba
00000140: dbf8 713d 2de1 073e e826 9c3d fb8d 03be
00000150: 2e2d df3c 166b 9a3c 51b6 c63d 3388 71bd
00000160: 917c 173e 79f1 173e d237 423d 5ec0 1a3e
00000170: 3938 253e 7438 eb3c 4c7a 87bb a262 343e
00000180: f200 f23d e6c5 473d b284 a5bd 2e1f 83bc
00000190: 28d1 2cbe 6b06 d03d 36a1 42bd 001e 8f3d
000001a0: 2849 99bd df62 183e d9c9 e93d 7430 0abd
000001b0: fcca 07be 8710 da3c be5a ab3d bf7f 803c
000001c0: a86d 03be afc5 3d3e cef3 28be 8c7a 2e3c
000001d0: 27da 09be b2db 77bd b9ca 923d 6220 e3bc
000001e0: b552 f13c 689c 1c3d f25a 60bd e5fd f9bd
000001f0: 6f36 15be eaa4 ca3d d326 c93d 8b7e 84bc
00000200: 0a95 68bd ec12 2a3d 8aec cc3d 2b54 72bd
00000210: 375a 22be 9bf5 59be b729 833d f12f 773d
00000220: 1f60 5cbb 5ced 0d3e 9869 a8bd 44a6 023e
00000230: caa0 80bc 735d 28be eacf 02be 48b6 1f3d
00000240: 099a 06bd 40f6 773d 27ad a73d d320 b7bc
00000250: cd69 773b e2d4 3b3e 90f9 933d d4c7 353d
00000260: 7bda 373e 2987 2cbe 03c3 d13c 3b2a e0bc
00000270: ddf4 36be d7f2 0f3e 2eda 2a3c 2d0f 47bb
00000280: 2720 7e3a 8ad9 3abe b4ef 383e d872 fbbc
00000290: 4b3d f539 d3e1 8e3d dbbb 42be bd19 eb3d
000002a0: b87e 593c 9be2 4ebe f906 0f3e 28ea f0bd
000002b0: 7c27 d9bd 420b ac3d e157 463e de2d 10be
000002c0: 1ac8 e9bc 40de 293d 1306 ecbd 9099 b3bc
000002d0: cb95 3ebe 02c7 9d3d 3585 413e e035 01bd
000002e0: 587e 37be 4eb2 84bc 45b5 093d 2ca1 2b3e
000002f0: d688 6f3d ce0b 943d 7b22 22be 2805 13be
00000300: 1450 38bd 1447 1a3e 89a8 19be 4754 7e3d
00000310: 2ca7 903d 1c7b 413d 326d a5bd ba19 77bd
00000320: 05bf 423e 746a 9abd 916e 2fbd 55ab 1c3e
00000330: 0d62 1cbe c56e 733d 6268 783d 430c 7cbd
00000340: e4ac e9bc 355f 94bc 3703 c5bd b866 2e3e
00000350: ee6d 1cbe 7c04 803d 6712 4d3b 6e96 efbd
00000360: 1a04 ef3c 28d8 eabd 5729 6b3b a426 2dbd
00000370: de70 50be 5702 953c b005 483e f42a 8a3d
00000380: 7441 9dbd bde8 30be b935 d4bd a512 413d
00000390: 60f6 82bd d19e 3c3e fa09 c5bd 312a 1cbe
000003a0: 3e0a 36be 7407 1abe 6c4b e5bd d5cb b23d
000003b0: c137 993b 3e54 abbd b57f a93d 7f20 0f3e
000003c0: 907e babd 8580 903d 7ed7 0abe bad1 2b3d
000003d0: 9357 1cbe bcff 50be 303f 143e 2bb0 aebc
000003e0: 6e2a 34be 3a57 633c 595a 31be af07 883a
000003f0: 3c22 e73d d86c 8e3d e2dd 63bd 7d92 83bc

conv1r.lin_l.weight f4 [32, 64]
-0.014415547 -0.08234988 0.045133498 -0.021441966 -0.09223408 -0.13146156 0.015479281 -0.12147956
0.03265416 -0.08806037 -0.08679081 0.04723556 -0.13148504 0.09327212 -0.05645635 -0.054320473
-0.04492918 -0.028461436 -0.11132125 0.01798998 -0.010972012 -0.08601449 -0.09832051 0.12935866
0.12576057 -0.020301238 0.11784011 -0.066617996 -0.028906764 -0.05037669 0.002577311 -0.12341276
-0.1058259 -0.061192676 -0.033873167 -0.02071311 -0.12830055 -0.08756706 -0.12001207 0.000764229
-0.0149464235 -0.08813984 0.08852955 0.026833558 -0.06290178 0.04931586 0.119062856 -0.072568074
-0.008562947 0.021251082 -0.10043814 0.043819074 0.08685593 0.043517176 0.03426233 0.014408172
0.009030818 0.0007086641 0.003533357 -0.07371354 0.11076123 -0.09933549 0.06922905 0.05006387
0.10301305 -0.0719663 -0.010018376 -0.0037251378 0.05891826 -0.113267325 -0.047525387 -0.095074095
0.040917538 0.055390097 -0.09519113 0.04852869 0.0834306 -0.03821062 -0.064623296 0.10808395
-0.033205584 -0.09943713 -0.12611213 0.04177639 -0.07006822 0.07903975 -0.1593019 -0.013519269
0.116211765 0.098683015 -0.021971684 0.1530564 -0.04910144 0.021976355 0.057392295 0.14384307
-0.009531144 0.10305996 -0.12753521 -0.10384208 -0.09415268 0.09770742 0.05277202 -0.06862044
-0.05403609 -0.047855128 -0.041958 0.044448134 0.09866623 -0.08900509 0.032449476 0.10863573
-0.13844237 -0.14832394 0.052187707 0.16083714 0.15558684 -0.14825915 0.16076581 0.042118933
0.10276615 0.03158338 -0.08641095 0.12798238 -0.12416909 0.053509127 0.07820299 -0.06228994
-0.11472965 0.14358054 -0.015488476 -0.028886983 0.047813505 0.10006428 -0.040889572 0.15304175
-0.1325884 0.112337776 -0.0031752093 -0.00297737 -0.11051577 0.005893827 0.065855965 -0.027614841
0.08462649 -0.07488506 -0.013688812 -0.06158471 -0.07834937 0.11760272 -0.0062860674 0.086437695
-0.019669298 -0.10798743 -0.022988316 -0.063189276 -0.08702575 -0.07417702 0.041341364 0.0985377
0.035992533 -0.008194494 0.106108844 0.10502224 0.0025319024 0.0037380033 0.13331892 -0.03052775
-0.05002886 0.029258754 -0.037346836 -0.02456611 -0.0858588 0.13665281 0.006494249 0.025315706
0.071583055 -0.019774558 0.093842596 -0.14186697 -0.1294124 0.13018095 0.0040260963 0.10476511
0.0004869089 0.11182503 0.1082629 -0.12249625 0.006348734 -0.00718299 0.06506949 -0.067999266
0.00031984452 0.0011835371 0.042090386 0.1274772 0.12884416 -0.16799226 0.048855837 0.06194806
0.01675891 -0.04789496 -0.13702646 -0.09194414 0.02892277 -0.1590834 -0.006506805 0.15574059
0.038688704 0.071277075 -0.15054452 0.044861216 -0.057060376 -0.023200504 -0.007658145 -0.040792014
0.14191982 -0.01980956 0.08955804 -0.053138062 -0.13002051 -0.019968849 -0.13152139 0.10727446
0.10130315 0.052596826 -0.003850054 -0.08514785 -0.04125893 -0.061317883 -0.013919612 -0.06322383
0.06590159 0.14269844 -0.05128558 -0.09017679 -0.033313937 0.07434361 -0.06045252 -0.053906374
0.030736335 0.004075408 0.010235652 0.011191213 0.07768116 0.0045149685 0.069221586 -0.060455155
0.11766154 0.050932195 -0.03354418 0.09143668 -0.104125015 -0.0069907964 -0.113429725 -0.14121148
00000000: 302f 6cbc 0ea7 a8bd e7dd 383d 10a7 afbc
00000010: 39e5 bcbd dc9d 06be cf9c 7d3c 47ca f8bd
00000020: 5ec0 053d ff58 b4bd 61bf b1bd 137a 413d
00000030: 04a4 06be 7405 bf3d c63e 67bd 257f 5ebd
00000040: a907 38bd f527 e9bc 65fc e3bd b95f 933c
00000050: f4c3 33bc 5d28 b0bd 435c c9bd 9976 043e
00000060: 61c7 003e c84e a6bc 2856 f13d 046f 88bd
00000070: e1cd ecbc ca57 4ebd 1ae8 283b d4bf fcbd
00000080: 40bb d8bd 2ca5 7abd 97be 0abd 8aae a9bc
00000090: 3861 03be 5c56 b3bd e3c8 f5bd 8a56 483a
000000a0: d8e1 74bc a982 b4bd fb4e b53d 0dd2 db3c
000000b0: a6d2 80bd 6dff 493d 3ad7 f33d 929e 94bd
000000c0: 9a4b 0cbc c016 ae3c 83b2 cdbd a17b 333d
000000d0: 86e1 b13d 113f 323d a856 0c3d 4110 6c3c
000000e0: fff5 133c a5c5 393a e58f 673b 20f7 96bd
000000f0: c9d6 e23d 6870 cbbd f6c7 8d3d c60f 4d3d
00000100: 82f8 d23d 1163 93bd 1d24 24bc 7121 74bb
00000110: 4654 713d b3f8 e7bd fba9 42bd 35b6 c2bd
00000120: 2699 273d bae0 623d 91f3 c2bd 05c6 463d
00000130: aadd aa3d bd82 1cbd 3859 84bd 1e5b dd3d
00000140: 9402 08bd b2a5 cbbd 8a23 01be b81d 2b3d
00000150: ed7f 8fbd 98df a13d 0a20 23be ed7f 5dbc
00000160: 6f00 ee3d 521a ca3d f6fd b3bc d1ba 1c3e
00000170: 971e 49bd c207 b43c 2f14 6b3d 994b 133e
00000180: 8428 1cbc 1a11 d33d 9798 02be 28ab d4bd
00000190: 1fd3 c0bd d41a c83d 7927 583d e088 8cbd
000001a0: f254 5dbd bd03 44bd 27dc 2bbd 3f0f 363d
000001b0: 8511 ca3d 4d48 b6bd bee9 043d 697c de3d
000001c0: d6c3 0dbe 3be2 17be c7c2 553d 7eb2 243e
000001d0: 2852 1f3e 3fd1 17be cb9f 243e e784 2c3d
000001e0: 0f77 d23d 935d 013d 39f8 b0bd d00d 033e
000001f0: 5d4c febd 632c 5b3d e428 a03d bc23 7fbd
00000200: 61f7 eabd c706 133e 60c3 7dbc 65a4 ecbc
00000210: 18d8 433d 80ee cc3d d37b 27bd fab6 1c3e
00000220: 41c5 07be 5911 e63d 2c17 50bb fb1f 43bb
00000230: 1856 e2bd 0121 c13b 7edf 863d 8538 e2bc
00000240: a750 ad3d 575d 99bd 0a47 60bc 4040 7cbd
00000250: a275 a0bd b2d9 f03d 5bfb cdbb 3f06 b13d
00000260: 8221 a1bc 8428 ddbd fe51 bcbc 6169 81bd
00000270: 8e3a b2bd 1fea 97bd 9055 293d 22ce c93d
00000280: e86c 133d 3342 06bc 984f d93d e615 d73d
00000290: 46ee 253b 4af9 743b c184 083e 5515 fabc
000002a0: 10eb 4cbd 0eb0 ef3c fff8 18bd de3e c9bc
000002b0: bdd6 afbd b7ee 0b3e b6cd d43b e262 cf3c
000002c0: 239a 923d 41fe a1bc 8c30 c03d 9345 11be
000002d0: af84 04be 284e 053e 58ed 833b 178f d63d
000002e0: ce47 ff39 8504 e53d f0b8 dd3d 50df fabd
000002f0: 0a09 d03b 4a5f ebbb 2743 853d 3343 8bbd
00000300: ceb0 a739 ea20 9b3a f866 2c3d 6289 023e
00000310: b9ef 033e 2a06 2cbe 0f1d 483d 40bd 7d3d
00000320: fb49 893c 812d 44bd aa50 0cbe 364d bcbd
00000330: 72ef ec3c c2e6 22be 0937 d5bb 767a 1f3e
00000340: 0c78 1e3d b7f9 913d 5828 1abe 65c0 373d
00000350: 24b8 69bd fc0e bebc 2df1 fabb 8715 27bd
00000360: 6e53 113e a947 a2bc 356a b73d 4ca7 59bd
00000370: 1924 05be b695 a3bc 8bad 06be b6b2 db3d
00000380: 0778 cf3d c56f 573d 3051 7cbb ff61 aebd
00000390: 20ff 28bd 7628 7bbd 160f 64bc 7f7b 81bd
000003a0: 6af7 863d 8a1f 123e d410 52bd 9cae b8bd
000003b0: 3274 08bd 7641 983d 109d 77bd eecc 5cbd
000003c0: c4ca fb3c 008b 853b 70b3 273c 595b 373c
000003d0: 4d17 9f3d 4df2 933b 0cc4 8d3d d39f 77bd
000003e0: 89f8 f03d 479e 503d 9f65 09bd 2743 bb3d
000003f0: 7f3f d5bd 0d13 e5bb d84d e8bd be99 10be

conv1r.lin_l.bias f4 [32]
-0.010980979 0.065632805 -0.07863424 -0.015649464 -0.02367786 0.04059555 -0.053511214 -0.027923103
0.051576372 -0.11424715 -0.12483785 -0.088150665 0.04618064 0.005008502 -0.015984124 -0.065457754
-0.015461023 -0.07883346 0.07668995 0.08060613 -0.105777964 -0.030731242 0.122335665 -0.06382785
-0.015154404 0.06788166 0.08665054 0.028457519 0.11947462 -0.022922428 0.09387136 0.008986356
00000000: 90e9 33bc 7e6a 863d fd0a a1bd 4e33 80bc
00000010: 12f8 c1bc 8547 263d 932e 5bbd febe e4bc
00000020: bf41 533d 69fa e9bd fdaa ffbd 5688 b4bd
00000030: e927 3d3d 5c1e a43b 23f1 82bc b70e 86bd
00000040: 3b50 7dbc 7073 a1bd 9f0f 9d3d d414 a53d
00000050: 1ea2 d8bd 16c0 fbbc 1f8b fa3d 2db8 82bd
00000060: 2d4a 78bc 8a05 8b3d d775 b13d be1f e93c
00000070: 1caf f43d d1c7 bbbc a13f c03d 823b 133c

conv1r.lin_r.weight f4 [32, 64]
-0.077465326 0.014200957 -0.11741897 -0.0009405771 -0.06709516 -0.08510943 -0.05990188 -0.08348926
-0.04415411 0.00012546047 0.07534554 -0.025510482 -0.13244537 -0.013990651 -0.07869241 0.01855109
0.12563415 -0.027215658 0.08200564 0.071834065 0.13116537 0.015884593 -0.1097146 -0.047590822
-0.11344349 0.09206343 -0.0024456168 -0.11140259 0.088831 0.056757078 0.036568593 0.064380944
-0.060291108 0.06575394 -0.05021914 -0.15791129 -0.13356374 -0.0022415805 -0.0038018553 0.13468553
0.006458456 0.117429994 0.11835078 -0.00082873495 0.09311903 0.012458906 -0.028892826 0.03770768
-0.1511592 0.09637894 -0.0813656 0.06202501 0.11297766 -0.114270754 0.026044354 -0.13658905
-0.041869488 0.11126418 -0.044735953 0.1028563 0.06621705 -0.113837525 -0.09534009 0.012109137
0.05317781 -0.0747649 -0.12216494 0.12499078 0.09457141 -0.041205138 0.034490485 -0.14000691
0.04953479 -0.0316189 -0.047983456 -0.113076426 0.08040099 -0.12383088 0.011804434 0.006073027
0.08145296 -0.090626754 0.044373628 -0.12476079 -0.009965877 -0.0858008 0.0063752322 0.05908905
-0.061499517 0.047413677 -0.107579716 0.042772338 0.053895485 0.0153340725 -0.0783216 -0.054356355
-0.07368959 0.009644251 -0.13865434 -0.04407851 -0.013277304 0.03933502 -0.12742554 0.061638054
0.1259225 0.026548095 0.01653996 -0.14176406 -0.068928525 -0.12484285 -0.07209469 -0.04149707
-0.056483492 0.032692302 -0.11311369 0.1417775 -0.03099536 -0.0052219895 -0.063501336 -0.10214342
0.025735527 -0.08808794 -0.1176663 0.08587012 0.007863919 0.055445887 -0.0046369997 -0.0021328686
0.007757416 0.15080571 -0.052225642 -0.02949291 0.100397855 -0.0792274 -0.15011474 0.04163979
-0.08234093 0.01874883 0.0074421517 0.056937214 0.04973444 0.033101276 -0.0137895895 -0.12270127
0.02054739 0.13158351 0.10752841 -0.067627504 0.02733971 0.0014726393 0.04206509 -0.06847006
0.039022066 -0.0115067605 -0.021789303 -0.11772935 0.09833155 0.017571172 0.14650515 -0.12558079
0.076438 0.0665151 -0.015510404 -0.08101568 -0.039264686 -0.08469349 0.14816226 -0.14143352
0.094979286 -0.061966 0.05971484 0.08531645 -0.07815096 0.05354973 0.07104277 -0.097022906
0.13752253 -0.076276384 -0.06216233 -0.07457237 0.0035027373 0.07120048 -0.037380535 0.15328816
-0.022833493 0.03276994 -0.08770658 0.09883066 -0.0069619245 0.0033283827 0.052179433 -0.06776175
-0.05854759 -0.105496705 0.10243235 0.0058618444 0.06520567 -0.0148444995 0.120264634 -0.07557047
0.121428795 -0.09217133 -0.13566762 0.0041679298 -0.053676404 0.06508799 0.11047307 0.029132903
0.06790162 0.070230804 0.09100201 -0.1431928 -0.0655317 0.0495707 0.00776672 0.1290777
0.06366566 -0.016745828 -0.12300081 -0.083465196 0.081862584 0.1370246 0.03824211 0.06075298
0.10821313 0.11181686 0.04448166 0.08992017 -0.09180188 0.03140036 -0.10525829 -0.020422397
-0.094816044 0.031949744 0.15341759 -0.053286247 0.10440092 -0.09006744 0.16052929 0.15144432
-0.11526358 0.013076616 0.11993676 0.09893698 0.09890444 -0.13674271 -0.050364085 0.08991707
0.0025568518 -0.016168885 -0.057932265 -0.0761454 -0.030878382 -0.01908055 0.045484997 0.08614191
00000000: 24a6 9ebd 21ab 683c 5b79 f0bd 1091 76ba
00000010: 3069 89bd da4d aebd ac5b 75bd 6bfc aabd
00000020: f1da 34bd 0a8e 0339 c34e 9a3d 5cfb d0bc
00000030: c29f 07be 0b39 65bc 7c29 a1bd 75f8 973c
00000040: 3da6 003e 5ff3 debc 93f2 a73d bd1d 933d
00000050: 3750 063e 6820 823c 0cb2 e0bd 98ee 42bd
00000060: 0f55 e8bd c08b bc3d a446 20bb 0b27 e4bd
00000070: 07ed b53d 1c7a 683d f3c8 153d 28da 833d
00000080: cff3 76bd 00aa 863d 96b2 4dbd 7fb3 21be
00000090: efc4 08be 7be7 12bb 8c28 79bb 01eb 093e
000000a0: 75a1 d33b 237f f03d e561 f23d 763f 59ba
000000b0: 31b5 be3d 7020 4c3c a6b0 ecbc 5e73 1a3d
000000c0: 7ac9 1abe 5262 c53d 02a3 a6bd f00d 7e3d
000000d0: d560 e73d c906 eabd f85a d53c 00de 0bbe
000000e0: 577f 2bbd 79de e33d 0c3d 37bd 53a6 d23d
000000f0: ce9c 873d a623 e9bd aa41 c3bd 6765 463c
00000100: fad0 593d 571e 99bd 9d31 fabd 2bfb ff3d
00000110: a8ae c13d b8c6 28bd e545 0d3d f95d 0fbe
00000120: fee4 4a3d d282 01bd 4d8a 44bd 9d94 e7bd
00000130: 46a9 a43d 0b9b fdbd 6267 413c 3e00 c73b
00000140: cfd0 a63d 859a b9bd 1fc1 353d 9682 ffbd
00000150: eb47 23bc 54b8 afbd 53e7 d03b 5c07 723d
00000160: ebe6 7bbd d834 423d c152 dcbd 0c32 2f3d
00000170: 83c1 5c3d c33b 7b3c 1367 a0bd c5a4 5ebd
00000180: 91ea 96bd ec02 1e3c 67fb 0dbe ab8b 34bd
00000190: 0d89 59bc c21d 213d d77b 02be 2f78 7c3d
000001a0: d4f1 003e 647b d93c cf7e 873c 992a 11be
000001b0: 662a 8dbd 9cad ffbd 61a6 93bd d5f8 29bd
000001c0: 3c5b 67bd 5de8 053d 26a8 e7bd 1f2e 113e
000001d0: fbe9 fdbc 391d abbb fd0c 82bd 9230 d1bd
000001e0: 50d3 d23c 7367 b4bd 07fb f0bd acdc af3d
000001f0: abd7 003c 3a1b 633d f9f1 97bb 99c7 0bbb
00000200: ec31 fe3b d06c 1a3e 8eea 55bd 1d9b f1bc
00000210: 649d cd3d fa41 a2bd aeb7 19be 7c8e 2a3d
00000220: 5da2 a8bd 2597 993c 4bdd f33b ff36 693d
00000230: 57b6 4b3d 3495 073d bbed 61bc ce4a fbbd
00000240: 0053 a83c d4bd 063e db37 dc3d 4a80 8abd
00000250: 87f7 df3c 9305 c13a 724c 2c3d 083a 8cbd
00000260: 9ad5 1f3d da86 3cbc 7b7f b2bc 161c f1bd
00000270: 0d62 c93d 6bf1 8f3c 7205 163e 4098 00be
00000280: 878b 9c3d 1239 883d 591f 7ebc 8deb a5bd
00000290: 02d4 20bd c873 adbd d9b7 173e f3d3 10be
000002a0: 8084 c23d 0fd0 7dbd 8c97 743d 64ba ae3d
000002b0: 9c0d a0bd f656 5b3d df7e 913d f2b3 c6bd
000002c0: b5d2 0c3e cb36 9cbd ed9d 7ebd 66b9 98bd
000002d0: 2e8e 653b 8fd1 913d 551c 19bd 92f7 1c3e
000002e0: 4e0d bbbc c639 063d 829f b3bd bb67 ca3d
000002f0: db20 e4bb ff20 5a3b 1aba 553d acc6 8abd
00000300: 99cf 6fbd a80e d8bd 0dc8 d13d b714 c03b
00000310: 8d8a 853d 5836 73bc 4e4d f63d b1c4 9abd
00000320: a9af f83d 52c4 bcbd 74ec 0abe 2193 883b
00000330: cadb 5bbd da4c 853d b43f e23d 20a8 ee3c
00000340: 0110 8b3d 2bd5 8f3d 435f ba3d 22a1 12be
00000350: 7c35 86bd a50a 4b3d f87f fe3b f22c 043e
00000360: 2463 823d 8c2e 89bc d9e7 fbbd cdef aabd
00000370: 92a7 a73d 2d50 0c3e c2a3 1c3d 1ed8 783d
00000380: d89e dd3d 3d00 e53d 6732 363d 1128 b83d
00000390: a002 bcbd aa9d 003d a991 d7bd df4c a7bc
000003a0: ea2e c2bd bcdd 023d 8019 1d3e ae42 5abd
000003b0: 26d0 d53d 4775 b8bd ca61 243e 3814 1b3e
000003c0: 500f ecbd 4e3f 563c 67a1 f53d 799f ca3d
000003d0: 698e ca3d 4806 0cbe 924a 4ebd 7126 b83d
000003e0: db90 273b 9c74 84bc 624a 6dbd 1ff2 9bbd
000003f0: a9f4 fcbc d04e 9cbc 7a4e 3a3d 2b6b b03d
